// TODO(hanchung): Add other types of fft tests, e.g. fft, ifft, irfft.

func @rfft_1d() attributes { iree.module.export } {
  %input = iree.unfoldable_constant dense<[
    … > : tensor<32xf32>
  %0 = "mhlo.fft"(%input) {
    fft_length = dense<32> : tensor<i64>, fft_type = "RFFT"
  } : (tensor<32xf32>) -> tensor<17xcomplex<f32>>
  %1 = "mhlo.real"(%0) : (tensor<17xcomplex<f32>>) -> tensor<17xf32>
  %2 = "mhlo.imag"(%0) : (tensor<17xcomplex<f32>>) -> tensor<17xf32>
  check.expect_almost_eq_const(%1, dense<[
    … > : tensor<17xf32>) : tensor<17xf32>
  check.expect_almost_eq_const(%2, dense<[
    … > : tensor<17xf32>) : tensor<17xf32>
  return
}

func @rfft_2d() attributes { iree.module.export } {
  %input = iree.unfoldable_constant dense<[[
    … > : tensor<1x32xf32>
  %0 = "mhlo.fft"(%input) {
    fft_length = dense<32> : tensor<1xi64>, fft_type = "RFFT"
  } : (tensor<1x32xf32>) -> tensor<1x17xcomplex<f32>>
  %1 = "mhlo.real"(%0) : (tensor<1x17xcomplex<f32>>) -> tensor<1x17xf32>
  %2 = "mhlo.imag"(%0) : (tensor<1x17xcomplex<f32>>) -> tensor<1x17xf32>
  check.expect_almost_eq_const(%1, dense<[
    [… > : tensor<1x17xf32>) : tensor<1x17xf32>
  check.expect_almost_eq_const(%2, dense<[
    [… > : tensor<1x17xf32>) : tensor<1x17xf32>
  return
}
