func @matmul_add() {
  %0 = iree.unfoldable_constant dense<[
    [… > : tensor<2x8xf32>
  %1 = iree.unfoldable_constant dense<[
    [ … > : tensor<8x4xf32>
  %2 = iree.unfoldable_constant dense<[
    [1.0, 2.0, 3.0, 4.0],
    [5.0, 6.0, 7.0, 8.0]]> : tensor<2x4xf32>
  %workload = constant 8 : index
  %3 = flow.dispatch.region[%workload: index]
    (%arg0 = %0 : tensor<2x8xf32>, %arg1 = %1 : tensor<8x4xf32>,
     %arg2 = %2 : tensor<2x4xf32>) -> tensor<2x4xf32> {
    %4 = "mhlo.dot"(%arg0, %arg1) :
      (tensor<2x8xf32>, tensor<8x4xf32>) -> tensor<2x4xf32>
    %5 = mhlo.add %4, %arg2 : tensor<2x4xf32>
    flow.return %5 : tensor<2x4xf32>
  }
  check.expect_almost_eq_const(%3, dense<
    [[709.0, 746.0, 783.0, 820.0],
    [1673.0, 1774.0, 1875.0, 1976.0]]> : tensor<2x4xf32>) : tensor<2x4xf32>
  return
}

func @matmul_add_large() {
  %0 = iree.unfoldable_constant dense<
      [[0.      , … > : tensor<16x32xf32>
  %1 = iree.unfoldable_constant dense<
      [[… >
    : tensor<32x48xf32>
  %2 = iree.unfoldable_constant dense<
      [[0.      , … >
    : tensor<16x48xf32>
  %workload = constant 768 : index
  %3 = flow.dispatch.region[%workload: index]
    (%arg0 = %0 : tensor<16x32xf32>, %arg1 = %1 : tensor<32x48xf32>,
     %arg2 = %2 : tensor<16x48xf32>) -> tensor<16x48xf32> {
    %4 = "mhlo.dot"(%arg0, %arg1) :
      (tensor<16x32xf32>, tensor<32x48xf32>) -> tensor<16x48xf32>
    %5 = mhlo.add %4, %arg2 : tensor<16x48xf32>
    flow.return %5 : tensor<16x48xf32>
  }
  check.expect_almost_eq_const(%3, dense<
      [[ … >
    : tensor<16x48xf32>) : tensor<16x48xf32>
  return
}

func @batch_matmul_add_large() {
  %0 = iree.unfoldable_constant dense<
      [[[… >
    : tensor<2x16x32xf32>
  %1 = iree.unfoldable_constant dense<
      [[[… >
    : tensor<2x32x32xf32>
  %2 = iree.unfoldable_constant dense<
      [[[… >
    : tensor<2x16x32xf32>
  %workload = constant 2048 : index
  %3 = flow.dispatch.region[%workload: index]
    (%arg0 = %0 : tensor<2x16x32xf32>, %arg1 = %1 : tensor<2x32x32xf32>,
     %arg2 = %2 : tensor<2x16x32xf32>) -> tensor<2x16x32xf32> {
    %4 = "mhlo.dot_general"(%arg0, %arg1) {
      dot_dimension_numbers = {
        lhs_batching_dimensions = dense<0> : tensor<1xi64>,
        lhs_contracting_dimensions = dense<2> : tensor<1xi64>,
        rhs_batching_dimensions = dense<0> : tensor<1xi64>,
        rhs_contracting_dimensions = dense<1> : tensor<1xi64>
      },
      precision_config = ["DEFAULT", "DEFAULT"]
    } : (tensor<2x16x32xf32>, tensor<2x32x32xf32>) -> tensor<2x16x32xf32>
    %5 = mhlo.add %4, %arg2 : tensor<2x16x32xf32>
    flow.return %5 : tensor<2x16x32xf32>
  }
  check.expect_almost_eq_const(%3, dense<
      [[[ … > : tensor<2x16x32xf32>) : tensor<2x16x32xf32>
  return
}
