diff --git a/compiler/src/iree/compiler/Codegen/Dialect/VectorExt/IR/test/canonicalize.mlir b/compiler/src/iree/compiler/Codegen/Dialect/VectorExt/IR/test/canonicalize.mlir
index 0775a348f5..5b30bac149 100644
--- a/compiler/src/iree/compiler/Codegen/Dialect/VectorExt/IR/test/canonicalize.mlir
+++ b/compiler/src/iree/compiler/Codegen/Dialect/VectorExt/IR/test/canonicalize.mlir
@@ -57,18 +57,20 @@ func.func @transfer_gather_fold_broadcast(%indices: vector<64xindex>,

   %broadcasted = vector.broadcast %indices : vector<64xindex> to vector<32x64xindex>

-  %out = iree_vector_ext.transfer_gather %source[%c0, %c0]
-  [None, %broadcasted: vector<32x64xindex>], %cst0
-  { indexed_maps = [affine_map<(d0, d1) -> (d1, d0)>]}
+  %out = iree_vector_ext.transfer_gatherv2 %source[%c0, %c0]
+  [%broadcasted: vector<32x64xindex>], %cst0
+  { indexing_maps = [affine_map<(d0, d1)[s0] -> (d0, s0)>,
+                     affine_map<(d0, d1)[s0] -> (d1, d0)>]}
   : tensor<4096x64xf16>, vector<64x32xf16>

   return %out : vector<64x32xf16>
 }

-// CHECK: #[[$MAP:.*]] = affine_map<(d0, d1) -> (d0)>
+// CHECK-DAG: #[[$MAP:.*]] = affine_map<(d0, d1)[s0] -> (d0, s0)>
+// CHECK-DAG: #[[$MAP1:.*]] = affine_map<(d0, d1)[s0] -> (d0)>
 // CHECK-LABEL: @transfer_gather_fold_broadcast
 // CHECK: transfer_gather
-// CHECK-SAME: indexed_maps = [#[[$MAP]]]
+// CHECK-SAME: indexing_maps = [#[[$MAP]], #[[$MAP1]]]

 // -----

@@ -81,18 +83,20 @@ func.func @transfer_gather_fold_transpose(%indices: vector<64x32xindex>,

   %transposed = vector.transpose %indices, [1, 0] : vector<64x32xindex> to vector<32x64xindex>

-  %out = iree_vector_ext.transfer_gather %source[%c0, %c0]
-  [None, %transposed: vector<32x64xindex>], %cst0
-  {indexed_maps = [affine_map<(d0, d1) -> (d1, d0)>]}
+  %out = iree_vector_ext.transfer_gatherv2 %source[%c0, %c0]
+  [%transposed: vector<32x64xindex>], %cst0
+  {indexing_maps = [affine_map<(d0, d1)[s0] -> (d0, s0)>,
+                    affine_map<(d0, d1)[s0] -> (d1, d0)>]}
   : tensor<4096x64xf16>, vector<64x32xf16>

   return %out : vector<64x32xf16>
 }

-// CHECK: #[[$MAP:.*]] = affine_map<(d0, d1) -> (d0, d1)>
+// CHECK: #[[$MAP:.*]] = affine_map<(d0, d1)[s0] -> (d0, s0)>
+// CHECK: #[[$MAP1:.*]] = affine_map<(d0, d1)[s0] -> (d0, d1)>
 // CHECK-LABEL: @transfer_gather_fold_transpose
 // CHECK: transfer_gather
-// CHECK-SAME: indexed_maps = [#[[$MAP]]]
+// CHECK-SAME: indexing_maps = [#[[$MAP]], #[[$MAP1]]]

 // -----

@@ -105,18 +109,21 @@ func.func @transfer_gather_fold_step(%indices: vector<64x32xindex>,

   %step = vector.step : vector<64xindex>

-  %out = iree_vector_ext.transfer_gather %source[%c0, %c0]
-  [%step : vector<64xindex>, %indices: vector<64x32xindex>], %cst0
-  {indexed_maps = [affine_map<(d0, d1) -> (d0)>, affine_map<(d0, d1) -> (d0, d1)> ]}
+  %out = iree_vector_ext.transfer_gatherv2 %source[%c0, %c0]
+  [%step, %indices : vector<64xindex>, vector<64x32xindex>], %cst0
+  {indexing_maps = [affine_map<(d0, d1)[s0, s1] -> (s0, s1)>,
+                    affine_map<(d0, d1)[s0, s1] -> (d0)>,
+                    affine_map<(d0, d1)[s0, s1] -> (d0, d1)> ]}
   : tensor<4096x64xf16>, vector<64x32xf16>

   return %out : vector<64x32xf16>
 }

+// CHECK: #[[$MAP:.*]] = affine_map<(d0, d1)[s0] -> (d0, s0)>
+// CHECK: #[[$MAP1:.*]] = affine_map<(d0, d1)[s0] -> (d0, d1)>
 // CHECK-LABEL: @transfer_gather_fold_step
-// CHECK-SAME: %[[ARG1:.*]]: vector<64x32xindex>
 // CHECK: transfer_gather
-// CHECK-SAME: [None, %[[ARG1]]
+// CHECK-SAME: indexing_maps = [#[[$MAP]], #[[$MAP1]]]

 // -----

@@ -128,31 +135,33 @@ func.func @transfer_gather_fold_single_element(%scalar: vector<1xindex>,
   %cst0 = arith.constant 0.0 : f16
   %c0 = arith.constant 0 : index

-  %out = iree_vector_ext.transfer_gather %source[%c0, %c0]
-  [%scalar : vector<1xindex>, %indices: vector<64x1xindex>], %cst0
-  {indexed_maps = [affine_map<(d0, d1) -> (d1)>, affine_map<(d0, d1) -> (d0, d1)> ]}
+  %out = iree_vector_ext.transfer_gatherv2 %source[%c0, %c0]
+  [%scalar, %indices : vector<1xindex>, vector<64x1xindex>], %cst0
+  {indexing_maps = [affine_map<(d0, d1)[s0, s1] -> (s0, s1)>,
+                    affine_map<(d0, d1)[s0, s1] -> (d1)>,
+                    affine_map<(d0, d1)[s0, s1] -> (d0, d1)> ]}
   : tensor<4096x64xf16>, vector<64x1xf16>

   return %out : vector<64x1xf16>
 }

+// CHECK-DAG: #[[$MAP:.*]] = affine_map<(d0, d1)[s0] -> (0, s0)>
+// CHECK-DAG: #[[$MAP1:.*]] = affine_map<(d0, d1)[s0] -> (d0, d1)>
 // CHECK-LABEL: transfer_gather_fold_single_element
-// CHECK-SAME: %{{.*}}: vector<1xindex>, %[[ARG1:.*]]: vector<64x1xindex>
 // CHECK: transfer_gather
-// CHECK-SAME: [None, %[[ARG1]]
+// CHECK-SAME: indexing_maps = [#[[$MAP]], #[[$MAP1]]]

 // -----

-func.func @transfer_gather_fold_contigious_load(%scalar: vector<64x1xindex>,
-  %indices: vector<64x1xindex>,
-  %source: tensor<4096x64xf16>)
-  -> vector<64x1xf16> {
+func.func @transfer_gather_fold_contigious_load(
+  %source: tensor<4096x64x64xf16>) -> vector<64x1xf16> {

   %cst0 = arith.constant 0.0 : f16
   %c0 = arith.constant 0 : index

-  %out = iree_vector_ext.transfer_gather %source[%c0, %c0]
-  [None, None], %cst0 {indexed_maps = []} : tensor<4096x64xf16>, vector<64x1xf16>
+  %out = iree_vector_ext.transfer_gatherv2 %source[%c0, %c0, %c0], %cst0
+  {indexing_maps = [affine_map<(d0, d1)[] -> (d1, 0, 0)>]}
+  : tensor<4096x64x64xf16>, vector<64x1xf16>

   return %out : vector<64x1xf16>
 }
@@ -162,3 +171,21 @@ func.func @transfer_gather_fold_contigious_load(%scalar: vector<64x1xindex>,
 // CHECK-NOT: transfer_gather

 // -----
+
+func.func @transfer_gather_fold_contigious_load_mask(
+  %source: tensor<4096x64x64xf16>, %mask: vector<i1>) -> vector<64x8xf16> {
+
+  %cst0 = arith.constant 0.0 : f16
+  %c0 = arith.constant 0 : index
+
+  %out = iree_vector_ext.transfer_gatherv2 %source[%c0, %c0, %c0], %cst0, %mask
+  {indexing_maps = [affine_map<(d0, d1)[] -> (d1, 0, 0)>,
+                    affine_map<(d0, d1)[] -> ()>]}
+  : tensor<4096x64x64xf16>, vector<64x8xf16>, vector<i1>
+
+  return %out : vector<64x8xf16>
+}
+
+// CHECK-LABEL: @transfer_gather_fold_contigious_load
+// CHECK: vector.transfer_read
+// CHECK-NOT: transfer_gather
diff --git a/compiler/src/iree/compiler/Codegen/Dialect/VectorExt/IR/test/invalid.mlir b/compiler/src/iree/compiler/Codegen/Dialect/VectorExt/IR/test/invalid.mlir
index d1c159ff5a..1bbfec9585 100644
--- a/compiler/src/iree/compiler/Codegen/Dialect/VectorExt/IR/test/invalid.mlir
+++ b/compiler/src/iree/compiler/Codegen/Dialect/VectorExt/IR/test/invalid.mlir
@@ -51,36 +51,74 @@ func.func @invalid_to_simt_vector_element_type(%simt : vector<64xf32>) -> vector

 // -----

-func.func @indexing_map_mismatch(%indices: vector<128xindex>,
-  %source: tensor<128xf16>)
-  -> vector<128xf16> {
+func.func @transfer_gather_mismatch_dims(%indices: vector<128xindex>,
+  %source: tensor<4096x64xf16>)
+  -> (vector<128x64xf16>) {
+  %cst0 = arith.constant 0.0 : f16
+  %c0 = arith.constant 0 : index
+
+  // expected-error @+1 {{expected all indexing maps to have number of dims equal to vector rank. expected: 2, got: 3 dims}}
+  %out1 = iree_vector_ext.transfer_gatherv2 %source[%c0, %c0]
+  [%indices : vector<128xindex>], %cst0
+    { indexing_maps = [affine_map<(d0, d1, d2)[s0] -> (s0, d1)>,
+                       affine_map<(d0, d1, d2)[s0] -> (d0)>]}
+  : tensor<4096x64xf16>, vector<128x64xf16>
+
+  return %out1 : vector<128x64xf16>
+}
+
+// -----

+func.func @transfer_gather_mismatch_syms(%indices: vector<128xindex>,
+  %source: tensor<4096x64xf16>)
+  -> (vector<128x64xf16>) {
   %cst0 = arith.constant 0.0 : f16
   %c0 = arith.constant 0 : index

-  // expected-error @+1 {{op requires number of results for corressponding indexing map to match the rank of index vector at dim: 0}}
-  %out = iree_vector_ext.transfer_gather %source[%c0]
-  [%indices: vector<128xindex>], %cst0
-  { indexed_maps = [affine_map<(d0, d1) -> (d0, d1)>]}
-  : tensor<128xf16>, vector<128xf16>
+  // expected-error @+1 {{expected all indexing maps to have number of dims equal to number of index vecs. expected: 1, got: 2 syms}}
+  %out1 = iree_vector_ext.transfer_gatherv2 %source[%c0, %c0]
+  [%indices : vector<128xindex>], %cst0
+    { indexing_maps = [affine_map<(d0, d1)[s0, s1] -> (s0, d1)>,
+                       affine_map<(d0, d1)[s0, s1] -> (d0)>]}
+  : tensor<4096x64xf16>, vector<128x64xf16>

-  return %out : vector<128xf16>
+  return %out1 : vector<128x64xf16>
 }

 // -----

-func.func @indexing_map_mismatch(%indices: vector<128x64xindex>,
-  %source: tensor<128x64xf16>)
-  -> vector<128x64xf16> {
+func.func @transfer_gather_mismatch_maps(%indices: vector<128xindex>,
+  %source: tensor<4096x64xf16>)
+  -> (vector<128x64xf16>) {
+  %cst0 = arith.constant 0.0 : f16
+  %c0 = arith.constant 0 : index
+
+  // expected-error @+1 {{expected 2 indexing maps. got: 3}}
+  %out1 = iree_vector_ext.transfer_gatherv2 %source[%c0, %c0]
+  [%indices : vector<128xindex>], %cst0
+    { indexing_maps = [affine_map<(d0, d1)[s0] -> (s0, d1)>,
+                       affine_map<(d0, d1)[s0] -> (d0)>,
+                       affine_map<(d0, d1)[s0] -> (d1)>]}
+  : tensor<4096x64xf16>, vector<128x64xf16>
+
+  return %out1 : vector<128x64xf16>
+}
+
+// -----

+func.func @transfer_gather_indirect_index_vec_load(%indices: vector<64xindex>,
+  %source: tensor<4096x64xf16>)
+  -> (vector<128x64xf16>) {
   %cst0 = arith.constant 0.0 : f16
   %c0 = arith.constant 0 : index

-  // expected-error @+1 {{'iree_vector_ext.transfer_gather' op Invalid index vector shape at dim: 0, expected: 64, 128, got: 128, 64}}
-  %out = iree_vector_ext.transfer_gather %source[%c0, %c0]
-  [None, %indices: vector<128x64xindex>], %cst0
-  { indexed_maps = [affine_map<(d0, d1) -> (d1, d0)>]}
-  : tensor<128x64xf16>, vector<128x64xf16>
+  // expected-error @+1 {{maps other than the source map should not contain symbols}}
+  %out1 = iree_vector_ext.transfer_gatherv2 %source[%c0, %c0]
+  [%indices, %indices : vector<64xindex>, vector<64xindex>], %cst0
+    { indexing_maps = [affine_map<(d0, d1)[s0, s1] -> (s0, s1)>,
+                       affine_map<(d0, d1)[s0, s1] -> (d1)>,
+                       affine_map<(d0, d1)[s0, s1] -> (s0)>]}
+  : tensor<4096x64xf16>, vector<128x64xf16>

-  return %out : vector<128x64xf16>
+  return %out1 : vector<128x64xf16>
 }
