func.func @normal_conv_1() {
  %0 = util.unfoldable_constant dense<
      [[[[… > : tensor<1x4x6x2xf32>
  %1 = util.unfoldable_constant dense<
      [[[[… >
   : tensor<2x3x2x3xf32>
  %2 = "stablehlo.convolution"(%0, %1) {
       batch_group_count = 1 : i64,
       dimension_numbers = #stablehlo.conv<raw
          input_batch_dimension = 0,
          input_feature_dimension = 3,
          input_spatial_dimensions = [1, 2],
          kernel_input_feature_dimension = 2,
          kernel_output_feature_dimension = 3,
          kernel_spatial_dimensions = [0, 1],
          output_batch_dimension = 0,
          output_feature_dimension = 3,
          output_spatial_dimensions = [1, 2]
        >,
       feature_group_count = 1 : i64,
       rhs_dilation = dense<1> : tensor<2xi64>,
       window_strides = dense<1> : tensor<2xi64>}
       : (tensor<1x4x6x2xf32>, tensor<2x3x2x3xf32>) -> (tensor<1x3x4x3xf32>)
   check.expect_almost_eq_const(%2, dense<
         [[[[ … >
        : tensor<1x3x4x3xf32>) : tensor<1x3x4x3xf32>
   return
}
func.func @normal_conv_2() {
  %input = util.unfoldable_constant dense<
     [[[[… >
    : tensor<1x3x3x4xf32>
  %filter = util.unfoldable_constant dense<
      [[[[… >
    : tensor<2x2x4x32xf32>

    %0 = "stablehlo.convolution"(%input, %filter) {batch_group_count = 1 : i64,
      dimension_numbers = #stablehlo.conv<raw
      input_batch_dimension = 0,
      input_feature_dimension = 3,
      input_spatial_dimensions = [1, 2],
      kernel_input_feature_dimension = 2,
      kernel_output_feature_dimension = 3,
      kernel_spatial_dimensions = [0, 1],
      output_batch_dimension = 0,
      output_feature_dimension = 3,
      output_spatial_dimensions = [1, 2]
    >, feature_group_count = 1 : i64, padding = dense<0> : tensor<2x2xi64>, rhs_dilation = dense<1> : tensor<2xi64>, window_strides = dense<1> : tensor<2xi64>} : (tensor<1x3x3x4xf32>, tensor<2x2x4x32xf32>) -> tensor<1x2x2x32xf32>

   check.expect_almost_eq_const(%0, dense<
     [[[[… >
        : tensor<1x2x2x32xf32>) : tensor<1x2x2x32xf32>
   return
}

func.func @depthwise_conv() {
  %input = util.unfoldable_constant dense<
    [[[[… >
    : tensor<1x1x4x16xf32>
  %filter = util.unfoldable_constant dense<
    [[[[… >
    : tensor<1x1x1x16xf32>

    %0 = "stablehlo.convolution"(%input, %filter) {batch_group_count = 1 : i64,
      dimension_numbers = #stablehlo.conv<raw
        input_batch_dimension = 0,
        input_feature_dimension = 3,
        input_spatial_dimensions = [1, 2],
        kernel_input_feature_dimension = 2,
        kernel_output_feature_dimension = 3,
        kernel_spatial_dimensions = [0, 1],
        output_batch_dimension = 0,
        output_feature_dimension = 3,
        output_spatial_dimensions = [1, 2]
      >, feature_group_count = 16 : i64, padding = dense<0> : tensor<2x2xi64>, rhs_dilation = dense<1> : tensor<2xi64>, window_strides = dense<1> : tensor<2xi64>} : (tensor<1x1x4x16xf32>, tensor<1x1x1x16xf32>) -> tensor<1x1x4x16xf32>

   check.expect_almost_eq_const(%0, dense<
     [[[[… >
        : tensor<1x1x4x16xf32>) : tensor<1x1x4x16xf32>
   return
}

