// Trained MNIST model generated by
// https://github.com/google/iree/blob/main/colab/mnist_tensorflow.ipynb.
//
// Model structure is from tf.keras:
//
//   model = tf.keras.models.Sequential()
//   model.add(tf.keras.layers.Flatten(input_shape=input_shape))
//   model.add(tf.keras.layers.Dense(128, activation='relu'))
//   model.add(tf.keras.layers.Dense(10, activation='softmax'))
//
// Input : a single 28x28 pixel image as a tensor<1x28x28x1xf32>, with pixels in [0.0, 1.0]
// Output: a tensor<1x10xf32> containing prediction confidence values for each digit in [0, 9]

module attributes {tf.versions = {bad_consumers = [], min_consumer = 12 : i32, producer = 175 : i32}} {
  flow.variable @"__iree_flow___sm_node15__model.layer-2.kernel" dense<"…"> : tensor<784x128xf32>
  flow.variable @"__iree_flow___sm_node16__model.layer-2.bias" dense<"…"> : tensor<128xf32>
  flow.variable @"__iree_flow___sm_node21__model.layer-3.kernel" dense<"…"> : tensor<128x10xf32>
  flow.variable @"__iree_flow___sm_node22__model.layer-3.bias" dense<[-0.0719004869, 0.1290171, 0.0102811698, -0.106104381, 0.0260288324, 0.166622087, -8.5693755E-4, 0.070880115, -0.222566754, -0.00140074058]> : tensor<10xf32>
  func @predict(%arg0: tensor<1x28x28x1xf32>) -> tensor<1x10xf32> attributes {iree.module.export, iree.reflection = {abi = "sip", abiv = 1 : i32, sip = "I8!S5!k0_0R3!_0"}, tf._input_shapes = ["tfshape$dim { size: 1 } dim { size: 28 } dim { size: 28 } dim { size: 1 }", "tfshape$unknown_rank: true", "tfshape$unknown_rank: true", "tfshape$unknown_rank: true", "tfshape$unknown_rank: true"], tf.signature.is_stateful} {
    %0 = flow.variable.address @"__iree_flow___sm_node15__model.layer-2.kernel" : !iree.ptr<tensor<784x128xf32>>
    %1 = flow.variable.address @"__iree_flow___sm_node16__model.layer-2.bias" : !iree.ptr<tensor<128xf32>>
    %2 = flow.variable.address @"__iree_flow___sm_node21__model.layer-3.kernel" : !iree.ptr<tensor<128x10xf32>>
    %3 = flow.variable.address @"__iree_flow___sm_node22__model.layer-3.bias" : !iree.ptr<tensor<10xf32>>
    %4 = mhlo.constant dense<0xFF800000> : tensor<f32>
    %5 = mhlo.constant dense<0.000000e+00> : tensor<f32>
    %6 = flow.variable.load.indirect %3 : !iree.ptr<tensor<10xf32>> -> tensor<10xf32>
    %7 = flow.variable.load.indirect %2 : !iree.ptr<tensor<128x10xf32>> -> tensor<128x10xf32>
    %8 = flow.variable.load.indirect %1 : !iree.ptr<tensor<128xf32>> -> tensor<128xf32>
    %9 = flow.variable.load.indirect %0 : !iree.ptr<tensor<784x128xf32>> -> tensor<784x128xf32>
    %10 = "mhlo.reshape"(%arg0) : (tensor<1x28x28x1xf32>) -> tensor<1x784xf32>
    %11 = "mhlo.dot"(%10, %9) : (tensor<1x784xf32>, tensor<784x128xf32>) -> tensor<1x128xf32>
    %12 = "mhlo.add"(%11, %8) {broadcast_dimensions = dense<1> : tensor<1xi64>} : (tensor<1x128xf32>, tensor<128xf32>) -> tensor<1x128xf32>
    %13 = "mhlo.maximum"(%12, %5) {broadcast_dimensions = dense<[]> : tensor<0xi64>} : (tensor<1x128xf32>, tensor<f32>) -> tensor<1x128xf32>
    %14 = "mhlo.dot"(%13, %7) : (tensor<1x128xf32>, tensor<128x10xf32>) -> tensor<1x10xf32>
    %15 = "mhlo.add"(%14, %6) {broadcast_dimensions = dense<1> : tensor<1xi64>} : (tensor<1x10xf32>, tensor<10xf32>) -> tensor<1x10xf32>
    %16 = "mhlo.reduce"(%15, %4) ( {
    ^bb0(%arg1: tensor<f32>, %arg2: tensor<f32>):  // no predecessors
      %21 = mhlo.maximum %arg1, %arg2 : tensor<f32>
      "mhlo.return"(%21) : (tensor<f32>) -> ()
    }) {dimensions = dense<1> : tensor<1xi64>} : (tensor<1x10xf32>, tensor<f32>) -> tensor<1xf32>
    %17 = "mhlo.subtract"(%15, %16) {broadcast_dimensions = dense<0> : tensor<1xi64>} : (tensor<1x10xf32>, tensor<1xf32>) -> tensor<1x10xf32>
    %18 = "mhlo.exponential"(%17) : (tensor<1x10xf32>) -> tensor<1x10xf32>
    %19 = "mhlo.reduce"(%18, %5) ( {
    ^bb0(%arg1: tensor<f32>, %arg2: tensor<f32>):  // no predecessors
      %21 = mhlo.add %arg1, %arg2 : tensor<f32>
      "mhlo.return"(%21) : (tensor<f32>) -> ()
    }) {dimensions = dense<1> : tensor<1xi64>} : (tensor<1x10xf32>, tensor<f32>) -> tensor<1xf32>
    %20 = "mhlo.divide"(%18, %19) {broadcast_dimensions = dense<0> : tensor<1xi64>} : (tensor<1x10xf32>, tensor<1xf32>) -> tensor<1x10xf32>
    return %20 : tensor<1x10xf32>
  }
}
