// Trained MNIST model generated by
// https://github.com/openxla/iree/blob/main/samples/colab/mnist_training.ipynb.
//
// Model structure is from tf.keras:
//
//   model = tf.keras.models.Sequential()
//   model.add(tf.keras.layers.Flatten(input_shape=input_shape))
//   model.add(tf.keras.layers.Dense(128, activation='relu'))
//   model.add(tf.keras.layers.Dense(10, activation='softmax'))
//
// Input : a single 28x28 pixel image as a tensor<1x28x28x1xf32>, with pixels in [0.0, 1.0]
// Output: a tensor<1x10xf32> containing prediction confidence values for each digit in [0, 9]

module {
  util.global private @"__iree_flow___sm_node17__model.layer-1.kernel" = dense<"…"> : tensor<784x128xf32>
  util.global private @"__iree_flow___sm_node18__model.layer-1.bias" = dense<"…"> : tensor<128xf32>
  util.global private @"__iree_flow___sm_node24__model.layer-2.kernel" = dense<"…"> : tensor<128x10xf32>
  util.global private @"__iree_flow___sm_node25__model.layer-2.bias" = dense<[-0.11818973, 0.115988247, 0.0210834835, -0.0308276638, 0.0101165017, 0.119799189, 0.00523598073, 0.117924452, -0.217200637, -0.0239296928]> : tensor<10xf32>
  func.func @predict(%arg0: tensor<1x28x28x1xf32>) -> tensor<1x10xf32> attributes {iree.module.export, iree.reflection = {abi = "sip", abiv = 1 : i32, sip = "I8!S5!k0_0R3!_0"}} {
    %0 = util.global.address @"__iree_flow___sm_node17__model.layer-1.kernel" : !util.ptr<tensor<784x128xf32>>
    %1 = util.global.address @"__iree_flow___sm_node18__model.layer-1.bias" : !util.ptr<tensor<128xf32>>
    %2 = util.global.address @"__iree_flow___sm_node24__model.layer-2.kernel" : !util.ptr<tensor<128x10xf32>>
    %3 = util.global.address @"__iree_flow___sm_node25__model.layer-2.bias" : !util.ptr<tensor<10xf32>>
    %4 = mhlo.constant dense<0.000000e+00> : tensor<1x128xf32>
    %5 = mhlo.constant dense<0xFF800000> : tensor<f32>
    %6 = mhlo.constant dense<0.000000e+00> : tensor<f32>
    %7 = util.global.load.indirect %3 : !util.ptr<tensor<10xf32>> -> tensor<10xf32>
    %8 = util.global.load.indirect %2 : !util.ptr<tensor<128x10xf32>> -> tensor<128x10xf32>
    %9 = util.global.load.indirect %1 : !util.ptr<tensor<128xf32>> -> tensor<128xf32>
    %10 = util.global.load.indirect %0 : !util.ptr<tensor<784x128xf32>> -> tensor<784x128xf32>
    %11 = "mhlo.reshape"(%arg0) : (tensor<1x28x28x1xf32>) -> tensor<1x784xf32>
    %12 = "mhlo.dot"(%11, %10) : (tensor<1x784xf32>, tensor<784x128xf32>) -> tensor<1x128xf32>
    %13 = "mhlo.broadcast_in_dim"(%9) {broadcast_dimensions = dense<1> : tensor<1xi64>} : (tensor<128xf32>) -> tensor<1x128xf32>
    %14 = mhlo.add %12, %13 : tensor<1x128xf32>
    %15 = mhlo.maximum %14, %4 : tensor<1x128xf32>
    %16 = "mhlo.dot"(%15, %8) : (tensor<1x128xf32>, tensor<128x10xf32>) -> tensor<1x10xf32>
    %17 = "mhlo.broadcast_in_dim"(%7) {broadcast_dimensions = dense<1> : tensor<1xi64>} : (tensor<10xf32>) -> tensor<1x10xf32>
    %18 = mhlo.add %16, %17 : tensor<1x10xf32>
    %19 = "mhlo.reduce"(%18, %5) ( {
    ^bb0(%arg1: tensor<f32>, %arg2: tensor<f32>):  // no predecessors
      %26 = mhlo.maximum %arg1, %arg2 : tensor<f32>
      "mhlo.return"(%26) : (tensor<f32>) -> ()
    }) {dimensions = dense<1> : tensor<1xi64>} : (tensor<1x10xf32>, tensor<f32>) -> tensor<1xf32>
    %20 = "mhlo.broadcast_in_dim"(%19) {broadcast_dimensions = dense<0> : tensor<1xi64>} : (tensor<1xf32>) -> tensor<1x10xf32>
    %21 = mhlo.subtract %18, %20 : tensor<1x10xf32>
    %22 = "mhlo.exponential"(%21) : (tensor<1x10xf32>) -> tensor<1x10xf32>
    %23 = "mhlo.reduce"(%22, %6) ( {
    ^bb0(%arg1: tensor<f32>, %arg2: tensor<f32>):  // no predecessors
      %26 = mhlo.add %arg1, %arg2 : tensor<f32>
      "mhlo.return"(%26) : (tensor<f32>) -> ()
    }) {dimensions = dense<1> : tensor<1xi64>} : (tensor<1x10xf32>, tensor<f32>) -> tensor<1xf32>
    %24 = "mhlo.broadcast_in_dim"(%23) {broadcast_dimensions = dense<0> : tensor<1xi64>} : (tensor<1xf32>) -> tensor<1x10xf32>
    %25 = mhlo.divide %22, %24 : tensor<1x10xf32>
    return %25 : tensor<1x10xf32>
  }
}
