func.func @conv2d_nopadding() {
  %inputs = util.unfoldable_constant dense<[[
      [[ … > : tensor<1x4x4x2xf32>
  %weights = util.unfoldable_constant dense<[
      [[[ 1.0], [ 2.0]], [[ 3.0], [ 4.0]]],
      [[[ 5.0], [ 6.0]], [[ 7.0], [ 8.0]]],
      [[[ 9.0], [10.0]], [[11.0], [12.0]]]]> : tensor<3x2x2x1xf32>
  %res = "stablehlo.convolution"(%inputs, %weights) {
        batch_group_count = 1 : i64,
        dimension_numbers = #stablehlo.conv<raw
          input_batch_dimension = 0,
          input_feature_dimension = 3,
          input_spatial_dimensions = [1, 2],
          kernel_input_feature_dimension = 2,
          kernel_output_feature_dimension = 3,
          kernel_spatial_dimensions = [0, 1],
          output_batch_dimension = 0,
          output_feature_dimension = 3,
          output_spatial_dimensions = [1, 2]
        >,
        feature_group_count = 1 : i64,
        rhs_dilation = array<i64: 1, 1>,
        window_strides = array<i64: 1, 1>} : (tensor<1x4x4x2xf32>, tensor<3x2x2x1xf32>) -> tensor<1x2x3x1xf32>
  check.expect_almost_eq_const(%res, dense<[[
      [[1310.0],[1466.0],[1622.0]],
      [[2090.0],[2246.0],[2402.0]]
  ]]> : tensor<1x2x3x1xf32>) : tensor<1x2x3x1xf32>
  return
}

func.func @conv2d_nopadding_batch_feature() {
  %inputs = util.unfoldable_constant dense<[
    [[[ … > : tensor<2x4x4x1xf32>
  %weights = util.unfoldable_constant dense<[
      [[[ 1.0], [ 2.0]], [[ 3.0], [ 4.0]]],
      [[[ 5.0], [ 6.0]], [[ 7.0], [ 8.0]]],
      [[[ 9.0], [10.0]], [[11.0], [12.0]]]]> : tensor<3x2x2x1xf32>
  %res = "stablehlo.convolution"(%inputs, %weights) {
        batch_group_count = 1 : i64,
        dimension_numbers = #stablehlo.conv<raw
          input_batch_dimension = 3,
          input_feature_dimension = 0,
          input_spatial_dimensions = [1, 2],
          kernel_input_feature_dimension = 2,
          kernel_output_feature_dimension = 3,
          kernel_spatial_dimensions = [0, 1],
          output_batch_dimension = 0,
          output_feature_dimension = 3,
          output_spatial_dimensions = [1, 2]
        >,
        feature_group_count = 1 : i64,
        rhs_dilation = array<i64: 1, 1>,
        window_strides = array<i64: 1, 1>} : (tensor<2x4x4x1xf32>, tensor<3x2x2x1xf32>) -> tensor<1x2x3x1xf32>
  check.expect_almost_eq_const(%res, dense<[[
      [[1310.0],[1466.0],[1622.0]],
      [[2090.0],[2246.0],[2402.0]]
  ]]> : tensor<1x2x3x1xf32>) : tensor<1x2x3x1xf32>
  return
}

func.func @conv2d_reorder_input_spatial() {
  %inputs = util.unfoldable_constant dense<[[
      [[ … > : tensor<1x4x4x2xf32>
  %weights = util.unfoldable_constant dense<[
      [[[ 1.0], [ 2.0]], [[ 3.0], [ 4.0]]],
      [[[ 5.0], [ 6.0]], [[ 7.0], [ 8.0]]],
      [[[ 9.0], [10.0]], [[11.0], [12.0]]]]> : tensor<3x2x2x1xf32>
  %res = "stablehlo.convolution"(%inputs, %weights) {
        batch_group_count = 1 : i64,
        dimension_numbers = #stablehlo.conv<raw
          input_batch_dimension = 0,
          input_feature_dimension = 3,
          input_spatial_dimensions = [2, 1],
          kernel_input_feature_dimension = 2,
          kernel_output_feature_dimension = 3,
          kernel_spatial_dimensions = [0, 1],
          output_batch_dimension = 0,
          output_feature_dimension = 3,
          output_spatial_dimensions = [1, 2]
        >,
        feature_group_count = 1 : i64,
        rhs_dilation = array<i64: 1, 1>,
        window_strides = array<i64: 1, 1>} : (tensor<1x4x4x2xf32>, tensor<3x2x2x1xf32>) -> tensor<1x2x3x1xf32>
  check.expect_almost_eq_const(%res, dense<[[
      [[1310.0],[1466.0],[1622.0]],
      [[2090.0],[2246.0],[2402.0]]
  ]]> : tensor<1x2x3x1xf32>) : tensor<1x2x3x1xf32>
  return
}

func.func @conv2d_reorder_kernel() {
  %inputs = util.unfoldable_constant dense<[[
      [[ … > : tensor<1x4x4x2xf32>
  %weights = util.unfoldable_constant dense<
      [[[[ 1.0,  3.0], [ 2.0,  4.0]],
        [[ 5.0,  7.0], [ 6.0,  8.0]],
        [[ 9.0, 11.0], [10.0, 12.0]]]]> : tensor<1x3x2x2xf32>
  %res = "stablehlo.convolution"(%inputs, %weights) {
        batch_group_count = 1 : i64,
        dimension_numbers = #stablehlo.conv<raw
          input_batch_dimension = 0,
          input_feature_dimension = 3,
          input_spatial_dimensions = [1, 2],
          kernel_input_feature_dimension = 2,
          kernel_output_feature_dimension = 0,
          kernel_spatial_dimensions = [1, 3],
          output_batch_dimension = 0,
          output_feature_dimension = 3,
          output_spatial_dimensions = [1, 2]
        >,
        feature_group_count = 1 : i64,
        rhs_dilation = array<i64: 1, 1>,
        window_strides = array<i64: 1, 1>} : (tensor<1x4x4x2xf32>, tensor<1x3x2x2xf32>) -> tensor<1x2x3x1xf32>
  check.expect_almost_eq_const(%res, dense<[[
      [[1310.0],[1466.0],[1622.0]],
      [[2090.0],[2246.0],[2402.0]]
  ]]> : tensor<1x2x3x1xf32>) : tensor<1x2x3x1xf32>
  return
}

func.func @conv2d_reorder_output() {
  %inputs = util.unfoldable_constant dense<[[
      [[ … > : tensor<1x4x4x2xf32>
  %weights = util.unfoldable_constant dense<[
      [[[ 1.0], [ 2.0]], [[ 3.0], [ 4.0]]],
      [[[ 5.0], [ 6.0]], [[ 7.0], [ 8.0]]],
      [[[ 9.0], [10.0]], [[11.0], [12.0]]]]> : tensor<3x2x2x1xf32>
  %res = "stablehlo.convolution"(%inputs, %weights) {
        batch_group_count = 1 : i64,
        dimension_numbers = #stablehlo.conv<raw
          input_batch_dimension = 0,
          input_feature_dimension = 3,
          input_spatial_dimensions = [1, 2],
          kernel_input_feature_dimension = 2,
          kernel_output_feature_dimension = 3,
          kernel_spatial_dimensions = [0, 1],
          output_batch_dimension = 2,
          output_feature_dimension = 0,
          output_spatial_dimensions = [3, 1]
        >,
        feature_group_count = 1 : i64,
        rhs_dilation = array<i64: 1, 1>,
        window_strides = array<i64: 1, 1>} : (tensor<1x4x4x2xf32>, tensor<3x2x2x1xf32>) -> tensor<1x3x1x2xf32>
  check.expect_almost_eq_const(%res, dense<[[
      [[1310.0, 2090.0]],
      [[1466.0, 2246.0]],
      [[1622.0, 2402.0]]
      ]]> : tensor<1x3x1x2xf32>) : tensor<1x3x1x2xf32>
  return
}

func.func @conv2d_1452x3221_same() {
  %inputs = util.unfoldable_constant dense<[[
      [[ … > : tensor<1x4x5x2xf32>
  %weights = util.unfoldable_constant dense<[
      [[[ 1.0], [ 2.0]], [[ 3.0], [ 4.0]]],
      [[[ 5.0], [ 6.0]], [[ 7.0], [ 8.0]]],
      [[[ 9.0], [10.0]], [[11.0], [12.0]]]]> : tensor<3x2x2x1xf32>
  %res = "stablehlo.convolution"(%inputs, %weights) {
       batch_group_count = 1 : i64,
       dimension_numbers = #stablehlo.conv<raw
          input_batch_dimension = 0,
          input_feature_dimension = 3,
          input_spatial_dimensions = [1, 2],
          kernel_input_feature_dimension = 2,
          kernel_output_feature_dimension = 3,
          kernel_spatial_dimensions = [0, 1],
          output_batch_dimension = 0,
          output_feature_dimension = 3,
          output_spatial_dimensions = [1, 2]
        >,
       feature_group_count = 1 : i64,
       padding = dense<[[1, 1], [0, 1]]> : tensor<2x2xi64>,
       rhs_dilation = array<i64: 1, 1>,
       window_strides = array<i64: 1, 1>} :
       (tensor<1x4x5x2xf32>, tensor<3x2x2x1xf32>) -> tensor<1x4x5x1xf32>
  check.expect_almost_eq_const(%res,  dense<[[
    [[ … > : tensor<1x4x5x1xf32>) : tensor<1x4x5x1xf32>
  return
}

func.func @conv2d_2451x2311_same() {
  %inputs = util.unfoldable_constant dense<[
      [[[ … > : tensor <2x4x5x1xf32>
  %weights = util.unfoldable_constant dense<[
      [[[1.0]], [[2.0]], [[3.0]]],
      [[[4.0]], [[5.0]], [[6.0]]]]> : tensor <2x3x1x1xf32>
  %res = "stablehlo.convolution"(%inputs, %weights) {
       batch_group_count = 1 : i64,
       dimension_numbers = #stablehlo.conv<raw
          input_batch_dimension = 0,
          input_feature_dimension = 3,
          input_spatial_dimensions = [1, 2],
          kernel_input_feature_dimension = 2,
          kernel_output_feature_dimension = 3,
          kernel_spatial_dimensions = [0, 1],
          output_batch_dimension = 0,
          output_feature_dimension = 3,
          output_spatial_dimensions = [1, 2]
        >,
       feature_group_count = 1 : i64,
       padding = dense<[[0, 1], [1, 1]]> : tensor<2x2xi64>,
       rhs_dilation = array<i64: 1, 1>,
       window_strides = array<i64: 1, 1>} :
       (tensor<2x4x5x1xf32>, tensor<2x3x1x1xf32>) -> tensor<2x4x5x1xf32>
  check.expect_almost_eq_const(%res, dense<[
    [[[ … > : tensor<2x4x5x1xf32>) : tensor<2x4x5x1xf32>
  return
}

func.func @conv2d_no_padding2() {
  %inputs = util.unfoldable_constant dense<[
       [[[  … > : tensor<2x4x5x3xf32>
  %weights = util.unfoldable_constant dense<[
      [[[  … > : tensor<2x3x3x6xf32>
  %res = "stablehlo.convolution"(%inputs, %weights) {
       batch_group_count = 1 : i64,
       dimension_numbers = #stablehlo.conv<raw
          input_batch_dimension = 0,
          input_feature_dimension = 3,
          input_spatial_dimensions = [1, 2],
          kernel_input_feature_dimension = 2,
          kernel_output_feature_dimension = 3,
          kernel_spatial_dimensions = [0, 1],
          output_batch_dimension = 0,
          output_feature_dimension = 3,
          output_spatial_dimensions = [1, 2]
        >,
       feature_group_count = 1 : i64,
       rhs_dilation = array<i64: 1, 1>,
       window_strides = array<i64: 1, 1>} :
       (tensor<2x4x5x3xf32>, tensor<2x3x3x6xf32>) -> tensor<2x3x3x6xf32>
  check.expect_almost_eq_const(%res, dense<[
      [[[… > : tensor<2x3x3x6xf32>) : tensor<2x3x3x6xf32>
  return
}

func.func @conv2d_1452x2223_dilated_valid() {
  %inputs = util.unfoldable_constant dense<
     [[[[… > : tensor<1x4x5x2xf32>
  %weights = util.unfoldable_constant dense<
    [[[[… > : tensor<2x2x2x3xf32>
  %res = "stablehlo.convolution"(%inputs, %weights) {
    batch_group_count = 1 : i64,
    dimension_numbers = #stablehlo.conv<raw
          input_batch_dimension = 0,
          input_feature_dimension = 3,
          input_spatial_dimensions = [1, 2],
          kernel_input_feature_dimension = 2,
          kernel_output_feature_dimension = 3,
          kernel_spatial_dimensions = [0, 1],
          output_batch_dimension = 0,
          output_feature_dimension = 3,
          output_spatial_dimensions = [1, 2]
        >,
    feature_group_count = 1 : i64,
    padding = dense<0> : tensor<2x2xi64>,
    rhs_dilation = array<i64: 2, 1>,
    window_strides = array<i64: 1, 1>
  } : (tensor<1x4x5x2xf32>, tensor<2x2x2x3xf32>) -> tensor<1x2x4x3xf32>
  check.expect_almost_eq_const(%res, dense<
    [[[[… > : tensor<1x2x4x3xf32>) : tensor<1x2x4x3xf32>
  return
}

func.func @depthwise_conv_non_1_channel_multiplier() {
  %arg0 = util.unfoldable_constant dense<1.0> : tensor<2x4x5x2xf32>
  %arg1 = util.unfoldable_constant dense<1.0> : tensor<2x2x1x6xf32>
  %res = "stablehlo.convolution"(%arg0, %arg1) {
    batch_group_count = 1 : i64,
    dimension_numbers = #stablehlo.conv<raw
          input_batch_dimension = 0,
          input_feature_dimension = 3,
          input_spatial_dimensions = [1, 2],
          kernel_input_feature_dimension = 2,
          kernel_output_feature_dimension = 3,
          kernel_spatial_dimensions = [0, 1],
          output_batch_dimension = 0,
          output_feature_dimension = 3,
          output_spatial_dimensions = [1, 2]
        >,
    feature_group_count = 2 : i64,
    padding = dense<0> : tensor<2x2xi64>,
    rhs_dilation = array<i64: 1, 1>,
    window_strides = array<i64: 1, 1>} : (tensor<2x4x5x2xf32>, tensor<2x2x1x6xf32>) -> tensor<2x3x4x6xf32>
  check.expect_almost_eq_const(%res, dense<4.0> : tensor<2x3x4x6xf32>) : tensor<2x3x4x6xf32>
  return
}
