// TODO(hanchung): Add other types of fft tests, e.g. fft, ifft, irfft.

func.func @rfft_1d() {
  %input = util.unfoldable_constant dense<[
    … > : tensor<32xf32>
  %0 = stablehlo.fft %input, type = RFFT, length = [32] : (tensor<32xf32>) -> tensor<17xcomplex<f32>>
  %1 = stablehlo.real %0 : (tensor<17xcomplex<f32>>) -> tensor<17xf32>
  %2 = stablehlo.imag %0 : (tensor<17xcomplex<f32>>) -> tensor<17xf32>
  check.expect_almost_eq_const(%1, dense<[… > : tensor<17xf32>) : tensor<17xf32>
  check.expect_almost_eq_const(%2, dense<[… > : tensor<17xf32>) : tensor<17xf32>
  return
}

func.func @rfft_2d() {
  %input = util.unfoldable_constant dense<[[
    … > : tensor<1x32xf32>
  %0 = stablehlo.fft %input, type = RFFT, length = [32] : (tensor<1x32xf32>) -> tensor<1x17xcomplex<f32>>
  %1 = stablehlo.real %0 : (tensor<1x17xcomplex<f32>>) -> tensor<1x17xf32>
  %2 = stablehlo.imag %0 : (tensor<1x17xcomplex<f32>>) -> tensor<1x17xf32>
  check.expect_almost_eq_const(%1, dense<[[… > : tensor<1x17xf32>) : tensor<1x17xf32>
  check.expect_almost_eq_const(%2, dense<[[… > : tensor<1x17xf32>) : tensor<1x17xf32>
  return
}
