func @tensor() attributes { iree.module.export } {
  %A = iree.unfoldable_constant dense<
    [[… > : tensor<8x5xf32>
  %B = iree.unfoldable_constant dense<
     [11.0, 12.0, 13.0, 14.0, 15.0]> : tensor<5xf32>
  %C = linalg.init_tensor [8, 5] : tensor<8x5xf32>
  %D = linalg.generic {
    indexing_maps = [affine_map<(d0, d1) -> (d0, d1)>,
                     affine_map<(d0, d1) -> (d1)>,
                     affine_map<(d0, d1) -> (d0, d1)>],
    iterator_types = ["parallel", "parallel"]}
    ins(%A, %B: tensor<8x5xf32>, tensor<5xf32>)
    outs(%C: tensor<8x5xf32>) {
    ^bb0(%arg0: f32, %arg1: f32, %arg2 : f32):
      %0 = addf %arg0, %arg1 : f32
      linalg.yield %0 : f32
    } -> tensor<8x5xf32>
  check.expect_almost_eq_const(%D, dense<
    [[… > : tensor<8x5xf32>) : tensor<8x5xf32>
  return
}

func @tensor_large() attributes { iree.module.export } {
  %lhs = iree.unfoldable_constant dense<20.0> : tensor<250x500xf32>
  %rhs = iree.unfoldable_constant dense<22.0> : tensor<500xf32>
  %init = linalg.init_tensor [500, 250] : tensor<500x250xf32>
  %result = linalg.generic {
    indexing_maps = [affine_map<(d0, d1) -> (d1, d0)>,
                     affine_map<(d0, d1) -> (d0)>,
                     affine_map<(d0, d1) -> (d0, d1)>],
    iterator_types = ["parallel", "parallel"]}
    ins(%lhs, %rhs: tensor<250x500xf32>, tensor<500xf32>)
    outs(%init: tensor<500x250xf32>) {
    ^bb0(%arg0: f32, %arg1: f32, %arg2 : f32):
      %0 = addf %arg0, %arg1 : f32
      linalg.yield %0 : f32
    } -> tensor<500x250xf32>
  check.expect_almost_eq_const(%result, dense<42.0> : tensor<500x250xf32>) : tensor<500x250xf32>
  return
}

func @tensor_4D() attributes { iree.module.export } {
  %lhs = iree.unfoldable_constant dense<20.0> : tensor<10x20x30x40xf32>
  %rhs = iree.unfoldable_constant dense<22.0> : tensor<10x20x30x40xf32>
  %init = linalg.init_tensor [10, 20, 30, 40] : tensor<10x20x30x40xf32>
  %result = linalg.generic {
    indexing_maps = [affine_map<(d0, d1, d2, d3) -> (d0, d1, d2, d3)>,
                     affine_map<(d0, d1, d2, d3) -> (d0, d1, d2, d3)>,
                     affine_map<(d0, d1, d2, d3) -> (d0, d1, d2, d3)>],
    iterator_types = ["parallel", "parallel", "parallel", "parallel"]}
    ins(%lhs, %rhs: tensor<10x20x30x40xf32>, tensor<10x20x30x40xf32>)
    outs(%init: tensor<10x20x30x40xf32>) {
    ^bb0(%arg0: f32, %arg1: f32, %arg2 : f32):
      %0 = addf %arg0, %arg1 : f32
      linalg.yield %0 : f32
    } -> tensor<10x20x30x40xf32>
  check.expect_almost_eq_const(%result, dense<42.0> : tensor<10x20x30x40xf32>) : tensor<10x20x30x40xf32>
  return
}

func @cst_plus_tensor() attributes { iree.module.export } {
   %c2 = constant 2 : i32
   %cst = constant dense<[[[1, 2, 3], [4, 5, 6]], [[7, 8, 9], [10, 11, 12]]]> : tensor<2x2x3xi32>
   %0 = linalg.init_tensor [2, 2, 3] : tensor<2x2x3xi32>
   %1 = linalg.generic
     {indexing_maps = [affine_map<(d0, d1, d2) -> (d0, d1, d2)>, affine_map<(d0, d1, d2) -> (d0, d1, d2)>],
      iterator_types = ["parallel", "parallel", "parallel"]}
     ins(%cst : tensor<2x2x3xi32>) outs(%0 : tensor<2x2x3xi32>) {
     ^bb0(%arg0 : i32, %arg1 : i32):
       %2 = muli %arg0, %c2 : i32
       linalg.yield %2 : i32
     } -> tensor<2x2x3xi32>
   check.expect_eq_const(%1, dense<
     [[[2, 4, 6], [8, 10, 12]], [[14, 16, 18], [20, 22, 24]]]> : tensor<2x2x3xi32>) : tensor<2x2x3xi32>
   return
}
