// Generated file, do not edit!
// To regenerate, run: generate.sh

func.func @test_acos_f32() -> () {
  %input = util.unfoldable_constant dense<[-1.0, -0.75, -0.5, -0.25, 0.0, 0.25, 0.5, 0.75, 1.0]> : tensor<9xf32>
  %result_empty = tensor.empty() : tensor<9xf32>
  %result = linalg.generic {indexing_maps = [
      affine_map<(d0) -> (d0)>,
      affine_map<(d0) -> (d0)>
    ], iterator_types = ["parallel"]}
    ins(%input : tensor<9xf32>) outs(%result_empty : tensor<9xf32>) {
  ^bb0(%in: f32, %out: f32):
    %result = math.acos %in : f32
    linalg.yield %result : f32
  } -> tensor<9xf32>
  check.expect_almost_eq_const(%result,
    dense<[3.141592653589793, 2.4188584057763776, 2.0943951023931957, 1.8234765819369754, 1.5707963267948966, 1.318116071652818, 1.0471975511965979, 0.7227342478134157, 0.0]> : tensor<9xf32>,
    tolerance 0.0001) :  tensor<9xf32>
  return
}

func.func @test_acosh_f32() -> () {
  %input = util.unfoldable_constant dense<[… > : tensor<36xf32>
  %result_empty = tensor.empty() : tensor<36xf32>
  %result = linalg.generic {indexing_maps = [
      affine_map<(d0) -> (d0)>,
      affine_map<(d0) -> (d0)>
    ], iterator_types = ["parallel"]}
    ins(%input : tensor<36xf32>) outs(%result_empty : tensor<36xf32>) {
  ^bb0(%in: f32, %out: f32):
    %result = math.acosh %in : f32
    linalg.yield %result : f32
  } -> tensor<36xf32>
  check.expect_almost_eq_const(%result,
    dense<[… > : tensor<36xf32>,
    tolerance 0.0001) :  tensor<36xf32>
  return
}

func.func @test_asin_f32() -> () {
  %input = util.unfoldable_constant dense<[-1.0, -0.75, -0.5, -0.25, 0.0, 0.25, 0.5, 0.75, 1.0]> : tensor<9xf32>
  %result_empty = tensor.empty() : tensor<9xf32>
  %result = linalg.generic {indexing_maps = [
      affine_map<(d0) -> (d0)>,
      affine_map<(d0) -> (d0)>
    ], iterator_types = ["parallel"]}
    ins(%input : tensor<9xf32>) outs(%result_empty : tensor<9xf32>) {
  ^bb0(%in: f32, %out: f32):
    %result = math.asin %in : f32
    linalg.yield %result : f32
  } -> tensor<9xf32>
  check.expect_almost_eq_const(%result,
    dense<[-1.5707963267948966, -0.848062078981481, -0.5235987755982989, -0.25268025514207865, 0.0, 0.25268025514207865, 0.5235987755982989, 0.848062078981481, 1.5707963267948966]> : tensor<9xf32>,
    tolerance 0.0001) :  tensor<9xf32>
  return
}

func.func @test_asinh_f32() -> () {
  %input = util.unfoldable_constant dense<[… > : tensor<80xf32>
  %result_empty = tensor.empty() : tensor<80xf32>
  %result = linalg.generic {indexing_maps = [
      affine_map<(d0) -> (d0)>,
      affine_map<(d0) -> (d0)>
    ], iterator_types = ["parallel"]}
    ins(%input : tensor<80xf32>) outs(%result_empty : tensor<80xf32>) {
  ^bb0(%in: f32, %out: f32):
    %result = math.asinh %in : f32
    linalg.yield %result : f32
  } -> tensor<80xf32>
  check.expect_almost_eq_const(%result,
    dense<[… > : tensor<80xf32>,
    tolerance 0.0001) :  tensor<80xf32>
  return
}

func.func @test_atan_f32() -> () {
  %input = util.unfoldable_constant dense<[… > : tensor<80xf32>
  %result_empty = tensor.empty() : tensor<80xf32>
  %result = linalg.generic {indexing_maps = [
      affine_map<(d0) -> (d0)>,
      affine_map<(d0) -> (d0)>
    ], iterator_types = ["parallel"]}
    ins(%input : tensor<80xf32>) outs(%result_empty : tensor<80xf32>) {
  ^bb0(%in: f32, %out: f32):
    %result = math.atan %in : f32
    linalg.yield %result : f32
  } -> tensor<80xf32>
  check.expect_almost_eq_const(%result,
    dense<[… > : tensor<80xf32>,
    tolerance 0.0001) :  tensor<80xf32>
  return
}

func.func @test_atanh_f32() -> () {
  %input = util.unfoldable_constant dense<[-0.75, -0.5, -0.25, 0.0, 0.25, 0.5, 0.75]> : tensor<7xf32>
  %result_empty = tensor.empty() : tensor<7xf32>
  %result = linalg.generic {indexing_maps = [
      affine_map<(d0) -> (d0)>,
      affine_map<(d0) -> (d0)>
    ], iterator_types = ["parallel"]}
    ins(%input : tensor<7xf32>) outs(%result_empty : tensor<7xf32>) {
  ^bb0(%in: f32, %out: f32):
    %result = math.atanh %in : f32
    linalg.yield %result : f32
  } -> tensor<7xf32>
  check.expect_almost_eq_const(%result,
    dense<[-0.9729550745276566, -0.5493061443340548, -0.25541281188299536, 0.0, 0.25541281188299536, 0.5493061443340548, 0.9729550745276566]> : tensor<7xf32>,
    tolerance 0.0001) :  tensor<7xf32>
  return
}

func.func @test_cbrt_f32() -> () {
  %input = util.unfoldable_constant dense<[… > : tensor<40xf32>
  %result_empty = tensor.empty() : tensor<40xf32>
  %result = linalg.generic {indexing_maps = [
      affine_map<(d0) -> (d0)>,
      affine_map<(d0) -> (d0)>
    ], iterator_types = ["parallel"]}
    ins(%input : tensor<40xf32>) outs(%result_empty : tensor<40xf32>) {
  ^bb0(%in: f32, %out: f32):
    %result = math.cbrt %in : f32
    linalg.yield %result : f32
  } -> tensor<40xf32>
  check.expect_almost_eq_const(%result,
    dense<[… > : tensor<40xf32>,
    tolerance 0.0001) :  tensor<40xf32>
  return
}

func.func @test_ceil_f32() -> () {
  %input = util.unfoldable_constant dense<[… > : tensor<80xf32>
  %result_empty = tensor.empty() : tensor<80xf32>
  %result = linalg.generic {indexing_maps = [
      affine_map<(d0) -> (d0)>,
      affine_map<(d0) -> (d0)>
    ], iterator_types = ["parallel"]}
    ins(%input : tensor<80xf32>) outs(%result_empty : tensor<80xf32>) {
  ^bb0(%in: f32, %out: f32):
    %result = math.ceil %in : f32
    linalg.yield %result : f32
  } -> tensor<80xf32>
  check.expect_almost_eq_const(%result,
    dense<[… > : tensor<80xf32>,
    tolerance 0.0) :  tensor<80xf32>
  return
}

func.func @test_cos_f32() -> () {
  %input = util.unfoldable_constant dense<[… > : tensor<80xf32>
  %result_empty = tensor.empty() : tensor<80xf32>
  %result = linalg.generic {indexing_maps = [
      affine_map<(d0) -> (d0)>,
      affine_map<(d0) -> (d0)>
    ], iterator_types = ["parallel"]}
    ins(%input : tensor<80xf32>) outs(%result_empty : tensor<80xf32>) {
  ^bb0(%in: f32, %out: f32):
    %result = math.cos %in : f32
    linalg.yield %result : f32
  } -> tensor<80xf32>
  check.expect_almost_eq_const(%result,
    dense<[… > : tensor<80xf32>,
    tolerance 0.0001) :  tensor<80xf32>
  return
}

func.func @test_cosh_f32() -> () {
  %input = util.unfoldable_constant dense<[… > : tensor<17xf32>
  %result_empty = tensor.empty() : tensor<17xf32>
  %result = linalg.generic {indexing_maps = [
      affine_map<(d0) -> (d0)>,
      affine_map<(d0) -> (d0)>
    ], iterator_types = ["parallel"]}
    ins(%input : tensor<17xf32>) outs(%result_empty : tensor<17xf32>) {
  ^bb0(%in: f32, %out: f32):
    %result = math.cosh %in : f32
    linalg.yield %result : f32
  } -> tensor<17xf32>
  check.expect_almost_eq_const(%result,
    dense<[… > : tensor<17xf32>,
    tolerance 0.0001) :  tensor<17xf32>
  return
}

func.func @test_erf_f32() -> () {
  %input = util.unfoldable_constant dense<[… > : tensor<80xf32>
  %result_empty = tensor.empty() : tensor<80xf32>
  %result = linalg.generic {indexing_maps = [
      affine_map<(d0) -> (d0)>,
      affine_map<(d0) -> (d0)>
    ], iterator_types = ["parallel"]}
    ins(%input : tensor<80xf32>) outs(%result_empty : tensor<80xf32>) {
  ^bb0(%in: f32, %out: f32):
    %result = math.erf %in : f32
    linalg.yield %result : f32
  } -> tensor<80xf32>
  check.expect_almost_eq_const(%result,
    dense<[… > : tensor<80xf32>,
    tolerance 0.0001) :  tensor<80xf32>
  return
}

func.func @test_exp_f32() -> () {
  %input = util.unfoldable_constant dense<[… > : tensor<49xf32>
  %result_empty = tensor.empty() : tensor<49xf32>
  %result = linalg.generic {indexing_maps = [
      affine_map<(d0) -> (d0)>,
      affine_map<(d0) -> (d0)>
    ], iterator_types = ["parallel"]}
    ins(%input : tensor<49xf32>) outs(%result_empty : tensor<49xf32>) {
  ^bb0(%in: f32, %out: f32):
    %result = math.exp %in : f32
    linalg.yield %result : f32
  } -> tensor<49xf32>
  check.expect_almost_eq_const(%result,
    dense<[… > : tensor<49xf32>,
    tolerance 0.0001) :  tensor<49xf32>
  return
}

func.func @test_exp2_f32() -> () {
  %input = util.unfoldable_constant dense<[… > : tensor<49xf32>
  %result_empty = tensor.empty() : tensor<49xf32>
  %result = linalg.generic {indexing_maps = [
      affine_map<(d0) -> (d0)>,
      affine_map<(d0) -> (d0)>
    ], iterator_types = ["parallel"]}
    ins(%input : tensor<49xf32>) outs(%result_empty : tensor<49xf32>) {
  ^bb0(%in: f32, %out: f32):
    %result = math.exp2 %in : f32
    linalg.yield %result : f32
  } -> tensor<49xf32>
  check.expect_almost_eq_const(%result,
    dense<[… > : tensor<49xf32>,
    tolerance 0.0001) :  tensor<49xf32>
  return
}

func.func @test_expm1_f32() -> () {
  %input = util.unfoldable_constant dense<[… > : tensor<49xf32>
  %result_empty = tensor.empty() : tensor<49xf32>
  %result = linalg.generic {indexing_maps = [
      affine_map<(d0) -> (d0)>,
      affine_map<(d0) -> (d0)>
    ], iterator_types = ["parallel"]}
    ins(%input : tensor<49xf32>) outs(%result_empty : tensor<49xf32>) {
  ^bb0(%in: f32, %out: f32):
    %result = math.expm1 %in : f32
    linalg.yield %result : f32
  } -> tensor<49xf32>
  check.expect_almost_eq_const(%result,
    dense<[… > : tensor<49xf32>,
    tolerance 0.0001) :  tensor<49xf32>
  return
}

func.func @test_floor_f32() -> () {
  %input = util.unfoldable_constant dense<[… > : tensor<80xf32>
  %result_empty = tensor.empty() : tensor<80xf32>
  %result = linalg.generic {indexing_maps = [
      affine_map<(d0) -> (d0)>,
      affine_map<(d0) -> (d0)>
    ], iterator_types = ["parallel"]}
    ins(%input : tensor<80xf32>) outs(%result_empty : tensor<80xf32>) {
  ^bb0(%in: f32, %out: f32):
    %result = math.floor %in : f32
    linalg.yield %result : f32
  } -> tensor<80xf32>
  check.expect_almost_eq_const(%result,
    dense<[… > : tensor<80xf32>,
    tolerance 0.0001) :  tensor<80xf32>
  return
}

func.func @test_log_f32() -> () {
  %input = util.unfoldable_constant dense<[… > : tensor<39xf32>
  %result_empty = tensor.empty() : tensor<39xf32>
  %result = linalg.generic {indexing_maps = [
      affine_map<(d0) -> (d0)>,
      affine_map<(d0) -> (d0)>
    ], iterator_types = ["parallel"]}
    ins(%input : tensor<39xf32>) outs(%result_empty : tensor<39xf32>) {
  ^bb0(%in: f32, %out: f32):
    %result = math.log %in : f32
    linalg.yield %result : f32
  } -> tensor<39xf32>
  check.expect_almost_eq_const(%result,
    dense<[… > : tensor<39xf32>,
    tolerance 0.0001) :  tensor<39xf32>
  return
}

func.func @test_log1p_f32() -> () {
  %input = util.unfoldable_constant dense<[… > : tensor<39xf32>
  %result_empty = tensor.empty() : tensor<39xf32>
  %result = linalg.generic {indexing_maps = [
      affine_map<(d0) -> (d0)>,
      affine_map<(d0) -> (d0)>
    ], iterator_types = ["parallel"]}
    ins(%input : tensor<39xf32>) outs(%result_empty : tensor<39xf32>) {
  ^bb0(%in: f32, %out: f32):
    %result = math.log1p %in : f32
    linalg.yield %result : f32
  } -> tensor<39xf32>
  check.expect_almost_eq_const(%result,
    dense<[… > : tensor<39xf32>,
    tolerance 0.0001) :  tensor<39xf32>
  return
}

func.func @test_log2_f32() -> () {
  %input = util.unfoldable_constant dense<[… > : tensor<39xf32>
  %result_empty = tensor.empty() : tensor<39xf32>
  %result = linalg.generic {indexing_maps = [
      affine_map<(d0) -> (d0)>,
      affine_map<(d0) -> (d0)>
    ], iterator_types = ["parallel"]}
    ins(%input : tensor<39xf32>) outs(%result_empty : tensor<39xf32>) {
  ^bb0(%in: f32, %out: f32):
    %result = math.log2 %in : f32
    linalg.yield %result : f32
  } -> tensor<39xf32>
  check.expect_almost_eq_const(%result,
    dense<[… > : tensor<39xf32>,
    tolerance 0.0001) :  tensor<39xf32>
  return
}

func.func @test_round_f32() -> () {
  %input = util.unfoldable_constant dense<[… > : tensor<80xf32>
  %result_empty = tensor.empty() : tensor<80xf32>
  %result = linalg.generic {indexing_maps = [
      affine_map<(d0) -> (d0)>,
      affine_map<(d0) -> (d0)>
    ], iterator_types = ["parallel"]}
    ins(%input : tensor<80xf32>) outs(%result_empty : tensor<80xf32>) {
  ^bb0(%in: f32, %out: f32):
    %result = math.round %in : f32
    linalg.yield %result : f32
  } -> tensor<80xf32>
  check.expect_almost_eq_const(%result,
    dense<[… > : tensor<80xf32>,
    tolerance 0.0) :  tensor<80xf32>
  return
}

func.func @test_roundeven_f32() -> () {
  %input = util.unfoldable_constant dense<[… > : tensor<80xf32>
  %result_empty = tensor.empty() : tensor<80xf32>
  %result = linalg.generic {indexing_maps = [
      affine_map<(d0) -> (d0)>,
      affine_map<(d0) -> (d0)>
    ], iterator_types = ["parallel"]}
    ins(%input : tensor<80xf32>) outs(%result_empty : tensor<80xf32>) {
  ^bb0(%in: f32, %out: f32):
    %result = math.roundeven %in : f32
    linalg.yield %result : f32
  } -> tensor<80xf32>
  check.expect_almost_eq_const(%result,
    dense<[… > : tensor<80xf32>,
    tolerance 0.0) :  tensor<80xf32>
  return
}

func.func @test_rsqrt_f32() -> () {
  %input = util.unfoldable_constant dense<[… > : tensor<39xf32>
  %result_empty = tensor.empty() : tensor<39xf32>
  %result = linalg.generic {indexing_maps = [
      affine_map<(d0) -> (d0)>,
      affine_map<(d0) -> (d0)>
    ], iterator_types = ["parallel"]}
    ins(%input : tensor<39xf32>) outs(%result_empty : tensor<39xf32>) {
  ^bb0(%in: f32, %out: f32):
    %result = math.rsqrt %in : f32
    linalg.yield %result : f32
  } -> tensor<39xf32>
  check.expect_almost_eq_const(%result,
    dense<[… > : tensor<39xf32>,
    tolerance 0.0001) :  tensor<39xf32>
  return
}

func.func @test_sin_f32() -> () {
  %input = util.unfoldable_constant dense<[… > : tensor<80xf32>
  %result_empty = tensor.empty() : tensor<80xf32>
  %result = linalg.generic {indexing_maps = [
      affine_map<(d0) -> (d0)>,
      affine_map<(d0) -> (d0)>
    ], iterator_types = ["parallel"]}
    ins(%input : tensor<80xf32>) outs(%result_empty : tensor<80xf32>) {
  ^bb0(%in: f32, %out: f32):
    %result = math.sin %in : f32
    linalg.yield %result : f32
  } -> tensor<80xf32>
  check.expect_almost_eq_const(%result,
    dense<[… > : tensor<80xf32>,
    tolerance 0.0001) :  tensor<80xf32>
  return
}

func.func @test_sinh_f32() -> () {
  %input = util.unfoldable_constant dense<[… > : tensor<17xf32>
  %result_empty = tensor.empty() : tensor<17xf32>
  %result = linalg.generic {indexing_maps = [
      affine_map<(d0) -> (d0)>,
      affine_map<(d0) -> (d0)>
    ], iterator_types = ["parallel"]}
    ins(%input : tensor<17xf32>) outs(%result_empty : tensor<17xf32>) {
  ^bb0(%in: f32, %out: f32):
    %result = math.sinh %in : f32
    linalg.yield %result : f32
  } -> tensor<17xf32>
  check.expect_almost_eq_const(%result,
    dense<[… > : tensor<17xf32>,
    tolerance 0.0001) :  tensor<17xf32>
  return
}

func.func @test_sqrt_f32() -> () {
  %input = util.unfoldable_constant dense<[… > : tensor<40xf32>
  %result_empty = tensor.empty() : tensor<40xf32>
  %result = linalg.generic {indexing_maps = [
      affine_map<(d0) -> (d0)>,
      affine_map<(d0) -> (d0)>
    ], iterator_types = ["parallel"]}
    ins(%input : tensor<40xf32>) outs(%result_empty : tensor<40xf32>) {
  ^bb0(%in: f32, %out: f32):
    %result = math.sqrt %in : f32
    linalg.yield %result : f32
  } -> tensor<40xf32>
  check.expect_almost_eq_const(%result,
    dense<[… > : tensor<40xf32>,
    tolerance 0.0001) :  tensor<40xf32>
  return
}

func.func @test_tan_f32() -> () {
  %input = util.unfoldable_constant dense<[… > : tensor<17xf32>
  %result_empty = tensor.empty() : tensor<17xf32>
  %result = linalg.generic {indexing_maps = [
      affine_map<(d0) -> (d0)>,
      affine_map<(d0) -> (d0)>
    ], iterator_types = ["parallel"]}
    ins(%input : tensor<17xf32>) outs(%result_empty : tensor<17xf32>) {
  ^bb0(%in: f32, %out: f32):
    %result = math.tan %in : f32
    linalg.yield %result : f32
  } -> tensor<17xf32>
  check.expect_almost_eq_const(%result,
    dense<[… > : tensor<17xf32>,
    tolerance 0.0001) :  tensor<17xf32>
  return
}

func.func @test_tanh_f32() -> () {
  %input = util.unfoldable_constant dense<[… > : tensor<80xf32>
  %result_empty = tensor.empty() : tensor<80xf32>
  %result = linalg.generic {indexing_maps = [
      affine_map<(d0) -> (d0)>,
      affine_map<(d0) -> (d0)>
    ], iterator_types = ["parallel"]}
    ins(%input : tensor<80xf32>) outs(%result_empty : tensor<80xf32>) {
  ^bb0(%in: f32, %out: f32):
    %result = math.tanh %in : f32
    linalg.yield %result : f32
  } -> tensor<80xf32>
  check.expect_almost_eq_const(%result,
    dense<[… > : tensor<80xf32>,
    tolerance 0.0001) :  tensor<80xf32>
  return
}

func.func @test_atan2_f32() -> () {
  %input_x = util.unfoldable_constant dense<[… > : tensor<255xf32>
  %input_y = util.unfoldable_constant dense<[… > : tensor<255xf32>
  %result_empty = tensor.empty() : tensor<255xf32>
  %result = linalg.generic {indexing_maps = [
      affine_map<(d0) -> (d0)>,
      affine_map<(d0) -> (d0)>,
      affine_map<(d0) -> (d0)>
    ], iterator_types = ["parallel"]}
    ins(%input_x, %input_y : tensor<255xf32>, tensor<255xf32>) outs(%result_empty : tensor<255xf32>) {
  ^bb0(%in_x: f32, %in_y : f32, %out: f32):
    %result = math.atan2 %in_x, %in_y : f32
    linalg.yield %result : f32
  } -> tensor<255xf32>
  check.expect_almost_eq_const(%result,
    dense<[… > : tensor<255xf32>,
    tolerance 0.0001) :  tensor<255xf32>
  return
}

func.func @test_powf_f32() -> () {
  %input_x = util.unfoldable_constant dense<[… > : tensor<110xf32>
  %input_y = util.unfoldable_constant dense<[… > : tensor<110xf32>
  %result_empty = tensor.empty() : tensor<110xf32>
  %result = linalg.generic {indexing_maps = [
      affine_map<(d0) -> (d0)>,
      affine_map<(d0) -> (d0)>,
      affine_map<(d0) -> (d0)>
    ], iterator_types = ["parallel"]}
    ins(%input_x, %input_y : tensor<110xf32>, tensor<110xf32>) outs(%result_empty : tensor<110xf32>) {
  ^bb0(%in_x: f32, %in_y : f32, %out: f32):
    %result = math.powf %in_x, %in_y : f32
    linalg.yield %result : f32
  } -> tensor<110xf32>
  check.expect_almost_eq_const(%result,
    dense<[… > : tensor<110xf32>,
    tolerance 0.0001) :  tensor<110xf32>
  return
}
