func @conv2d_2451x2311_same() attributes { iree.module.export } {
  %inputs = iree.unfoldable_constant dense<[
      [[[ … > : tensor <2x4x5x1xf32>
  %weights = iree.unfoldable_constant dense<[
      [[[1.0]], [[2.0]], [[3.0]]],
      [[[4.0]], [[5.0]], [[6.0]]]]> : tensor <2x3x1x1xf32>
  %res = "mhlo.convolution"(%inputs, %weights) {
       batch_group_count = 1 : i64,
       dimension_numbers = {
         input_batch_dimension = 0 : i64,
         input_feature_dimension = 3 : i64,
         input_spatial_dimensions = dense<[1, 2]> : tensor<2xi64>,
         kernel_input_feature_dimension = 2 : i64,
         kernel_output_feature_dimension = 3 : i64,
         kernel_spatial_dimensions = dense<[0, 1]> : tensor<2xi64>,
         output_batch_dimension = 0 : i64,
         output_feature_dimension = 3 : i64,
         output_spatial_dimensions = dense<[1, 2]> : tensor<2xi64>},
       feature_group_count = 1 : i64,
       padding = dense<[[0, 1], [1, 1]]> : tensor<2x2xi64>,
       rhs_dilation = dense<1> : tensor<2xi64>,
       window_strides = dense<1> : tensor<2xi64>} :
       (tensor<2x4x5x1xf32>, tensor<2x3x1x1xf32>) -> tensor<2x4x5x1xf32>
  check.expect_almost_eq_const(%res, dense<[
    [[[ … > : tensor<2x4x5x1xf32>) : tensor<2x4x5x1xf32>
  return
}

func @conv2d_no_padding() attributes { iree.module.export } {
  %inputs = iree.unfoldable_constant dense<[
       [[[  … > : tensor<2x4x5x3xf32>
  %weights = iree.unfoldable_constant dense<[
      [[[  … > : tensor<2x3x3x6xf32>
  %res = "mhlo.convolution"(%inputs, %weights) {
       batch_group_count = 1 : i64,
       dimension_numbers = {
         input_batch_dimension = 0 : i64,
         input_feature_dimension = 3 : i64,
         input_spatial_dimensions = dense<[1, 2]> : tensor<2xi64>,
         kernel_input_feature_dimension = 2 : i64,
         kernel_output_feature_dimension = 3 : i64,
         kernel_spatial_dimensions = dense<[0, 1]> : tensor<2xi64>,
         output_batch_dimension = 0 : i64,
         output_feature_dimension = 3 : i64,
         output_spatial_dimensions = dense<[1, 2]> : tensor<2xi64>},
       feature_group_count = 1 : i64,
       rhs_dilation = dense<1> : tensor<2xi64>,
       window_strides = dense<1> : tensor<2xi64>} :
       (tensor<2x4x5x3xf32>, tensor<2x3x3x6xf32>) -> tensor<2x3x3x6xf32>
  check.expect_almost_eq_const(%res, dense<[
      [[[… > : tensor<2x3x3x6xf32>) : tensor<2x3x3x6xf32>
  return
}
