func @conv() attributes { iree.module.export } {
  %input = iree.unfoldable_constant dense<
     [[[[… >
    : tensor<1x3x3x4xf32>
  %filter = iree.unfoldable_constant dense<
      [[[[… >
    : tensor<2x2x4x32xf32>

    %0 = "mhlo.convolution"(%input, %filter) {batch_group_count = 1 : i64, dimension_numbers = {input_batch_dimension = 0 : i64, input_feature_dimension = 3 : i64, input_spatial_dimensions = dense<[1, 2]> : tensor<2xi64>, kernel_input_feature_dimension = 2 : i64, kernel_output_feature_dimension = 3 : i64, kernel_spatial_dimensions = dense<[0, 1]> : tensor<2xi64>, output_batch_dimension = 0 : i64, output_feature_dimension = 3 : i64, output_spatial_dimensions = dense<[1, 2]> : tensor<2xi64>}, feature_group_count = 1 : i64, padding = dense<0> : tensor<2x2xi64>, rhs_dilation = dense<1> : tensor<2xi64>, window_strides = dense<1> : tensor<2xi64>} : (tensor<1x3x3x4xf32>, tensor<2x2x4x32xf32>) -> tensor<1x2x2x32xf32>

   check.expect_almost_eq_const(%0, dense<
     [[[[… >
        : tensor<1x2x2x32xf32>) : tensor<1x2x2x32xf32>
   return
}

func @depthwise_conv() attributes { iree.module.export } {
  %input = iree.unfoldable_constant dense<
    [[[[… >
    : tensor<1x1x4x16xf32>
  %filter = iree.unfoldable_constant dense<
    [[[[… >
    : tensor<1x1x1x16xf32>

    %0 = "mhlo.convolution"(%input, %filter) {batch_group_count = 1 : i64, dimension_numbers = {input_batch_dimension = 0 : i64, input_feature_dimension = 3 : i64, input_spatial_dimensions = dense<[1, 2]> : tensor<2xi64>, kernel_input_feature_dimension = 2 : i64, kernel_output_feature_dimension = 3 : i64, kernel_spatial_dimensions = dense<[0, 1]> : tensor<2xi64>, output_batch_dimension = 0 : i64, output_feature_dimension = 3 : i64, output_spatial_dimensions = dense<[1, 2]> : tensor<2xi64>}, feature_group_count = 16 : i64, padding = dense<0> : tensor<2x2xi64>, rhs_dilation = dense<1> : tensor<2xi64>, window_strides = dense<1> : tensor<2xi64>} : (tensor<1x1x4x16xf32>, tensor<1x1x1x16xf32>) -> tensor<1x1x4x16xf32>

   check.expect_almost_eq_const(%0, dense<
     [[[[… >
        : tensor<1x1x4x16xf32>) : tensor<1x1x4x16xf32>
   return
}

