module @sdxl_compiled_pipeline {
  func.func private @compiled_scheduled_unet.run_initialize(%arg0: tensor<1x4x128x128xf16>) -> (tensor<1x4x128x128xf16>, tensor<2x6xf16>, tensor<i64>) attributes {torch.args_schema = "[1, {\22type\22: \22builtins.tuple\22, \22context\22: \22null\22, \22children_spec\22: [{\22type\22: \22builtins.list\22, \22context\22: \22null\22, \22children_spec\22: [{\22type\22: null, \22context\22: null, \22children_spec\22: []}]}, {\22type\22: \22builtins.dict\22, \22context\22: \22[]\22, \22children_spec\22: []}]}]", torch.return_schema = "[1, {\22type\22: \22builtins.tuple\22, \22context\22: \22null\22, \22children_spec\22: [{\22type\22: null, \22context\22: null, \22children_spec\22: []}, {\22type\22: null, \22context\22: null, \22children_spec\22: []}, {\22type\22: null, \22context\22: null, \22children_spec\22: []}]}]"}
  func.func private @compiled_scheduled_unet.run_forward(%arg0: tensor<1x4x128x128xf16>, %arg1: tensor<2x64x2048xf16>, %arg2: tensor<2x1280xf16>, %arg3: tensor<2x6xf16>, %arg4: tensor<1xf16>, %arg5: tensor<1xi64>) -> tensor<1x4x128x128xf16> attributes {torch.args_schema = "[1, {\22type\22: \22builtins.tuple\22, \22context\22: \22null\22, \22children_spec\22: [{\22type\22: \22builtins.list\22, \22context\22: \22null\22, \22children_spec\22: [{\22type\22: null, \22context\22: null, \22children_spec\22: []}, {\22type\22: null, \22context\22: null, \22children_spec\22: []}, {\22type\22: null, \22context\22: null, \22children_spec\22: []}, {\22type\22: null, \22context\22: null, \22children_spec\22: []}, {\22type\22: null, \22context\22: null, \22children_spec\22: []}, {\22type\22: null, \22context\22: null, \22children_spec\22: []}]}, {\22type\22: \22builtins.dict\22, \22context\22: \22[]\22, \22children_spec\22: []}]}]", torch.return_schema = "[1, {\22type\22: null, \22context\22: null, \22children_spec\22: []}]"}
  func.func private @compiled_clip.encode_prompts(%arg0: tensor<1x64xi64>, %arg1: tensor<1x64xi64>, %arg2: tensor<1x64xi64>, %arg3: tensor<1x64xi64>) -> (tensor<2x64x2048xf16>, tensor<2x1280xf16>) attributes {torch.args_schema = "[1, {\22type\22: \22builtins.tuple\22, \22context\22: \22null\22, \22children_spec\22: [{\22type\22: \22builtins.list\22, \22context\22: \22null\22, \22children_spec\22: [{\22type\22: null, \22context\22: null, \22children_spec\22: []}, {\22type\22: null, \22context\22: null, \22children_spec\22: []}, {\22type\22: null, \22context\22: null, \22children_spec\22: []}, {\22type\22: null, \22context\22: null, \22children_spec\22: []}]}, {\22type\22: \22builtins.dict\22, \22context\22: \22[]\22, \22children_spec\22: []}]}]", torch.return_schema = "[1, {\22type\22: \22builtins.tuple\22, \22context\22: \22null\22, \22children_spec\22: [{\22type\22: null, \22context\22: null, \22children_spec\22: []}, {\22type\22: null, \22context\22: null, \22children_spec\22: []}]}]"}
  func.func private @compiled_vae.main(%arg0: tensor<1x4x128x128xf16>) -> tensor<1x3x1024x1024xf16> attributes {torch.args_schema = "[1, {\22type\22: \22builtins.tuple\22, \22context\22: \22null\22, \22children_spec\22: [{\22type\22: \22builtins.list\22, \22context\22: \22null\22, \22children_spec\22: [{\22type\22: null, \22context\22: null, \22children_spec\22: []}]}, {\22type\22: \22builtins.dict\22, \22context\22: \22[]\22, \22children_spec\22: []}]}]", torch.return_schema = "[1, {\22type\22: null, \22context\22: null, \22children_spec\22: []}]"}

  func.func @tokens_to_image(%sample: tensor<1x4x128x128xf16>, %guidance_scale: tensor<1xf16>, %t_ids_1: tensor<1x64xi64>, %t_ids_2: tensor<1x64xi64>, %u_ids_1: tensor<1x64xi64>, %u_ids_2: tensor<1x64xi64>) -> tensor<1x3x1024x1024xf16> {
    %p_embeds, %t_embeds = func.call @compiled_clip.encode_prompts(%t_ids_1, %t_ids_2, %u_ids_1, %u_ids_2) : (tensor<1x64xi64>, tensor<1x64xi64>, tensor<1x64xi64>, tensor<1x64xi64>) -> (tensor<2x64x2048xf16>, tensor<2x1280xf16>)
    %noisy_sample, %time_ids, %steps = func.call @compiled_scheduled_unet.run_initialize(%sample) : (tensor<1x4x128x128xf16>) -> (tensor<1x4x128x128xf16>, tensor<2x6xf16>, tensor<i64>)
    %c0 = arith.constant 0 : index
    %c1 = arith.constant 1 : index
    %steps_int = tensor.extract %steps[] : tensor<i64>
    %n_steps = arith.index_cast %steps_int: i64 to index
    %res = scf.for %arg0 = %c0 to %n_steps step %c1 iter_args(%arg = %noisy_sample) -> (tensor<1x4x128x128xf16>) {
      %step_64 = arith.index_cast %arg0 : index to i64
      %this_step = tensor.from_elements %step_64 : tensor<1xi64>
      %inner = func.call @compiled_scheduled_unet.run_forward(%arg, %p_embeds, %t_embeds, %time_ids, %guidance_scale, %this_step) : (tensor<1x4x128x128xf16>, tensor<2x64x2048xf16>, tensor<2x1280xf16>, tensor<2x6xf16>, tensor<1xf16>, tensor<1xi64>) -> tensor<1x4x128x128xf16>
      scf.yield %inner : tensor<1x4x128x128xf16>
    }
    %image = func.call @compiled_vae.main(%res): (tensor<1x4x128x128xf16>) -> tensor<1x3x1024x1024xf16>
    return %image : tensor<1x3x1024x1024xf16>
  }
}
