func.func @attention1x4x4_i1_mask() {
  %init = tensor.empty() : tensor<1x4x4xf32>
  %query = util.unfoldable_constant dense<[[[… > : tensor<1x4x4xf32>

  %key = util.unfoldable_constant dense<[[[… > : tensor<1x4x4xf32>
  %value = util.unfoldable_constant dense<[[[… > : tensor<1x4x4xf32>

  %i8mask = util.unfoldable_constant dense<[165, 165]> : tensor<2xi8>
  %mask = flow.tensor.bitcast %i8mask : tensor<2xi8> -> tensor<1x4x4xi1>

  %scale = arith.constant 0.5 : f32
  %1 = iree_linalg_ext.attention  {indexing_maps = [affine_map<(d0, d1, d2, d3, d4) -> (d0, d1, d2)>,
                     affine_map<(d0, d1, d2, d3, d4) -> (d0, d3, d2)>,
                     affine_map<(d0, d1, d2, d3, d4) -> (d0, d3, d4)>,
                     affine_map<(d0, d1, d2, d3, d4) -> ()>,
                     affine_map<(d0, d1, d2, d3, d4) -> (d0, d1, d3)>,
                     affine_map<(d0, d1, d2, d3, d4) -> (d0, d1, d4)>]}
                     ins(%query, %key, %value, %scale, %mask : tensor<1x4x4xf32>,
        tensor<1x4x4xf32>, tensor<1x4x4xf32>, f32, tensor<1x4x4xi1>) outs(%init : tensor<1x4x4xf32>) {
          ^bb0(%arg0: f32):
          iree_linalg_ext.yield %arg0 : f32
        } -> tensor<1x4x4xf32>
  check.expect_almost_eq_const(
      %1,
      dense<[[[… > : tensor<1x4x4xf32>
  ) : tensor<1x4x4xf32>
  return
}

func.func @attention1x4x4_i1_mask_all_ones() {
  %init = tensor.empty() : tensor<1x4x4xf32>
  %query = util.unfoldable_constant dense<[[[… > : tensor<1x4x4xf32>

  %key = util.unfoldable_constant dense<[[[… > : tensor<1x4x4xf32>
  %value = util.unfoldable_constant dense<[[[… > : tensor<1x4x4xf32>

  %i8mask = util.unfoldable_constant dense<[255, 255]> : tensor<2xi8>
  %mask = flow.tensor.bitcast %i8mask : tensor<2xi8> -> tensor<1x4x4xi1>

  %scale = arith.constant 0.5 : f32
  %1 = iree_linalg_ext.attention  {indexing_maps = [affine_map<(d0, d1, d2, d3, d4) -> (d0, d1, d2)>,
                     affine_map<(d0, d1, d2, d3, d4) -> (d0, d3, d2)>,
                     affine_map<(d0, d1, d2, d3, d4) -> (d0, d3, d4)>,
                     affine_map<(d0, d1, d2, d3, d4) -> ()>,
                     affine_map<(d0, d1, d2, d3, d4) -> (d0, d1, d3)>,
                     affine_map<(d0, d1, d2, d3, d4) -> (d0, d1, d4)>]}
                     ins(%query, %key, %value, %scale, %mask : tensor<1x4x4xf32>,
        tensor<1x4x4xf32>, tensor<1x4x4xf32>, f32, tensor<1x4x4xi1>) outs(%init : tensor<1x4x4xf32>) {
          ^bb0(%arg0: f32):
          iree_linalg_ext.yield %arg0 : f32
        } -> tensor<1x4x4xf32>
  check.expect_almost_eq_const(
      %1,
      dense<[[[… > : tensor<1x4x4xf32>
  ) : tensor<1x4x4xf32>
  return
}

func.func @attention1x4x4_i1_mask_tril() {
  %init = tensor.empty() : tensor<1x4x4xf32>
  %query = util.unfoldable_constant dense<[[[… > : tensor<1x4x4xf32>

  %key = util.unfoldable_constant dense<[[[… > : tensor<1x4x4xf32>
  %value = util.unfoldable_constant dense<[[[… > : tensor<1x4x4xf32>

  %i8mask = util.unfoldable_constant dense<[140, 239]> : tensor<2xi8>
  %mask = flow.tensor.bitcast %i8mask : tensor<2xi8> -> tensor<1x4x4xi1>

  %scale = arith.constant 0.5 : f32
  %1 = iree_linalg_ext.attention  {indexing_maps = [affine_map<(d0, d1, d2, d3, d4) -> (d0, d1, d2)>,
                     affine_map<(d0, d1, d2, d3, d4) -> (d0, d3, d2)>,
                     affine_map<(d0, d1, d2, d3, d4) -> (d0, d3, d4)>,
                     affine_map<(d0, d1, d2, d3, d4) -> ()>,
                     affine_map<(d0, d1, d2, d3, d4) -> (d0, d1, d3)>,
                     affine_map<(d0, d1, d2, d3, d4) -> (d0, d1, d4)>]}
                     ins(%query, %key, %value, %scale, %mask : tensor<1x4x4xf32>,
        tensor<1x4x4xf32>, tensor<1x4x4xf32>, f32, tensor<1x4x4xi1>) outs(%init : tensor<1x4x4xf32>) {
          ^bb0(%arg0: f32):
          iree_linalg_ext.yield %arg0 : f32
        } -> tensor<1x4x4xf32>
  check.expect_almost_eq_const(
      %1,
      dense<[[[… > : tensor<1x4x4xf32>
  ) : tensor<1x4x4xf32>
  return
}
