func.func @dynamic_attention_3x4() {
  // batch=1, seq_len=3, head_dim=4
  %query = flow.tensor.dynamic_constant dense<[[[0.1, 0.2, 0.3, 0.4],
                                                [0.5, 0.6, 0.7, 0.8],
                                                [0.9, 1.0, 1.1, 1.2]]]>
    : tensor<1x3x4xf32> -> tensor<?x?x?xf32>
  %key = flow.tensor.dynamic_constant dense<[[[0.1, 0.2, 0.3, 0.4],
                                              [0.5, 0.6, 0.7, 0.8],
                                              [0.9, 1.0, 1.1, 1.2]]]>
    : tensor<1x3x4xf32> -> tensor<?x?x?xf32>
  %value = flow.tensor.dynamic_constant dense<[[[0.1, 0.2, 0.3, 0.4],
                                                [0.5, 0.6, 0.7, 0.8],
                                                [0.9, 1.0, 1.1, 1.2]]]>
    : tensor<1x3x4xf32> -> tensor<?x?x?xf32>

  %c0 = arith.constant 0 : index
  %c1 = arith.constant 1 : index
  %c2 = arith.constant 2 : index
  %batch = tensor.dim %query, %c0 : tensor<?x?x?xf32>
  %seq_len = tensor.dim %query, %c1 : tensor<?x?x?xf32>
  %head_dim = tensor.dim %query, %c2 : tensor<?x?x?xf32>

  %init = tensor.empty(%batch, %seq_len, %head_dim) : tensor<?x?x?xf32>
  %scale = arith.constant 0.5 : f32

  %result = iree_linalg_ext.attention {
    indexing_maps = [
      affine_map<(d0, d1, d2, d3, d4) -> (d0, d1, d2)>,
      affine_map<(d0, d1, d2, d3, d4) -> (d0, d3, d2)>,
      affine_map<(d0, d1, d2, d3, d4) -> (d0, d3, d4)>,
      affine_map<(d0, d1, d2, d3, d4) -> ()>,
      affine_map<(d0, d1, d2, d3, d4) -> (d0, d1, d4)>
    ]
  } ins(%query, %key, %value, %scale : tensor<?x?x?xf32>, tensor<?x?x?xf32>, tensor<?x?x?xf32>, f32)
    outs(%init : tensor<?x?x?xf32>) {
  ^bb0(%arg0: f32):
    iree_linalg_ext.yield %arg0 : f32
  } -> tensor<?x?x?xf32>


  // Cast back to static for checking (expected values from static attention test).
  // The barrier is added to prevent shape inference happening on the attention op.
  %barrier = util.optimization_barrier %result : tensor<?x?x?xf32>
  %result_static = tensor.cast %barrier : tensor<?x?x?xf32> to tensor<1x3x4xf32>
  check.expect_almost_eq_const(
      %result_static,
      dense<[[[0.5530, 0.6530, 0.7530, 0.8530],
              [0.6328, 0.7328, 0.8328, 0.9328],
              [0.7011, 0.8011, 0.9011, 1.0011]]]> : tensor<1x3x4xf32>
  ) : tensor<1x3x4xf32>
  return
}

func.func @dynamic_attention_3x3x4() {
  // batch=3, seq_len=3, head_dim=4
  %query = flow.tensor.dynamic_constant dense<[[[… >
    : tensor<3x3x4xf32> -> tensor<?x?x?xf32>
  %key = flow.tensor.dynamic_constant dense<[[[… >
    : tensor<3x3x4xf32> -> tensor<?x?x?xf32>
  %value = flow.tensor.dynamic_constant dense<[[[… >
    : tensor<3x3x4xf32> -> tensor<?x?x?xf32>

  %c0 = arith.constant 0 : index
  %c1 = arith.constant 1 : index
  %c2 = arith.constant 2 : index
  %batch = tensor.dim %query, %c0 : tensor<?x?x?xf32>
  %seq_len = tensor.dim %query, %c1 : tensor<?x?x?xf32>
  %head_dim = tensor.dim %query, %c2 : tensor<?x?x?xf32>

  %init = tensor.empty(%batch, %seq_len, %head_dim) : tensor<?x?x?xf32>
  %scale = arith.constant 0.5 : f32

  %result = iree_linalg_ext.attention {
    indexing_maps = [
      affine_map<(d0, d1, d2, d3, d4) -> (d0, d1, d2)>,
      affine_map<(d0, d1, d2, d3, d4) -> (d0, d3, d2)>,
      affine_map<(d0, d1, d2, d3, d4) -> (d0, d3, d4)>,
      affine_map<(d0, d1, d2, d3, d4) -> ()>,
      affine_map<(d0, d1, d2, d3, d4) -> (d0, d1, d4)>
    ]
  } ins(%query, %key, %value, %scale : tensor<?x?x?xf32>, tensor<?x?x?xf32>, tensor<?x?x?xf32>, f32)
    outs(%init : tensor<?x?x?xf32>) {
  ^bb0(%arg0: f32):
    iree_linalg_ext.yield %arg0 : f32
  } -> tensor<?x?x?xf32>

  %barrier = util.optimization_barrier %result : tensor<?x?x?xf32>
  %result_static = tensor.cast %barrier : tensor<?x?x?xf32> to tensor<3x3x4xf32>
  check.expect_almost_eq_const(
      %result_static,
      dense<[[[… > : tensor<3x3x4xf32>
  ) : tensor<3x3x4xf32>
  return
}
