// MobileBert encoder model with placeholder weights, for testing.

module {
  util.global private @"__iree_flow_bert/embeddings/FakeLayerNorm/beta" = dense<1.000000e+00> : tensor<512xf32>
  util.global private @"__iree_flow_bert/embeddings/FakeLayerNorm/gamma" = dense<4.000000e-01> : tensor<512xf32>
  util.global private @"__iree_flow_bert/embeddings/embedding_transformation/bias" = dense<1.000000e-01> : tensor<512xf32>
  util.global private @"__iree_flow_bert/embeddings/embedding_transformation/kernel" {noinline} = dense<9.99999974E-5> : tensor<384x512xf32>
  util.global private @"__iree_flow_bert/embeddings/position_embeddings" {noinline} = dense<0.000000e+00> : tensor<512x512xf32>
  util.global private @"__iree_flow_bert/embeddings/token_type_embeddings" {noinline} = dense<0.000000e+00> : tensor<2x512xf32>
  util.global private @"__iree_flow_bert/embeddings/word_embeddings" {noinline} = dense<0.000000e+00> : tensor<30522x128xf32>
  util.global private @"__iree_flow_bert/encoder/layer_0/attention/output/FakeLayerNorm/beta" = dense<1.000000e+00> : tensor<128xf32>
  util.global private @"__iree_flow_bert/encoder/layer_0/attention/output/FakeLayerNorm/gamma" = dense<4.000000e-01> : tensor<128xf32>
  util.global private @"__iree_flow_bert/encoder/layer_0/attention/output/dense/bias" = dense<1.000000e-01> : tensor<128xf32>
  util.global private @"__iree_flow_bert/encoder/layer_0/attention/output/dense/kernel" {noinline} = dense<9.99999974E-5> : tensor<128x128xf32>
  util.global private @"__iree_flow_bert/encoder/layer_0/attention/self/key/bias" = dense<1.000000e-01> : tensor<128xf32>
  util.global private @"__iree_flow_bert/encoder/layer_0/attention/self/key/kernel" {noinline} = dense<9.99999974E-5> : tensor<128x128xf32>
  util.global private @"__iree_flow_bert/encoder/layer_0/attention/self/query/bias" = dense<1.000000e-01> : tensor<128xf32>
  util.global private @"__iree_flow_bert/encoder/layer_0/attention/self/query/kernel" {noinline} = dense<9.99999974E-5> : tensor<128x128xf32>
  util.global private @"__iree_flow_bert/encoder/layer_0/attention/self/value/bias" = dense<1.000000e-01> : tensor<128xf32>
  util.global private @"__iree_flow_bert/encoder/layer_0/attention/self/value/kernel" {noinline} = dense<9.99999974E-5> : tensor<512x128xf32>
  util.global private @"__iree_flow_bert/encoder/layer_0/bottleneck/attention/FakeLayerNorm/beta" = dense<1.000000e+00> : tensor<128xf32>
  util.global private @"__iree_flow_bert/encoder/layer_0/bottleneck/attention/FakeLayerNorm/gamma" = dense<4.000000e-01> : tensor<128xf32>
  util.global private @"__iree_flow_bert/encoder/layer_0/bottleneck/attention/dense/bias" = dense<1.000000e-01> : tensor<128xf32>
  util.global private @"__iree_flow_bert/encoder/layer_0/bottleneck/attention/dense/kernel" {noinline} = dense<9.99999974E-5> : tensor<512x128xf32>
  util.global private @"__iree_flow_bert/encoder/layer_0/bottleneck/input/FakeLayerNorm/beta" = dense<1.000000e+00> : tensor<128xf32>
  util.global private @"__iree_flow_bert/encoder/layer_0/bottleneck/input/FakeLayerNorm/gamma" = dense<4.000000e-01> : tensor<128xf32>
  util.global private @"__iree_flow_bert/encoder/layer_0/bottleneck/input/dense/bias" = dense<1.000000e-01> : tensor<128xf32>
  util.global private @"__iree_flow_bert/encoder/layer_0/bottleneck/input/dense/kernel" {noinline} = dense<9.99999974E-5> : tensor<512x128xf32>
  util.global private @"__iree_flow_bert/encoder/layer_0/ffn_layer_0/intermediate/dense/bias" = dense<1.000000e-01> : tensor<512xf32>
  util.global private @"__iree_flow_bert/encoder/layer_0/ffn_layer_0/intermediate/dense/kernel" {noinline} = dense<9.99999974E-5> : tensor<128x512xf32>
  util.global private @"__iree_flow_bert/encoder/layer_0/ffn_layer_0/output/FakeLayerNorm/beta" = dense<1.000000e+00> : tensor<128xf32>
  util.global private @"__iree_flow_bert/encoder/layer_0/ffn_layer_0/output/FakeLayerNorm/gamma" = dense<4.000000e-01> : tensor<128xf32>
  util.global private @"__iree_flow_bert/encoder/layer_0/ffn_layer_0/output/dense/bias" = dense<1.000000e-01> : tensor<128xf32>
  util.global private @"__iree_flow_bert/encoder/layer_0/ffn_layer_0/output/dense/kernel" {noinline} = dense<9.99999974E-5> : tensor<512x128xf32>
  util.global private @"__iree_flow_bert/encoder/layer_0/ffn_layer_1/intermediate/dense/bias" = dense<1.000000e-01> : tensor<512xf32>
  util.global private @"__iree_flow_bert/encoder/layer_0/ffn_layer_1/intermediate/dense/kernel" {noinline} = dense<9.99999974E-5> : tensor<128x512xf32>
  util.global private @"__iree_flow_bert/encoder/layer_0/ffn_layer_1/output/FakeLayerNorm/beta" = dense<1.000000e+00> : tensor<128xf32>
  util.global private @"__iree_flow_bert/encoder/layer_0/ffn_layer_1/output/FakeLayerNorm/gamma" = dense<4.000000e-01> : tensor<128xf32>
  util.global private @"__iree_flow_bert/encoder/layer_0/ffn_layer_1/output/dense/bias" = dense<1.000000e-01> : tensor<128xf32>
  util.global private @"__iree_flow_bert/encoder/layer_0/ffn_layer_1/output/dense/kernel" {noinline} = dense<9.99999974E-5> : tensor<512x128xf32>
  util.global private @"__iree_flow_bert/encoder/layer_0/ffn_layer_2/intermediate/dense/bias" = dense<1.000000e-01> : tensor<512xf32>
  util.global private @"__iree_flow_bert/encoder/layer_0/ffn_layer_2/intermediate/dense/kernel" {noinline} = dense<9.99999974E-5> : tensor<128x512xf32>
  util.global private @"__iree_flow_bert/encoder/layer_0/ffn_layer_2/output/FakeLayerNorm/beta" = dense<1.000000e+00> : tensor<128xf32>
  util.global private @"__iree_flow_bert/encoder/layer_0/ffn_layer_2/output/FakeLayerNorm/gamma" = dense<4.000000e-01> : tensor<128xf32>
  util.global private @"__iree_flow_bert/encoder/layer_0/ffn_layer_2/output/dense/bias" = dense<1.000000e-01> : tensor<128xf32>
  util.global private @"__iree_flow_bert/encoder/layer_0/ffn_layer_2/output/dense/kernel" {noinline} = dense<9.99999974E-5> : tensor<512x128xf32>
  util.global private @"__iree_flow_bert/encoder/layer_0/intermediate/dense/bias" = dense<1.000000e-01> : tensor<512xf32>
  util.global private @"__iree_flow_bert/encoder/layer_0/intermediate/dense/kernel" {noinline} = dense<9.99999974E-5> : tensor<128x512xf32>
  util.global private @"__iree_flow_bert/encoder/layer_0/output/FakeLayerNorm/beta" = dense<1.000000e+00> : tensor<128xf32>
  util.global private @"__iree_flow_bert/encoder/layer_0/output/FakeLayerNorm/gamma" = dense<4.000000e-01> : tensor<128xf32>
  util.global private @"__iree_flow_bert/encoder/layer_0/output/bottleneck/FakeLayerNorm/beta" = dense<1.000000e+00> : tensor<512xf32>
  util.global private @"__iree_flow_bert/encoder/layer_0/output/bottleneck/FakeLayerNorm/gamma" = dense<4.000000e-01> : tensor<512xf32>
  util.global private @"__iree_flow_bert/encoder/layer_0/output/bottleneck/dense/bias" = dense<1.000000e-01> : tensor<512xf32>
  util.global private @"__iree_flow_bert/encoder/layer_0/output/bottleneck/dense/kernel" {noinline} = dense<9.99999974E-5> : tensor<128x512xf32>
  util.global private @"__iree_flow_bert/encoder/layer_0/output/dense/bias" = dense<1.000000e-01> : tensor<128xf32>
  util.global private @"__iree_flow_bert/encoder/layer_0/output/dense/kernel" {noinline} = dense<9.99999974E-5> : tensor<512x128xf32>
  util.global private @"__iree_flow_bert/encoder/layer_1/attention/output/FakeLayerNorm/beta" = dense<1.000000e+00> : tensor<128xf32>
  util.global private @"__iree_flow_bert/encoder/layer_1/attention/output/FakeLayerNorm/gamma" = dense<4.000000e-01> : tensor<128xf32>
  util.global private @"__iree_flow_bert/encoder/layer_1/attention/output/dense/bias" = dense<1.000000e-01> : tensor<128xf32>
  util.global private @"__iree_flow_bert/encoder/layer_1/attention/output/dense/kernel" {noinline} = dense<9.99999974E-5> : tensor<128x128xf32>
  util.global private @"__iree_flow_bert/encoder/layer_1/attention/self/key/bias" = dense<1.000000e-01> : tensor<128xf32>
  util.global private @"__iree_flow_bert/encoder/layer_1/attention/self/key/kernel" {noinline} = dense<9.99999974E-5> : tensor<128x128xf32>
  util.global private @"__iree_flow_bert/encoder/layer_1/attention/self/query/bias" = dense<1.000000e-01> : tensor<128xf32>
  util.global private @"__iree_flow_bert/encoder/layer_1/attention/self/query/kernel" {noinline} = dense<9.99999974E-5> : tensor<128x128xf32>
  util.global private @"__iree_flow_bert/encoder/layer_1/attention/self/value/bias" = dense<1.000000e-01> : tensor<128xf32>
  util.global private @"__iree_flow_bert/encoder/layer_1/attention/self/value/kernel" {noinline} = dense<9.99999974E-5> : tensor<512x128xf32>
  util.global private @"__iree_flow_bert/encoder/layer_1/bottleneck/attention/FakeLayerNorm/beta" = dense<1.000000e+00> : tensor<128xf32>
  util.global private @"__iree_flow_bert/encoder/layer_1/bottleneck/attention/FakeLayerNorm/gamma" = dense<4.000000e-01> : tensor<128xf32>
  util.global private @"__iree_flow_bert/encoder/layer_1/bottleneck/attention/dense/bias" = dense<1.000000e-01> : tensor<128xf32>
  util.global private @"__iree_flow_bert/encoder/layer_1/bottleneck/attention/dense/kernel" {noinline} = dense<9.99999974E-5> : tensor<512x128xf32>
  util.global private @"__iree_flow_bert/encoder/layer_1/bottleneck/input/FakeLayerNorm/beta" = dense<1.000000e+00> : tensor<128xf32>
  util.global private @"__iree_flow_bert/encoder/layer_1/bottleneck/input/FakeLayerNorm/gamma" = dense<4.000000e-01> : tensor<128xf32>
  util.global private @"__iree_flow_bert/encoder/layer_1/bottleneck/input/dense/bias" = dense<1.000000e-01> : tensor<128xf32>
  util.global private @"__iree_flow_bert/encoder/layer_1/bottleneck/input/dense/kernel" {noinline} = dense<9.99999974E-5> : tensor<512x128xf32>
  util.global private @"__iree_flow_bert/encoder/layer_1/ffn_layer_0/intermediate/dense/bias" = dense<1.000000e-01> : tensor<512xf32>
  util.global private @"__iree_flow_bert/encoder/layer_1/ffn_layer_0/intermediate/dense/kernel" {noinline} = dense<9.99999974E-5> : tensor<128x512xf32>
  util.global private @"__iree_flow_bert/encoder/layer_1/ffn_layer_0/output/FakeLayerNorm/beta" = dense<1.000000e+00> : tensor<128xf32>
  util.global private @"__iree_flow_bert/encoder/layer_1/ffn_layer_0/output/FakeLayerNorm/gamma" = dense<4.000000e-01> : tensor<128xf32>
  util.global private @"__iree_flow_bert/encoder/layer_1/ffn_layer_0/output/dense/bias" = dense<1.000000e-01> : tensor<128xf32>
  util.global private @"__iree_flow_bert/encoder/layer_1/ffn_layer_0/output/dense/kernel" {noinline} = dense<9.99999974E-5> : tensor<512x128xf32>
  util.global private @"__iree_flow_bert/encoder/layer_1/ffn_layer_1/intermediate/dense/bias" = dense<1.000000e-01> : tensor<512xf32>
  util.global private @"__iree_flow_bert/encoder/layer_1/ffn_layer_1/intermediate/dense/kernel" {noinline} = dense<9.99999974E-5> : tensor<128x512xf32>
  util.global private @"__iree_flow_bert/encoder/layer_1/ffn_layer_1/output/FakeLayerNorm/beta" = dense<1.000000e+00> : tensor<128xf32>
  util.global private @"__iree_flow_bert/encoder/layer_1/ffn_layer_1/output/FakeLayerNorm/gamma" = dense<4.000000e-01> : tensor<128xf32>
  util.global private @"__iree_flow_bert/encoder/layer_1/ffn_layer_1/output/dense/bias" = dense<1.000000e-01> : tensor<128xf32>
  util.global private @"__iree_flow_bert/encoder/layer_1/ffn_layer_1/output/dense/kernel" {noinline} = dense<9.99999974E-5> : tensor<512x128xf32>
  util.global private @"__iree_flow_bert/encoder/layer_1/ffn_layer_2/intermediate/dense/bias" = dense<1.000000e-01> : tensor<512xf32>
  util.global private @"__iree_flow_bert/encoder/layer_1/ffn_layer_2/intermediate/dense/kernel" {noinline} = dense<9.99999974E-5> : tensor<128x512xf32>
  util.global private @"__iree_flow_bert/encoder/layer_1/ffn_layer_2/output/FakeLayerNorm/beta" = dense<1.000000e+00> : tensor<128xf32>
  util.global private @"__iree_flow_bert/encoder/layer_1/ffn_layer_2/output/FakeLayerNorm/gamma" = dense<4.000000e-01> : tensor<128xf32>
  util.global private @"__iree_flow_bert/encoder/layer_1/ffn_layer_2/output/dense/bias" = dense<1.000000e-01> : tensor<128xf32>
  util.global private @"__iree_flow_bert/encoder/layer_1/ffn_layer_2/output/dense/kernel" {noinline} = dense<9.99999974E-5> : tensor<512x128xf32>
  util.global private @"__iree_flow_bert/encoder/layer_1/intermediate/dense/bias" = dense<1.000000e-01> : tensor<512xf32>
  util.global private @"__iree_flow_bert/encoder/layer_1/intermediate/dense/kernel" {noinline} = dense<9.99999974E-5> : tensor<128x512xf32>
  util.global private @"__iree_flow_bert/encoder/layer_1/output/FakeLayerNorm/beta" = dense<1.000000e+00> : tensor<128xf32>
  util.global private @"__iree_flow_bert/encoder/layer_1/output/FakeLayerNorm/gamma" = dense<4.000000e-01> : tensor<128xf32>
  util.global private @"__iree_flow_bert/encoder/layer_1/output/bottleneck/FakeLayerNorm/beta" = dense<1.000000e+00> : tensor<512xf32>
  util.global private @"__iree_flow_bert/encoder/layer_1/output/bottleneck/FakeLayerNorm/gamma" = dense<4.000000e-01> : tensor<512xf32>
  util.global private @"__iree_flow_bert/encoder/layer_1/output/bottleneck/dense/bias" = dense<1.000000e-01> : tensor<512xf32>
  util.global private @"__iree_flow_bert/encoder/layer_1/output/bottleneck/dense/kernel" {noinline} = dense<9.99999974E-5> : tensor<128x512xf32>
  util.global private @"__iree_flow_bert/encoder/layer_1/output/dense/bias" = dense<1.000000e-01> : tensor<128xf32>
  util.global private @"__iree_flow_bert/encoder/layer_1/output/dense/kernel" {noinline} = dense<9.99999974E-5> : tensor<512x128xf32>
  util.global private @"__iree_flow_bert/encoder/layer_10/attention/output/FakeLayerNorm/beta" = dense<1.000000e+00> : tensor<128xf32>
  util.global private @"__iree_flow_bert/encoder/layer_10/attention/output/FakeLayerNorm/gamma" = dense<4.000000e-01> : tensor<128xf32>
  util.global private @"__iree_flow_bert/encoder/layer_10/attention/output/dense/bias" = dense<1.000000e-01> : tensor<128xf32>
  util.global private @"__iree_flow_bert/encoder/layer_10/attention/output/dense/kernel" {noinline} = dense<9.99999974E-5> : tensor<128x128xf32>
  util.global private @"__iree_flow_bert/encoder/layer_10/attention/self/key/bias" = dense<1.000000e-01> : tensor<128xf32>
  util.global private @"__iree_flow_bert/encoder/layer_10/attention/self/key/kernel" {noinline} = dense<9.99999974E-5> : tensor<128x128xf32>
  util.global private @"__iree_flow_bert/encoder/layer_10/attention/self/query/bias" = dense<1.000000e-01> : tensor<128xf32>
  util.global private @"__iree_flow_bert/encoder/layer_10/attention/self/query/kernel" {noinline} = dense<9.99999974E-5> : tensor<128x128xf32>
  util.global private @"__iree_flow_bert/encoder/layer_10/attention/self/value/bias" = dense<1.000000e-01> : tensor<128xf32>
  util.global private @"__iree_flow_bert/encoder/layer_10/attention/self/value/kernel" {noinline} = dense<9.99999974E-5> : tensor<512x128xf32>
  util.global private @"__iree_flow_bert/encoder/layer_10/bottleneck/attention/FakeLayerNorm/beta" = dense<1.000000e+00> : tensor<128xf32>
  util.global private @"__iree_flow_bert/encoder/layer_10/bottleneck/attention/FakeLayerNorm/gamma" = dense<4.000000e-01> : tensor<128xf32>
  util.global private @"__iree_flow_bert/encoder/layer_10/bottleneck/attention/dense/bias" = dense<1.000000e-01> : tensor<128xf32>
  util.global private @"__iree_flow_bert/encoder/layer_10/bottleneck/attention/dense/kernel" {noinline} = dense<9.99999974E-5> : tensor<512x128xf32>
  util.global private @"__iree_flow_bert/encoder/layer_10/bottleneck/input/FakeLayerNorm/beta" = dense<1.000000e+00> : tensor<128xf32>
  util.global private @"__iree_flow_bert/encoder/layer_10/bottleneck/input/FakeLayerNorm/gamma" = dense<4.000000e-01> : tensor<128xf32>
  util.global private @"__iree_flow_bert/encoder/layer_10/bottleneck/input/dense/bias" = dense<1.000000e-01> : tensor<128xf32>
  util.global private @"__iree_flow_bert/encoder/layer_10/bottleneck/input/dense/kernel" {noinline} = dense<9.99999974E-5> : tensor<512x128xf32>
  util.global private @"__iree_flow_bert/encoder/layer_10/ffn_layer_0/intermediate/dense/bias" = dense<1.000000e-01> : tensor<512xf32>
  util.global private @"__iree_flow_bert/encoder/layer_10/ffn_layer_0/intermediate/dense/kernel" {noinline} = dense<9.99999974E-5> : tensor<128x512xf32>
  util.global private @"__iree_flow_bert/encoder/layer_10/ffn_layer_0/output/FakeLayerNorm/beta" = dense<1.000000e+00> : tensor<128xf32>
  util.global private @"__iree_flow_bert/encoder/layer_10/ffn_layer_0/output/FakeLayerNorm/gamma" = dense<4.000000e-01> : tensor<128xf32>
  util.global private @"__iree_flow_bert/encoder/layer_10/ffn_layer_0/output/dense/bias" = dense<1.000000e-01> : tensor<128xf32>
  util.global private @"__iree_flow_bert/encoder/layer_10/ffn_layer_0/output/dense/kernel" {noinline} = dense<9.99999974E-5> : tensor<512x128xf32>
  util.global private @"__iree_flow_bert/encoder/layer_10/ffn_layer_1/intermediate/dense/bias" = dense<1.000000e-01> : tensor<512xf32>
  util.global private @"__iree_flow_bert/encoder/layer_10/ffn_layer_1/intermediate/dense/kernel" {noinline} = dense<9.99999974E-5> : tensor<128x512xf32>
  util.global private @"__iree_flow_bert/encoder/layer_10/ffn_layer_1/output/FakeLayerNorm/beta" = dense<1.000000e+00> : tensor<128xf32>
  util.global private @"__iree_flow_bert/encoder/layer_10/ffn_layer_1/output/FakeLayerNorm/gamma" = dense<4.000000e-01> : tensor<128xf32>
  util.global private @"__iree_flow_bert/encoder/layer_10/ffn_layer_1/output/dense/bias" = dense<1.000000e-01> : tensor<128xf32>
  util.global private @"__iree_flow_bert/encoder/layer_10/ffn_layer_1/output/dense/kernel" {noinline} = dense<9.99999974E-5> : tensor<512x128xf32>
  util.global private @"__iree_flow_bert/encoder/layer_10/ffn_layer_2/intermediate/dense/bias" = dense<1.000000e-01> : tensor<512xf32>
  util.global private @"__iree_flow_bert/encoder/layer_10/ffn_layer_2/intermediate/dense/kernel" {noinline} = dense<9.99999974E-5> : tensor<128x512xf32>
  util.global private @"__iree_flow_bert/encoder/layer_10/ffn_layer_2/output/FakeLayerNorm/beta" = dense<1.000000e+00> : tensor<128xf32>
  util.global private @"__iree_flow_bert/encoder/layer_10/ffn_layer_2/output/FakeLayerNorm/gamma" = dense<4.000000e-01> : tensor<128xf32>
  util.global private @"__iree_flow_bert/encoder/layer_10/ffn_layer_2/output/dense/bias" = dense<1.000000e-01> : tensor<128xf32>
  util.global private @"__iree_flow_bert/encoder/layer_10/ffn_layer_2/output/dense/kernel" {noinline} = dense<9.99999974E-5> : tensor<512x128xf32>
  util.global private @"__iree_flow_bert/encoder/layer_10/intermediate/dense/bias" = dense<1.000000e-01> : tensor<512xf32>
  util.global private @"__iree_flow_bert/encoder/layer_10/intermediate/dense/kernel" {noinline} = dense<9.99999974E-5> : tensor<128x512xf32>
  util.global private @"__iree_flow_bert/encoder/layer_10/output/FakeLayerNorm/beta" = dense<1.000000e+00> : tensor<128xf32>
  util.global private @"__iree_flow_bert/encoder/layer_10/output/FakeLayerNorm/gamma" = dense<4.000000e-01> : tensor<128xf32>
  util.global private @"__iree_flow_bert/encoder/layer_10/output/bottleneck/FakeLayerNorm/beta" = dense<1.000000e+00> : tensor<512xf32>
  util.global private @"__iree_flow_bert/encoder/layer_10/output/bottleneck/FakeLayerNorm/gamma" = dense<4.000000e-01> : tensor<512xf32>
  util.global private @"__iree_flow_bert/encoder/layer_10/output/bottleneck/dense/bias" = dense<1.000000e-01> : tensor<512xf32>
  util.global private @"__iree_flow_bert/encoder/layer_10/output/bottleneck/dense/kernel" {noinline} = dense<9.99999974E-5> : tensor<128x512xf32>
  util.global private @"__iree_flow_bert/encoder/layer_10/output/dense/bias" = dense<1.000000e-01> : tensor<128xf32>
  util.global private @"__iree_flow_bert/encoder/layer_10/output/dense/kernel" {noinline} = dense<9.99999974E-5> : tensor<512x128xf32>
  util.global private @"__iree_flow_bert/encoder/layer_11/attention/output/FakeLayerNorm/beta" = dense<1.000000e+00> : tensor<128xf32>
  util.global private @"__iree_flow_bert/encoder/layer_11/attention/output/FakeLayerNorm/gamma" = dense<4.000000e-01> : tensor<128xf32>
  util.global private @"__iree_flow_bert/encoder/layer_11/attention/output/dense/bias" = dense<1.000000e-01> : tensor<128xf32>
  util.global private @"__iree_flow_bert/encoder/layer_11/attention/output/dense/kernel" {noinline} = dense<9.99999974E-5> : tensor<128x128xf32>
  util.global private @"__iree_flow_bert/encoder/layer_11/attention/self/key/bias" = dense<1.000000e-01> : tensor<128xf32>
  util.global private @"__iree_flow_bert/encoder/layer_11/attention/self/key/kernel" {noinline} = dense<9.99999974E-5> : tensor<128x128xf32>
  util.global private @"__iree_flow_bert/encoder/layer_11/attention/self/query/bias" = dense<1.000000e-01> : tensor<128xf32>
  util.global private @"__iree_flow_bert/encoder/layer_11/attention/self/query/kernel" {noinline} = dense<9.99999974E-5> : tensor<128x128xf32>
  util.global private @"__iree_flow_bert/encoder/layer_11/attention/self/value/bias" = dense<1.000000e-01> : tensor<128xf32>
  util.global private @"__iree_flow_bert/encoder/layer_11/attention/self/value/kernel" {noinline} = dense<9.99999974E-5> : tensor<512x128xf32>
  util.global private @"__iree_flow_bert/encoder/layer_11/bottleneck/attention/FakeLayerNorm/beta" = dense<1.000000e+00> : tensor<128xf32>
  util.global private @"__iree_flow_bert/encoder/layer_11/bottleneck/attention/FakeLayerNorm/gamma" = dense<4.000000e-01> : tensor<128xf32>
  util.global private @"__iree_flow_bert/encoder/layer_11/bottleneck/attention/dense/bias" = dense<1.000000e-01> : tensor<128xf32>
  util.global private @"__iree_flow_bert/encoder/layer_11/bottleneck/attention/dense/kernel" {noinline} = dense<9.99999974E-5> : tensor<512x128xf32>
  util.global private @"__iree_flow_bert/encoder/layer_11/bottleneck/input/FakeLayerNorm/beta" = dense<1.000000e+00> : tensor<128xf32>
  util.global private @"__iree_flow_bert/encoder/layer_11/bottleneck/input/FakeLayerNorm/gamma" = dense<4.000000e-01> : tensor<128xf32>
  util.global private @"__iree_flow_bert/encoder/layer_11/bottleneck/input/dense/bias" = dense<1.000000e-01> : tensor<128xf32>
  util.global private @"__iree_flow_bert/encoder/layer_11/bottleneck/input/dense/kernel" {noinline} = dense<9.99999974E-5> : tensor<512x128xf32>
  util.global private @"__iree_flow_bert/encoder/layer_11/ffn_layer_0/intermediate/dense/bias" = dense<1.000000e-01> : tensor<512xf32>
  util.global private @"__iree_flow_bert/encoder/layer_11/ffn_layer_0/intermediate/dense/kernel" {noinline} = dense<9.99999974E-5> : tensor<128x512xf32>
  util.global private @"__iree_flow_bert/encoder/layer_11/ffn_layer_0/output/FakeLayerNorm/beta" = dense<1.000000e+00> : tensor<128xf32>
  util.global private @"__iree_flow_bert/encoder/layer_11/ffn_layer_0/output/FakeLayerNorm/gamma" = dense<4.000000e-01> : tensor<128xf32>
  util.global private @"__iree_flow_bert/encoder/layer_11/ffn_layer_0/output/dense/bias" = dense<1.000000e-01> : tensor<128xf32>
  util.global private @"__iree_flow_bert/encoder/layer_11/ffn_layer_0/output/dense/kernel" {noinline} = dense<9.99999974E-5> : tensor<512x128xf32>
  util.global private @"__iree_flow_bert/encoder/layer_11/ffn_layer_1/intermediate/dense/bias" = dense<1.000000e-01> : tensor<512xf32>
  util.global private @"__iree_flow_bert/encoder/layer_11/ffn_layer_1/intermediate/dense/kernel" {noinline} = dense<9.99999974E-5> : tensor<128x512xf32>
  util.global private @"__iree_flow_bert/encoder/layer_11/ffn_layer_1/output/FakeLayerNorm/beta" = dense<1.000000e+00> : tensor<128xf32>
  util.global private @"__iree_flow_bert/encoder/layer_11/ffn_layer_1/output/FakeLayerNorm/gamma" = dense<4.000000e-01> : tensor<128xf32>
  util.global private @"__iree_flow_bert/encoder/layer_11/ffn_layer_1/output/dense/bias" = dense<1.000000e-01> : tensor<128xf32>
  util.global private @"__iree_flow_bert/encoder/layer_11/ffn_layer_1/output/dense/kernel" {noinline} = dense<9.99999974E-5> : tensor<512x128xf32>
  util.global private @"__iree_flow_bert/encoder/layer_11/ffn_layer_2/intermediate/dense/bias" = dense<1.000000e-01> : tensor<512xf32>
  util.global private @"__iree_flow_bert/encoder/layer_11/ffn_layer_2/intermediate/dense/kernel" {noinline} = dense<9.99999974E-5> : tensor<128x512xf32>
  util.global private @"__iree_flow_bert/encoder/layer_11/ffn_layer_2/output/FakeLayerNorm/beta" = dense<1.000000e+00> : tensor<128xf32>
  util.global private @"__iree_flow_bert/encoder/layer_11/ffn_layer_2/output/FakeLayerNorm/gamma" = dense<4.000000e-01> : tensor<128xf32>
  util.global private @"__iree_flow_bert/encoder/layer_11/ffn_layer_2/output/dense/bias" = dense<1.000000e-01> : tensor<128xf32>
  util.global private @"__iree_flow_bert/encoder/layer_11/ffn_layer_2/output/dense/kernel" {noinline} = dense<9.99999974E-5> : tensor<512x128xf32>
  util.global private @"__iree_flow_bert/encoder/layer_11/intermediate/dense/bias" = dense<1.000000e-01> : tensor<512xf32>
  util.global private @"__iree_flow_bert/encoder/layer_11/intermediate/dense/kernel" {noinline} = dense<9.99999974E-5> : tensor<128x512xf32>
  util.global private @"__iree_flow_bert/encoder/layer_11/output/FakeLayerNorm/beta" = dense<1.000000e+00> : tensor<128xf32>
  util.global private @"__iree_flow_bert/encoder/layer_11/output/FakeLayerNorm/gamma" = dense<4.000000e-01> : tensor<128xf32>
  util.global private @"__iree_flow_bert/encoder/layer_11/output/bottleneck/FakeLayerNorm/beta" = dense<1.000000e+00> : tensor<512xf32>
  util.global private @"__iree_flow_bert/encoder/layer_11/output/bottleneck/FakeLayerNorm/gamma" = dense<4.000000e-01> : tensor<512xf32>
  util.global private @"__iree_flow_bert/encoder/layer_11/output/bottleneck/dense/bias" = dense<1.000000e-01> : tensor<512xf32>
  util.global private @"__iree_flow_bert/encoder/layer_11/output/bottleneck/dense/kernel" {noinline} = dense<9.99999974E-5> : tensor<128x512xf32>
  util.global private @"__iree_flow_bert/encoder/layer_11/output/dense/bias" = dense<1.000000e-01> : tensor<128xf32>
  util.global private @"__iree_flow_bert/encoder/layer_11/output/dense/kernel" {noinline} = dense<9.99999974E-5> : tensor<512x128xf32>
  util.global private @"__iree_flow_bert/encoder/layer_12/attention/output/FakeLayerNorm/beta" = dense<1.000000e+00> : tensor<128xf32>
  util.global private @"__iree_flow_bert/encoder/layer_12/attention/output/FakeLayerNorm/gamma" = dense<4.000000e-01> : tensor<128xf32>
  util.global private @"__iree_flow_bert/encoder/layer_12/attention/output/dense/bias" = dense<1.000000e-01> : tensor<128xf32>
  util.global private @"__iree_flow_bert/encoder/layer_12/attention/output/dense/kernel" {noinline} = dense<9.99999974E-5> : tensor<128x128xf32>
  util.global private @"__iree_flow_bert/encoder/layer_12/attention/self/key/bias" = dense<1.000000e-01> : tensor<128xf32>
  util.global private @"__iree_flow_bert/encoder/layer_12/attention/self/key/kernel" {noinline} = dense<9.99999974E-5> : tensor<128x128xf32>
  util.global private @"__iree_flow_bert/encoder/layer_12/attention/self/query/bias" = dense<1.000000e-01> : tensor<128xf32>
  util.global private @"__iree_flow_bert/encoder/layer_12/attention/self/query/kernel" {noinline} = dense<9.99999974E-5> : tensor<128x128xf32>
  util.global private @"__iree_flow_bert/encoder/layer_12/attention/self/value/bias" = dense<1.000000e-01> : tensor<128xf32>
  util.global private @"__iree_flow_bert/encoder/layer_12/attention/self/value/kernel" {noinline} = dense<9.99999974E-5> : tensor<512x128xf32>
  util.global private @"__iree_flow_bert/encoder/layer_12/bottleneck/attention/FakeLayerNorm/beta" = dense<1.000000e+00> : tensor<128xf32>
  util.global private @"__iree_flow_bert/encoder/layer_12/bottleneck/attention/FakeLayerNorm/gamma" = dense<4.000000e-01> : tensor<128xf32>
  util.global private @"__iree_flow_bert/encoder/layer_12/bottleneck/attention/dense/bias" = dense<1.000000e-01> : tensor<128xf32>
  util.global private @"__iree_flow_bert/encoder/layer_12/bottleneck/attention/dense/kernel" {noinline} = dense<9.99999974E-5> : tensor<512x128xf32>
  util.global private @"__iree_flow_bert/encoder/layer_12/bottleneck/input/FakeLayerNorm/beta" = dense<1.000000e+00> : tensor<128xf32>
  util.global private @"__iree_flow_bert/encoder/layer_12/bottleneck/input/FakeLayerNorm/gamma" = dense<4.000000e-01> : tensor<128xf32>
  util.global private @"__iree_flow_bert/encoder/layer_12/bottleneck/input/dense/bias" = dense<1.000000e-01> : tensor<128xf32>
  util.global private @"__iree_flow_bert/encoder/layer_12/bottleneck/input/dense/kernel" {noinline} = dense<9.99999974E-5> : tensor<512x128xf32>
  util.global private @"__iree_flow_bert/encoder/layer_12/ffn_layer_0/intermediate/dense/bias" = dense<1.000000e-01> : tensor<512xf32>
  util.global private @"__iree_flow_bert/encoder/layer_12/ffn_layer_0/intermediate/dense/kernel" {noinline} = dense<9.99999974E-5> : tensor<128x512xf32>
  util.global private @"__iree_flow_bert/encoder/layer_12/ffn_layer_0/output/FakeLayerNorm/beta" = dense<1.000000e+00> : tensor<128xf32>
  util.global private @"__iree_flow_bert/encoder/layer_12/ffn_layer_0/output/FakeLayerNorm/gamma" = dense<4.000000e-01> : tensor<128xf32>
  util.global private @"__iree_flow_bert/encoder/layer_12/ffn_layer_0/output/dense/bias" = dense<1.000000e-01> : tensor<128xf32>
  util.global private @"__iree_flow_bert/encoder/layer_12/ffn_layer_0/output/dense/kernel" {noinline} = dense<9.99999974E-5> : tensor<512x128xf32>
  util.global private @"__iree_flow_bert/encoder/layer_12/ffn_layer_1/intermediate/dense/bias" = dense<1.000000e-01> : tensor<512xf32>
  util.global private @"__iree_flow_bert/encoder/layer_12/ffn_layer_1/intermediate/dense/kernel" {noinline} = dense<9.99999974E-5> : tensor<128x512xf32>
  util.global private @"__iree_flow_bert/encoder/layer_12/ffn_layer_1/output/FakeLayerNorm/beta" = dense<1.000000e+00> : tensor<128xf32>
  util.global private @"__iree_flow_bert/encoder/layer_12/ffn_layer_1/output/FakeLayerNorm/gamma" = dense<4.000000e-01> : tensor<128xf32>
  util.global private @"__iree_flow_bert/encoder/layer_12/ffn_layer_1/output/dense/bias" = dense<1.000000e-01> : tensor<128xf32>
  util.global private @"__iree_flow_bert/encoder/layer_12/ffn_layer_1/output/dense/kernel" {noinline} = dense<9.99999974E-5> : tensor<512x128xf32>
  util.global private @"__iree_flow_bert/encoder/layer_12/ffn_layer_2/intermediate/dense/bias" = dense<1.000000e-01> : tensor<512xf32>
  util.global private @"__iree_flow_bert/encoder/layer_12/ffn_layer_2/intermediate/dense/kernel" {noinline} = dense<9.99999974E-5> : tensor<128x512xf32>
  util.global private @"__iree_flow_bert/encoder/layer_12/ffn_layer_2/output/FakeLayerNorm/beta" = dense<1.000000e+00> : tensor<128xf32>
  util.global private @"__iree_flow_bert/encoder/layer_12/ffn_layer_2/output/FakeLayerNorm/gamma" = dense<4.000000e-01> : tensor<128xf32>
  util.global private @"__iree_flow_bert/encoder/layer_12/ffn_layer_2/output/dense/bias" = dense<1.000000e-01> : tensor<128xf32>
  util.global private @"__iree_flow_bert/encoder/layer_12/ffn_layer_2/output/dense/kernel" {noinline} = dense<9.99999974E-5> : tensor<512x128xf32>
  util.global private @"__iree_flow_bert/encoder/layer_12/intermediate/dense/bias" = dense<1.000000e-01> : tensor<512xf32>
  util.global private @"__iree_flow_bert/encoder/layer_12/intermediate/dense/kernel" {noinline} = dense<9.99999974E-5> : tensor<128x512xf32>
  util.global private @"__iree_flow_bert/encoder/layer_12/output/FakeLayerNorm/beta" = dense<1.000000e+00> : tensor<128xf32>
  util.global private @"__iree_flow_bert/encoder/layer_12/output/FakeLayerNorm/gamma" = dense<4.000000e-01> : tensor<128xf32>
  util.global private @"__iree_flow_bert/encoder/layer_12/output/bottleneck/FakeLayerNorm/beta" = dense<1.000000e+00> : tensor<512xf32>
  util.global private @"__iree_flow_bert/encoder/layer_12/output/bottleneck/FakeLayerNorm/gamma" = dense<4.000000e-01> : tensor<512xf32>
  util.global private @"__iree_flow_bert/encoder/layer_12/output/bottleneck/dense/bias" = dense<1.000000e-01> : tensor<512xf32>
  util.global private @"__iree_flow_bert/encoder/layer_12/output/bottleneck/dense/kernel" {noinline} = dense<9.99999974E-5> : tensor<128x512xf32>
  util.global private @"__iree_flow_bert/encoder/layer_12/output/dense/bias" = dense<1.000000e-01> : tensor<128xf32>
  util.global private @"__iree_flow_bert/encoder/layer_12/output/dense/kernel" {noinline} = dense<9.99999974E-5> : tensor<512x128xf32>
  util.global private @"__iree_flow_bert/encoder/layer_13/attention/output/FakeLayerNorm/beta" = dense<1.000000e+00> : tensor<128xf32>
  util.global private @"__iree_flow_bert/encoder/layer_13/attention/output/FakeLayerNorm/gamma" = dense<4.000000e-01> : tensor<128xf32>
  util.global private @"__iree_flow_bert/encoder/layer_13/attention/output/dense/bias" = dense<1.000000e-01> : tensor<128xf32>
  util.global private @"__iree_flow_bert/encoder/layer_13/attention/output/dense/kernel" {noinline} = dense<9.99999974E-5> : tensor<128x128xf32>
  util.global private @"__iree_flow_bert/encoder/layer_13/attention/self/key/bias" = dense<1.000000e-01> : tensor<128xf32>
  util.global private @"__iree_flow_bert/encoder/layer_13/attention/self/key/kernel" {noinline} = dense<9.99999974E-5> : tensor<128x128xf32>
  util.global private @"__iree_flow_bert/encoder/layer_13/attention/self/query/bias" = dense<1.000000e-01> : tensor<128xf32>
  util.global private @"__iree_flow_bert/encoder/layer_13/attention/self/query/kernel" {noinline} = dense<9.99999974E-5> : tensor<128x128xf32>
  util.global private @"__iree_flow_bert/encoder/layer_13/attention/self/value/bias" = dense<1.000000e-01> : tensor<128xf32>
  util.global private @"__iree_flow_bert/encoder/layer_13/attention/self/value/kernel" {noinline} = dense<9.99999974E-5> : tensor<512x128xf32>
  util.global private @"__iree_flow_bert/encoder/layer_13/bottleneck/attention/FakeLayerNorm/beta" = dense<1.000000e+00> : tensor<128xf32>
  util.global private @"__iree_flow_bert/encoder/layer_13/bottleneck/attention/FakeLayerNorm/gamma" = dense<4.000000e-01> : tensor<128xf32>
  util.global private @"__iree_flow_bert/encoder/layer_13/bottleneck/attention/dense/bias" = dense<1.000000e-01> : tensor<128xf32>
  util.global private @"__iree_flow_bert/encoder/layer_13/bottleneck/attention/dense/kernel" {noinline} = dense<9.99999974E-5> : tensor<512x128xf32>
  util.global private @"__iree_flow_bert/encoder/layer_13/bottleneck/input/FakeLayerNorm/beta" = dense<1.000000e+00> : tensor<128xf32>
  util.global private @"__iree_flow_bert/encoder/layer_13/bottleneck/input/FakeLayerNorm/gamma" = dense<4.000000e-01> : tensor<128xf32>
  util.global private @"__iree_flow_bert/encoder/layer_13/bottleneck/input/dense/bias" = dense<1.000000e-01> : tensor<128xf32>
  util.global private @"__iree_flow_bert/encoder/layer_13/bottleneck/input/dense/kernel" {noinline} = dense<9.99999974E-5> : tensor<512x128xf32>
  util.global private @"__iree_flow_bert/encoder/layer_13/ffn_layer_0/intermediate/dense/bias" = dense<1.000000e-01> : tensor<512xf32>
  util.global private @"__iree_flow_bert/encoder/layer_13/ffn_layer_0/intermediate/dense/kernel" {noinline} = dense<9.99999974E-5> : tensor<128x512xf32>
  util.global private @"__iree_flow_bert/encoder/layer_13/ffn_layer_0/output/FakeLayerNorm/beta" = dense<1.000000e+00> : tensor<128xf32>
  util.global private @"__iree_flow_bert/encoder/layer_13/ffn_layer_0/output/FakeLayerNorm/gamma" = dense<4.000000e-01> : tensor<128xf32>
  util.global private @"__iree_flow_bert/encoder/layer_13/ffn_layer_0/output/dense/bias" = dense<1.000000e-01> : tensor<128xf32>
  util.global private @"__iree_flow_bert/encoder/layer_13/ffn_layer_0/output/dense/kernel" {noinline} = dense<9.99999974E-5> : tensor<512x128xf32>
  util.global private @"__iree_flow_bert/encoder/layer_13/ffn_layer_1/intermediate/dense/bias" = dense<1.000000e-01> : tensor<512xf32>
  util.global private @"__iree_flow_bert/encoder/layer_13/ffn_layer_1/intermediate/dense/kernel" {noinline} = dense<9.99999974E-5> : tensor<128x512xf32>
  util.global private @"__iree_flow_bert/encoder/layer_13/ffn_layer_1/output/FakeLayerNorm/beta" = dense<1.000000e+00> : tensor<128xf32>
  util.global private @"__iree_flow_bert/encoder/layer_13/ffn_layer_1/output/FakeLayerNorm/gamma" = dense<4.000000e-01> : tensor<128xf32>
  util.global private @"__iree_flow_bert/encoder/layer_13/ffn_layer_1/output/dense/bias" = dense<1.000000e-01> : tensor<128xf32>
  util.global private @"__iree_flow_bert/encoder/layer_13/ffn_layer_1/output/dense/kernel" {noinline} = dense<9.99999974E-5> : tensor<512x128xf32>
  util.global private @"__iree_flow_bert/encoder/layer_13/ffn_layer_2/intermediate/dense/bias" = dense<1.000000e-01> : tensor<512xf32>
  util.global private @"__iree_flow_bert/encoder/layer_13/ffn_layer_2/intermediate/dense/kernel" {noinline} = dense<9.99999974E-5> : tensor<128x512xf32>
  util.global private @"__iree_flow_bert/encoder/layer_13/ffn_layer_2/output/FakeLayerNorm/beta" = dense<1.000000e+00> : tensor<128xf32>
  util.global private @"__iree_flow_bert/encoder/layer_13/ffn_layer_2/output/FakeLayerNorm/gamma" = dense<4.000000e-01> : tensor<128xf32>
  util.global private @"__iree_flow_bert/encoder/layer_13/ffn_layer_2/output/dense/bias" = dense<1.000000e-01> : tensor<128xf32>
  util.global private @"__iree_flow_bert/encoder/layer_13/ffn_layer_2/output/dense/kernel" {noinline} = dense<9.99999974E-5> : tensor<512x128xf32>
  util.global private @"__iree_flow_bert/encoder/layer_13/intermediate/dense/bias" = dense<1.000000e-01> : tensor<512xf32>
  util.global private @"__iree_flow_bert/encoder/layer_13/intermediate/dense/kernel" {noinline} = dense<9.99999974E-5> : tensor<128x512xf32>
  util.global private @"__iree_flow_bert/encoder/layer_13/output/FakeLayerNorm/beta" = dense<1.000000e+00> : tensor<128xf32>
  util.global private @"__iree_flow_bert/encoder/layer_13/output/FakeLayerNorm/gamma" = dense<4.000000e-01> : tensor<128xf32>
  util.global private @"__iree_flow_bert/encoder/layer_13/output/bottleneck/FakeLayerNorm/beta" = dense<1.000000e+00> : tensor<512xf32>
  util.global private @"__iree_flow_bert/encoder/layer_13/output/bottleneck/FakeLayerNorm/gamma" = dense<4.000000e-01> : tensor<512xf32>
  util.global private @"__iree_flow_bert/encoder/layer_13/output/bottleneck/dense/bias" = dense<1.000000e-01> : tensor<512xf32>
  util.global private @"__iree_flow_bert/encoder/layer_13/output/bottleneck/dense/kernel" {noinline} = dense<9.99999974E-5> : tensor<128x512xf32>
  util.global private @"__iree_flow_bert/encoder/layer_13/output/dense/bias" = dense<1.000000e-01> : tensor<128xf32>
  util.global private @"__iree_flow_bert/encoder/layer_13/output/dense/kernel" {noinline} = dense<9.99999974E-5> : tensor<512x128xf32>
  util.global private @"__iree_flow_bert/encoder/layer_14/attention/output/FakeLayerNorm/beta" = dense<1.000000e+00> : tensor<128xf32>
  util.global private @"__iree_flow_bert/encoder/layer_14/attention/output/FakeLayerNorm/gamma" = dense<4.000000e-01> : tensor<128xf32>
  util.global private @"__iree_flow_bert/encoder/layer_14/attention/output/dense/bias" = dense<1.000000e-01> : tensor<128xf32>
  util.global private @"__iree_flow_bert/encoder/layer_14/attention/output/dense/kernel" {noinline} = dense<9.99999974E-5> : tensor<128x128xf32>
  util.global private @"__iree_flow_bert/encoder/layer_14/attention/self/key/bias" = dense<1.000000e-01> : tensor<128xf32>
  util.global private @"__iree_flow_bert/encoder/layer_14/attention/self/key/kernel" {noinline} = dense<9.99999974E-5> : tensor<128x128xf32>
  util.global private @"__iree_flow_bert/encoder/layer_14/attention/self/query/bias" = dense<1.000000e-01> : tensor<128xf32>
  util.global private @"__iree_flow_bert/encoder/layer_14/attention/self/query/kernel" {noinline} = dense<9.99999974E-5> : tensor<128x128xf32>
  util.global private @"__iree_flow_bert/encoder/layer_14/attention/self/value/bias" = dense<1.000000e-01> : tensor<128xf32>
  util.global private @"__iree_flow_bert/encoder/layer_14/attention/self/value/kernel" {noinline} = dense<9.99999974E-5> : tensor<512x128xf32>
  util.global private @"__iree_flow_bert/encoder/layer_14/bottleneck/attention/FakeLayerNorm/beta" = dense<1.000000e+00> : tensor<128xf32>
  util.global private @"__iree_flow_bert/encoder/layer_14/bottleneck/attention/FakeLayerNorm/gamma" = dense<4.000000e-01> : tensor<128xf32>
  util.global private @"__iree_flow_bert/encoder/layer_14/bottleneck/attention/dense/bias" = dense<1.000000e-01> : tensor<128xf32>
  util.global private @"__iree_flow_bert/encoder/layer_14/bottleneck/attention/dense/kernel" {noinline} = dense<9.99999974E-5> : tensor<512x128xf32>
  util.global private @"__iree_flow_bert/encoder/layer_14/bottleneck/input/FakeLayerNorm/beta" = dense<1.000000e+00> : tensor<128xf32>
  util.global private @"__iree_flow_bert/encoder/layer_14/bottleneck/input/FakeLayerNorm/gamma" = dense<4.000000e-01> : tensor<128xf32>
  util.global private @"__iree_flow_bert/encoder/layer_14/bottleneck/input/dense/bias" = dense<1.000000e-01> : tensor<128xf32>
  util.global private @"__iree_flow_bert/encoder/layer_14/bottleneck/input/dense/kernel" {noinline} = dense<9.99999974E-5> : tensor<512x128xf32>
  util.global private @"__iree_flow_bert/encoder/layer_14/ffn_layer_0/intermediate/dense/bias" = dense<1.000000e-01> : tensor<512xf32>
  util.global private @"__iree_flow_bert/encoder/layer_14/ffn_layer_0/intermediate/dense/kernel" {noinline} = dense<9.99999974E-5> : tensor<128x512xf32>
  util.global private @"__iree_flow_bert/encoder/layer_14/ffn_layer_0/output/FakeLayerNorm/beta" = dense<1.000000e+00> : tensor<128xf32>
  util.global private @"__iree_flow_bert/encoder/layer_14/ffn_layer_0/output/FakeLayerNorm/gamma" = dense<4.000000e-01> : tensor<128xf32>
  util.global private @"__iree_flow_bert/encoder/layer_14/ffn_layer_0/output/dense/bias" = dense<1.000000e-01> : tensor<128xf32>
  util.global private @"__iree_flow_bert/encoder/layer_14/ffn_layer_0/output/dense/kernel" {noinline} = dense<9.99999974E-5> : tensor<512x128xf32>
  util.global private @"__iree_flow_bert/encoder/layer_14/ffn_layer_1/intermediate/dense/bias" = dense<1.000000e-01> : tensor<512xf32>
  util.global private @"__iree_flow_bert/encoder/layer_14/ffn_layer_1/intermediate/dense/kernel" {noinline} = dense<9.99999974E-5> : tensor<128x512xf32>
  util.global private @"__iree_flow_bert/encoder/layer_14/ffn_layer_1/output/FakeLayerNorm/beta" = dense<1.000000e+00> : tensor<128xf32>
  util.global private @"__iree_flow_bert/encoder/layer_14/ffn_layer_1/output/FakeLayerNorm/gamma" = dense<4.000000e-01> : tensor<128xf32>
  util.global private @"__iree_flow_bert/encoder/layer_14/ffn_layer_1/output/dense/bias" = dense<1.000000e-01> : tensor<128xf32>
  util.global private @"__iree_flow_bert/encoder/layer_14/ffn_layer_1/output/dense/kernel" {noinline} = dense<9.99999974E-5> : tensor<512x128xf32>
  util.global private @"__iree_flow_bert/encoder/layer_14/ffn_layer_2/intermediate/dense/bias" = dense<1.000000e-01> : tensor<512xf32>
  util.global private @"__iree_flow_bert/encoder/layer_14/ffn_layer_2/intermediate/dense/kernel" {noinline} = dense<9.99999974E-5> : tensor<128x512xf32>
  util.global private @"__iree_flow_bert/encoder/layer_14/ffn_layer_2/output/FakeLayerNorm/beta" = dense<1.000000e+00> : tensor<128xf32>
  util.global private @"__iree_flow_bert/encoder/layer_14/ffn_layer_2/output/FakeLayerNorm/gamma" = dense<4.000000e-01> : tensor<128xf32>
  util.global private @"__iree_flow_bert/encoder/layer_14/ffn_layer_2/output/dense/bias" = dense<1.000000e-01> : tensor<128xf32>
  util.global private @"__iree_flow_bert/encoder/layer_14/ffn_layer_2/output/dense/kernel" {noinline} = dense<9.99999974E-5> : tensor<512x128xf32>
  util.global private @"__iree_flow_bert/encoder/layer_14/intermediate/dense/bias" = dense<1.000000e-01> : tensor<512xf32>
  util.global private @"__iree_flow_bert/encoder/layer_14/intermediate/dense/kernel" {noinline} = dense<9.99999974E-5> : tensor<128x512xf32>
  util.global private @"__iree_flow_bert/encoder/layer_14/output/FakeLayerNorm/beta" = dense<1.000000e+00> : tensor<128xf32>
  util.global private @"__iree_flow_bert/encoder/layer_14/output/FakeLayerNorm/gamma" = dense<4.000000e-01> : tensor<128xf32>
  util.global private @"__iree_flow_bert/encoder/layer_14/output/bottleneck/FakeLayerNorm/beta" = dense<1.000000e+00> : tensor<512xf32>
  util.global private @"__iree_flow_bert/encoder/layer_14/output/bottleneck/FakeLayerNorm/gamma" = dense<4.000000e-01> : tensor<512xf32>
  util.global private @"__iree_flow_bert/encoder/layer_14/output/bottleneck/dense/bias" = dense<1.000000e-01> : tensor<512xf32>
  util.global private @"__iree_flow_bert/encoder/layer_14/output/bottleneck/dense/kernel" {noinline} = dense<9.99999974E-5> : tensor<128x512xf32>
  util.global private @"__iree_flow_bert/encoder/layer_14/output/dense/bias" = dense<1.000000e-01> : tensor<128xf32>
  util.global private @"__iree_flow_bert/encoder/layer_14/output/dense/kernel" {noinline} = dense<9.99999974E-5> : tensor<512x128xf32>
  util.global private @"__iree_flow_bert/encoder/layer_15/attention/output/FakeLayerNorm/beta" = dense<1.000000e+00> : tensor<128xf32>
  util.global private @"__iree_flow_bert/encoder/layer_15/attention/output/FakeLayerNorm/gamma" = dense<4.000000e-01> : tensor<128xf32>
  util.global private @"__iree_flow_bert/encoder/layer_15/attention/output/dense/bias" = dense<1.000000e-01> : tensor<128xf32>
  util.global private @"__iree_flow_bert/encoder/layer_15/attention/output/dense/kernel" {noinline} = dense<9.99999974E-5> : tensor<128x128xf32>
  util.global private @"__iree_flow_bert/encoder/layer_15/attention/self/key/bias" = dense<1.000000e-01> : tensor<128xf32>
  util.global private @"__iree_flow_bert/encoder/layer_15/attention/self/key/kernel" {noinline} = dense<9.99999974E-5> : tensor<128x128xf32>
  util.global private @"__iree_flow_bert/encoder/layer_15/attention/self/query/bias" = dense<1.000000e-01> : tensor<128xf32>
  util.global private @"__iree_flow_bert/encoder/layer_15/attention/self/query/kernel" {noinline} = dense<9.99999974E-5> : tensor<128x128xf32>
  util.global private @"__iree_flow_bert/encoder/layer_15/attention/self/value/bias" = dense<1.000000e-01> : tensor<128xf32>
  util.global private @"__iree_flow_bert/encoder/layer_15/attention/self/value/kernel" {noinline} = dense<9.99999974E-5> : tensor<512x128xf32>
  util.global private @"__iree_flow_bert/encoder/layer_15/bottleneck/attention/FakeLayerNorm/beta" = dense<1.000000e+00> : tensor<128xf32>
  util.global private @"__iree_flow_bert/encoder/layer_15/bottleneck/attention/FakeLayerNorm/gamma" = dense<4.000000e-01> : tensor<128xf32>
  util.global private @"__iree_flow_bert/encoder/layer_15/bottleneck/attention/dense/bias" = dense<1.000000e-01> : tensor<128xf32>
  util.global private @"__iree_flow_bert/encoder/layer_15/bottleneck/attention/dense/kernel" {noinline} = dense<9.99999974E-5> : tensor<512x128xf32>
  util.global private @"__iree_flow_bert/encoder/layer_15/bottleneck/input/FakeLayerNorm/beta" = dense<1.000000e+00> : tensor<128xf32>
  util.global private @"__iree_flow_bert/encoder/layer_15/bottleneck/input/FakeLayerNorm/gamma" = dense<4.000000e-01> : tensor<128xf32>
  util.global private @"__iree_flow_bert/encoder/layer_15/bottleneck/input/dense/bias" = dense<1.000000e-01> : tensor<128xf32>
  util.global private @"__iree_flow_bert/encoder/layer_15/bottleneck/input/dense/kernel" {noinline} = dense<9.99999974E-5> : tensor<512x128xf32>
  util.global private @"__iree_flow_bert/encoder/layer_15/ffn_layer_0/intermediate/dense/bias" = dense<1.000000e-01> : tensor<512xf32>
  util.global private @"__iree_flow_bert/encoder/layer_15/ffn_layer_0/intermediate/dense/kernel" {noinline} = dense<9.99999974E-5> : tensor<128x512xf32>
  util.global private @"__iree_flow_bert/encoder/layer_15/ffn_layer_0/output/FakeLayerNorm/beta" = dense<1.000000e+00> : tensor<128xf32>
  util.global private @"__iree_flow_bert/encoder/layer_15/ffn_layer_0/output/FakeLayerNorm/gamma" = dense<4.000000e-01> : tensor<128xf32>
  util.global private @"__iree_flow_bert/encoder/layer_15/ffn_layer_0/output/dense/bias" = dense<1.000000e-01> : tensor<128xf32>
  util.global private @"__iree_flow_bert/encoder/layer_15/ffn_layer_0/output/dense/kernel" {noinline} = dense<9.99999974E-5> : tensor<512x128xf32>
  util.global private @"__iree_flow_bert/encoder/layer_15/ffn_layer_1/intermediate/dense/bias" = dense<1.000000e-01> : tensor<512xf32>
  util.global private @"__iree_flow_bert/encoder/layer_15/ffn_layer_1/intermediate/dense/kernel" {noinline} = dense<9.99999974E-5> : tensor<128x512xf32>
  util.global private @"__iree_flow_bert/encoder/layer_15/ffn_layer_1/output/FakeLayerNorm/beta" = dense<1.000000e+00> : tensor<128xf32>
  util.global private @"__iree_flow_bert/encoder/layer_15/ffn_layer_1/output/FakeLayerNorm/gamma" = dense<4.000000e-01> : tensor<128xf32>
  util.global private @"__iree_flow_bert/encoder/layer_15/ffn_layer_1/output/dense/bias" = dense<1.000000e-01> : tensor<128xf32>
  util.global private @"__iree_flow_bert/encoder/layer_15/ffn_layer_1/output/dense/kernel" {noinline} = dense<9.99999974E-5> : tensor<512x128xf32>
  util.global private @"__iree_flow_bert/encoder/layer_15/ffn_layer_2/intermediate/dense/bias" = dense<1.000000e-01> : tensor<512xf32>
  util.global private @"__iree_flow_bert/encoder/layer_15/ffn_layer_2/intermediate/dense/kernel" {noinline} = dense<9.99999974E-5> : tensor<128x512xf32>
  util.global private @"__iree_flow_bert/encoder/layer_15/ffn_layer_2/output/FakeLayerNorm/beta" = dense<1.000000e+00> : tensor<128xf32>
  util.global private @"__iree_flow_bert/encoder/layer_15/ffn_layer_2/output/FakeLayerNorm/gamma" = dense<4.000000e-01> : tensor<128xf32>
  util.global private @"__iree_flow_bert/encoder/layer_15/ffn_layer_2/output/dense/bias" = dense<1.000000e-01> : tensor<128xf32>
  util.global private @"__iree_flow_bert/encoder/layer_15/ffn_layer_2/output/dense/kernel" {noinline} = dense<9.99999974E-5> : tensor<512x128xf32>
  util.global private @"__iree_flow_bert/encoder/layer_15/intermediate/dense/bias" = dense<1.000000e-01> : tensor<512xf32>
  util.global private @"__iree_flow_bert/encoder/layer_15/intermediate/dense/kernel" {noinline} = dense<9.99999974E-5> : tensor<128x512xf32>
  util.global private @"__iree_flow_bert/encoder/layer_15/output/FakeLayerNorm/beta" = dense<1.000000e+00> : tensor<128xf32>
  util.global private @"__iree_flow_bert/encoder/layer_15/output/FakeLayerNorm/gamma" = dense<4.000000e-01> : tensor<128xf32>
  util.global private @"__iree_flow_bert/encoder/layer_15/output/bottleneck/FakeLayerNorm/beta" = dense<1.000000e+00> : tensor<512xf32>
  util.global private @"__iree_flow_bert/encoder/layer_15/output/bottleneck/FakeLayerNorm/gamma" = dense<4.000000e-01> : tensor<512xf32>
  util.global private @"__iree_flow_bert/encoder/layer_15/output/bottleneck/dense/bias" = dense<1.000000e-01> : tensor<512xf32>
  util.global private @"__iree_flow_bert/encoder/layer_15/output/bottleneck/dense/kernel" {noinline} = dense<9.99999974E-5> : tensor<128x512xf32>
  util.global private @"__iree_flow_bert/encoder/layer_15/output/dense/bias" = dense<1.000000e-01> : tensor<128xf32>
  util.global private @"__iree_flow_bert/encoder/layer_15/output/dense/kernel" {noinline} = dense<9.99999974E-5> : tensor<512x128xf32>
  util.global private @"__iree_flow_bert/encoder/layer_16/attention/output/FakeLayerNorm/beta" = dense<1.000000e+00> : tensor<128xf32>
  util.global private @"__iree_flow_bert/encoder/layer_16/attention/output/FakeLayerNorm/gamma" = dense<4.000000e-01> : tensor<128xf32>
  util.global private @"__iree_flow_bert/encoder/layer_16/attention/output/dense/bias" = dense<1.000000e-01> : tensor<128xf32>
  util.global private @"__iree_flow_bert/encoder/layer_16/attention/output/dense/kernel" {noinline} = dense<9.99999974E-5> : tensor<128x128xf32>
  util.global private @"__iree_flow_bert/encoder/layer_16/attention/self/key/bias" = dense<1.000000e-01> : tensor<128xf32>
  util.global private @"__iree_flow_bert/encoder/layer_16/attention/self/key/kernel" {noinline} = dense<9.99999974E-5> : tensor<128x128xf32>
  util.global private @"__iree_flow_bert/encoder/layer_16/attention/self/query/bias" = dense<1.000000e-01> : tensor<128xf32>
  util.global private @"__iree_flow_bert/encoder/layer_16/attention/self/query/kernel" {noinline} = dense<9.99999974E-5> : tensor<128x128xf32>
  util.global private @"__iree_flow_bert/encoder/layer_16/attention/self/value/bias" = dense<1.000000e-01> : tensor<128xf32>
  util.global private @"__iree_flow_bert/encoder/layer_16/attention/self/value/kernel" {noinline} = dense<9.99999974E-5> : tensor<512x128xf32>
  util.global private @"__iree_flow_bert/encoder/layer_16/bottleneck/attention/FakeLayerNorm/beta" = dense<1.000000e+00> : tensor<128xf32>
  util.global private @"__iree_flow_bert/encoder/layer_16/bottleneck/attention/FakeLayerNorm/gamma" = dense<4.000000e-01> : tensor<128xf32>
  util.global private @"__iree_flow_bert/encoder/layer_16/bottleneck/attention/dense/bias" = dense<1.000000e-01> : tensor<128xf32>
  util.global private @"__iree_flow_bert/encoder/layer_16/bottleneck/attention/dense/kernel" {noinline} = dense<9.99999974E-5> : tensor<512x128xf32>
  util.global private @"__iree_flow_bert/encoder/layer_16/bottleneck/input/FakeLayerNorm/beta" = dense<1.000000e+00> : tensor<128xf32>
  util.global private @"__iree_flow_bert/encoder/layer_16/bottleneck/input/FakeLayerNorm/gamma" = dense<4.000000e-01> : tensor<128xf32>
  util.global private @"__iree_flow_bert/encoder/layer_16/bottleneck/input/dense/bias" = dense<1.000000e-01> : tensor<128xf32>
  util.global private @"__iree_flow_bert/encoder/layer_16/bottleneck/input/dense/kernel" {noinline} = dense<9.99999974E-5> : tensor<512x128xf32>
  util.global private @"__iree_flow_bert/encoder/layer_16/ffn_layer_0/intermediate/dense/bias" = dense<1.000000e-01> : tensor<512xf32>
  util.global private @"__iree_flow_bert/encoder/layer_16/ffn_layer_0/intermediate/dense/kernel" {noinline} = dense<9.99999974E-5> : tensor<128x512xf32>
  util.global private @"__iree_flow_bert/encoder/layer_16/ffn_layer_0/output/FakeLayerNorm/beta" = dense<1.000000e+00> : tensor<128xf32>
  util.global private @"__iree_flow_bert/encoder/layer_16/ffn_layer_0/output/FakeLayerNorm/gamma" = dense<4.000000e-01> : tensor<128xf32>
  util.global private @"__iree_flow_bert/encoder/layer_16/ffn_layer_0/output/dense/bias" = dense<1.000000e-01> : tensor<128xf32>
  util.global private @"__iree_flow_bert/encoder/layer_16/ffn_layer_0/output/dense/kernel" {noinline} = dense<9.99999974E-5> : tensor<512x128xf32>
  util.global private @"__iree_flow_bert/encoder/layer_16/ffn_layer_1/intermediate/dense/bias" = dense<1.000000e-01> : tensor<512xf32>
  util.global private @"__iree_flow_bert/encoder/layer_16/ffn_layer_1/intermediate/dense/kernel" {noinline} = dense<9.99999974E-5> : tensor<128x512xf32>
  util.global private @"__iree_flow_bert/encoder/layer_16/ffn_layer_1/output/FakeLayerNorm/beta" = dense<1.000000e+00> : tensor<128xf32>
  util.global private @"__iree_flow_bert/encoder/layer_16/ffn_layer_1/output/FakeLayerNorm/gamma" = dense<4.000000e-01> : tensor<128xf32>
  util.global private @"__iree_flow_bert/encoder/layer_16/ffn_layer_1/output/dense/bias" = dense<1.000000e-01> : tensor<128xf32>
  util.global private @"__iree_flow_bert/encoder/layer_16/ffn_layer_1/output/dense/kernel" {noinline} = dense<9.99999974E-5> : tensor<512x128xf32>
  util.global private @"__iree_flow_bert/encoder/layer_16/ffn_layer_2/intermediate/dense/bias" = dense<1.000000e-01> : tensor<512xf32>
  util.global private @"__iree_flow_bert/encoder/layer_16/ffn_layer_2/intermediate/dense/kernel" {noinline} = dense<9.99999974E-5> : tensor<128x512xf32>
  util.global private @"__iree_flow_bert/encoder/layer_16/ffn_layer_2/output/FakeLayerNorm/beta" = dense<1.000000e+00> : tensor<128xf32>
  util.global private @"__iree_flow_bert/encoder/layer_16/ffn_layer_2/output/FakeLayerNorm/gamma" = dense<4.000000e-01> : tensor<128xf32>
  util.global private @"__iree_flow_bert/encoder/layer_16/ffn_layer_2/output/dense/bias" = dense<1.000000e-01> : tensor<128xf32>
  util.global private @"__iree_flow_bert/encoder/layer_16/ffn_layer_2/output/dense/kernel" {noinline} = dense<9.99999974E-5> : tensor<512x128xf32>
  util.global private @"__iree_flow_bert/encoder/layer_16/intermediate/dense/bias" = dense<1.000000e-01> : tensor<512xf32>
  util.global private @"__iree_flow_bert/encoder/layer_16/intermediate/dense/kernel" {noinline} = dense<9.99999974E-5> : tensor<128x512xf32>
  util.global private @"__iree_flow_bert/encoder/layer_16/output/FakeLayerNorm/beta" = dense<1.000000e+00> : tensor<128xf32>
  util.global private @"__iree_flow_bert/encoder/layer_16/output/FakeLayerNorm/gamma" = dense<4.000000e-01> : tensor<128xf32>
  util.global private @"__iree_flow_bert/encoder/layer_16/output/bottleneck/FakeLayerNorm/beta" = dense<1.000000e+00> : tensor<512xf32>
  util.global private @"__iree_flow_bert/encoder/layer_16/output/bottleneck/FakeLayerNorm/gamma" = dense<4.000000e-01> : tensor<512xf32>
  util.global private @"__iree_flow_bert/encoder/layer_16/output/bottleneck/dense/bias" = dense<1.000000e-01> : tensor<512xf32>
  util.global private @"__iree_flow_bert/encoder/layer_16/output/bottleneck/dense/kernel" {noinline} = dense<9.99999974E-5> : tensor<128x512xf32>
  util.global private @"__iree_flow_bert/encoder/layer_16/output/dense/bias" = dense<1.000000e-01> : tensor<128xf32>
  util.global private @"__iree_flow_bert/encoder/layer_16/output/dense/kernel" {noinline} = dense<9.99999974E-5> : tensor<512x128xf32>
  util.global private @"__iree_flow_bert/encoder/layer_17/attention/output/FakeLayerNorm/beta" = dense<1.000000e+00> : tensor<128xf32>
  util.global private @"__iree_flow_bert/encoder/layer_17/attention/output/FakeLayerNorm/gamma" = dense<4.000000e-01> : tensor<128xf32>
  util.global private @"__iree_flow_bert/encoder/layer_17/attention/output/dense/bias" = dense<1.000000e-01> : tensor<128xf32>
  util.global private @"__iree_flow_bert/encoder/layer_17/attention/output/dense/kernel" {noinline} = dense<9.99999974E-5> : tensor<128x128xf32>
  util.global private @"__iree_flow_bert/encoder/layer_17/attention/self/key/bias" = dense<1.000000e-01> : tensor<128xf32>
  util.global private @"__iree_flow_bert/encoder/layer_17/attention/self/key/kernel" {noinline} = dense<9.99999974E-5> : tensor<128x128xf32>
  util.global private @"__iree_flow_bert/encoder/layer_17/attention/self/query/bias" = dense<1.000000e-01> : tensor<128xf32>
  util.global private @"__iree_flow_bert/encoder/layer_17/attention/self/query/kernel" {noinline} = dense<9.99999974E-5> : tensor<128x128xf32>
  util.global private @"__iree_flow_bert/encoder/layer_17/attention/self/value/bias" = dense<1.000000e-01> : tensor<128xf32>
  util.global private @"__iree_flow_bert/encoder/layer_17/attention/self/value/kernel" {noinline} = dense<9.99999974E-5> : tensor<512x128xf32>
  util.global private @"__iree_flow_bert/encoder/layer_17/bottleneck/attention/FakeLayerNorm/beta" = dense<1.000000e+00> : tensor<128xf32>
  util.global private @"__iree_flow_bert/encoder/layer_17/bottleneck/attention/FakeLayerNorm/gamma" = dense<4.000000e-01> : tensor<128xf32>
  util.global private @"__iree_flow_bert/encoder/layer_17/bottleneck/attention/dense/bias" = dense<1.000000e-01> : tensor<128xf32>
  util.global private @"__iree_flow_bert/encoder/layer_17/bottleneck/attention/dense/kernel" {noinline} = dense<9.99999974E-5> : tensor<512x128xf32>
  util.global private @"__iree_flow_bert/encoder/layer_17/bottleneck/input/FakeLayerNorm/beta" = dense<1.000000e+00> : tensor<128xf32>
  util.global private @"__iree_flow_bert/encoder/layer_17/bottleneck/input/FakeLayerNorm/gamma" = dense<4.000000e-01> : tensor<128xf32>
  util.global private @"__iree_flow_bert/encoder/layer_17/bottleneck/input/dense/bias" = dense<1.000000e-01> : tensor<128xf32>
  util.global private @"__iree_flow_bert/encoder/layer_17/bottleneck/input/dense/kernel" {noinline} = dense<9.99999974E-5> : tensor<512x128xf32>
  util.global private @"__iree_flow_bert/encoder/layer_17/ffn_layer_0/intermediate/dense/bias" = dense<1.000000e-01> : tensor<512xf32>
  util.global private @"__iree_flow_bert/encoder/layer_17/ffn_layer_0/intermediate/dense/kernel" {noinline} = dense<9.99999974E-5> : tensor<128x512xf32>
  util.global private @"__iree_flow_bert/encoder/layer_17/ffn_layer_0/output/FakeLayerNorm/beta" = dense<1.000000e+00> : tensor<128xf32>
  util.global private @"__iree_flow_bert/encoder/layer_17/ffn_layer_0/output/FakeLayerNorm/gamma" = dense<4.000000e-01> : tensor<128xf32>
  util.global private @"__iree_flow_bert/encoder/layer_17/ffn_layer_0/output/dense/bias" = dense<1.000000e-01> : tensor<128xf32>
  util.global private @"__iree_flow_bert/encoder/layer_17/ffn_layer_0/output/dense/kernel" {noinline} = dense<9.99999974E-5> : tensor<512x128xf32>
  util.global private @"__iree_flow_bert/encoder/layer_17/ffn_layer_1/intermediate/dense/bias" = dense<1.000000e-01> : tensor<512xf32>
  util.global private @"__iree_flow_bert/encoder/layer_17/ffn_layer_1/intermediate/dense/kernel" {noinline} = dense<9.99999974E-5> : tensor<128x512xf32>
  util.global private @"__iree_flow_bert/encoder/layer_17/ffn_layer_1/output/FakeLayerNorm/beta" = dense<1.000000e+00> : tensor<128xf32>
  util.global private @"__iree_flow_bert/encoder/layer_17/ffn_layer_1/output/FakeLayerNorm/gamma" = dense<4.000000e-01> : tensor<128xf32>
  util.global private @"__iree_flow_bert/encoder/layer_17/ffn_layer_1/output/dense/bias" = dense<1.000000e-01> : tensor<128xf32>
  util.global private @"__iree_flow_bert/encoder/layer_17/ffn_layer_1/output/dense/kernel" {noinline} = dense<9.99999974E-5> : tensor<512x128xf32>
  util.global private @"__iree_flow_bert/encoder/layer_17/ffn_layer_2/intermediate/dense/bias" = dense<1.000000e-01> : tensor<512xf32>
  util.global private @"__iree_flow_bert/encoder/layer_17/ffn_layer_2/intermediate/dense/kernel" {noinline} = dense<9.99999974E-5> : tensor<128x512xf32>
  util.global private @"__iree_flow_bert/encoder/layer_17/ffn_layer_2/output/FakeLayerNorm/beta" = dense<1.000000e+00> : tensor<128xf32>
  util.global private @"__iree_flow_bert/encoder/layer_17/ffn_layer_2/output/FakeLayerNorm/gamma" = dense<4.000000e-01> : tensor<128xf32>
  util.global private @"__iree_flow_bert/encoder/layer_17/ffn_layer_2/output/dense/bias" = dense<1.000000e-01> : tensor<128xf32>
  util.global private @"__iree_flow_bert/encoder/layer_17/ffn_layer_2/output/dense/kernel" {noinline} = dense<9.99999974E-5> : tensor<512x128xf32>
  util.global private @"__iree_flow_bert/encoder/layer_17/intermediate/dense/bias" = dense<1.000000e-01> : tensor<512xf32>
  util.global private @"__iree_flow_bert/encoder/layer_17/intermediate/dense/kernel" {noinline} = dense<9.99999974E-5> : tensor<128x512xf32>
  util.global private @"__iree_flow_bert/encoder/layer_17/output/FakeLayerNorm/beta" = dense<1.000000e+00> : tensor<128xf32>
  util.global private @"__iree_flow_bert/encoder/layer_17/output/FakeLayerNorm/gamma" = dense<4.000000e-01> : tensor<128xf32>
  util.global private @"__iree_flow_bert/encoder/layer_17/output/bottleneck/FakeLayerNorm/beta" = dense<1.000000e+00> : tensor<512xf32>
  util.global private @"__iree_flow_bert/encoder/layer_17/output/bottleneck/FakeLayerNorm/gamma" = dense<4.000000e-01> : tensor<512xf32>
  util.global private @"__iree_flow_bert/encoder/layer_17/output/bottleneck/dense/bias" = dense<1.000000e-01> : tensor<512xf32>
  util.global private @"__iree_flow_bert/encoder/layer_17/output/bottleneck/dense/kernel" {noinline} = dense<9.99999974E-5> : tensor<128x512xf32>
  util.global private @"__iree_flow_bert/encoder/layer_17/output/dense/bias" = dense<1.000000e-01> : tensor<128xf32>
  util.global private @"__iree_flow_bert/encoder/layer_17/output/dense/kernel" {noinline} = dense<9.99999974E-5> : tensor<512x128xf32>
  util.global private @"__iree_flow_bert/encoder/layer_18/attention/output/FakeLayerNorm/beta" = dense<1.000000e+00> : tensor<128xf32>
  util.global private @"__iree_flow_bert/encoder/layer_18/attention/output/FakeLayerNorm/gamma" = dense<4.000000e-01> : tensor<128xf32>
  util.global private @"__iree_flow_bert/encoder/layer_18/attention/output/dense/bias" = dense<1.000000e-01> : tensor<128xf32>
  util.global private @"__iree_flow_bert/encoder/layer_18/attention/output/dense/kernel" {noinline} = dense<9.99999974E-5> : tensor<128x128xf32>
  util.global private @"__iree_flow_bert/encoder/layer_18/attention/self/key/bias" = dense<1.000000e-01> : tensor<128xf32>
  util.global private @"__iree_flow_bert/encoder/layer_18/attention/self/key/kernel" {noinline} = dense<9.99999974E-5> : tensor<128x128xf32>
  util.global private @"__iree_flow_bert/encoder/layer_18/attention/self/query/bias" = dense<1.000000e-01> : tensor<128xf32>
  util.global private @"__iree_flow_bert/encoder/layer_18/attention/self/query/kernel" {noinline} = dense<9.99999974E-5> : tensor<128x128xf32>
  util.global private @"__iree_flow_bert/encoder/layer_18/attention/self/value/bias" = dense<1.000000e-01> : tensor<128xf32>
  util.global private @"__iree_flow_bert/encoder/layer_18/attention/self/value/kernel" {noinline} = dense<9.99999974E-5> : tensor<512x128xf32>
  util.global private @"__iree_flow_bert/encoder/layer_18/bottleneck/attention/FakeLayerNorm/beta" = dense<1.000000e+00> : tensor<128xf32>
  util.global private @"__iree_flow_bert/encoder/layer_18/bottleneck/attention/FakeLayerNorm/gamma" = dense<4.000000e-01> : tensor<128xf32>
  util.global private @"__iree_flow_bert/encoder/layer_18/bottleneck/attention/dense/bias" = dense<1.000000e-01> : tensor<128xf32>
  util.global private @"__iree_flow_bert/encoder/layer_18/bottleneck/attention/dense/kernel" {noinline} = dense<9.99999974E-5> : tensor<512x128xf32>
  util.global private @"__iree_flow_bert/encoder/layer_18/bottleneck/input/FakeLayerNorm/beta" = dense<1.000000e+00> : tensor<128xf32>
  util.global private @"__iree_flow_bert/encoder/layer_18/bottleneck/input/FakeLayerNorm/gamma" = dense<4.000000e-01> : tensor<128xf32>
  util.global private @"__iree_flow_bert/encoder/layer_18/bottleneck/input/dense/bias" = dense<1.000000e-01> : tensor<128xf32>
  util.global private @"__iree_flow_bert/encoder/layer_18/bottleneck/input/dense/kernel" {noinline} = dense<9.99999974E-5> : tensor<512x128xf32>
  util.global private @"__iree_flow_bert/encoder/layer_18/ffn_layer_0/intermediate/dense/bias" = dense<1.000000e-01> : tensor<512xf32>
  util.global private @"__iree_flow_bert/encoder/layer_18/ffn_layer_0/intermediate/dense/kernel" {noinline} = dense<9.99999974E-5> : tensor<128x512xf32>
  util.global private @"__iree_flow_bert/encoder/layer_18/ffn_layer_0/output/FakeLayerNorm/beta" = dense<1.000000e+00> : tensor<128xf32>
  util.global private @"__iree_flow_bert/encoder/layer_18/ffn_layer_0/output/FakeLayerNorm/gamma" = dense<4.000000e-01> : tensor<128xf32>
  util.global private @"__iree_flow_bert/encoder/layer_18/ffn_layer_0/output/dense/bias" = dense<1.000000e-01> : tensor<128xf32>
  util.global private @"__iree_flow_bert/encoder/layer_18/ffn_layer_0/output/dense/kernel" {noinline} = dense<9.99999974E-5> : tensor<512x128xf32>
  util.global private @"__iree_flow_bert/encoder/layer_18/ffn_layer_1/intermediate/dense/bias" = dense<1.000000e-01> : tensor<512xf32>
  util.global private @"__iree_flow_bert/encoder/layer_18/ffn_layer_1/intermediate/dense/kernel" {noinline} = dense<9.99999974E-5> : tensor<128x512xf32>
  util.global private @"__iree_flow_bert/encoder/layer_18/ffn_layer_1/output/FakeLayerNorm/beta" = dense<1.000000e+00> : tensor<128xf32>
  util.global private @"__iree_flow_bert/encoder/layer_18/ffn_layer_1/output/FakeLayerNorm/gamma" = dense<4.000000e-01> : tensor<128xf32>
  util.global private @"__iree_flow_bert/encoder/layer_18/ffn_layer_1/output/dense/bias" = dense<1.000000e-01> : tensor<128xf32>
  util.global private @"__iree_flow_bert/encoder/layer_18/ffn_layer_1/output/dense/kernel" {noinline} = dense<9.99999974E-5> : tensor<512x128xf32>
  util.global private @"__iree_flow_bert/encoder/layer_18/ffn_layer_2/intermediate/dense/bias" = dense<1.000000e-01> : tensor<512xf32>
  util.global private @"__iree_flow_bert/encoder/layer_18/ffn_layer_2/intermediate/dense/kernel" {noinline} = dense<9.99999974E-5> : tensor<128x512xf32>
  util.global private @"__iree_flow_bert/encoder/layer_18/ffn_layer_2/output/FakeLayerNorm/beta" = dense<1.000000e+00> : tensor<128xf32>
  util.global private @"__iree_flow_bert/encoder/layer_18/ffn_layer_2/output/FakeLayerNorm/gamma" = dense<4.000000e-01> : tensor<128xf32>
  util.global private @"__iree_flow_bert/encoder/layer_18/ffn_layer_2/output/dense/bias" = dense<1.000000e-01> : tensor<128xf32>
  util.global private @"__iree_flow_bert/encoder/layer_18/ffn_layer_2/output/dense/kernel" {noinline} = dense<9.99999974E-5> : tensor<512x128xf32>
  util.global private @"__iree_flow_bert/encoder/layer_18/intermediate/dense/bias" = dense<1.000000e-01> : tensor<512xf32>
  util.global private @"__iree_flow_bert/encoder/layer_18/intermediate/dense/kernel" {noinline} = dense<9.99999974E-5> : tensor<128x512xf32>
  util.global private @"__iree_flow_bert/encoder/layer_18/output/FakeLayerNorm/beta" = dense<1.000000e+00> : tensor<128xf32>
  util.global private @"__iree_flow_bert/encoder/layer_18/output/FakeLayerNorm/gamma" = dense<4.000000e-01> : tensor<128xf32>
  util.global private @"__iree_flow_bert/encoder/layer_18/output/bottleneck/FakeLayerNorm/beta" = dense<1.000000e+00> : tensor<512xf32>
  util.global private @"__iree_flow_bert/encoder/layer_18/output/bottleneck/FakeLayerNorm/gamma" = dense<4.000000e-01> : tensor<512xf32>
  util.global private @"__iree_flow_bert/encoder/layer_18/output/bottleneck/dense/bias" = dense<1.000000e-01> : tensor<512xf32>
  util.global private @"__iree_flow_bert/encoder/layer_18/output/bottleneck/dense/kernel" {noinline} = dense<9.99999974E-5> : tensor<128x512xf32>
  util.global private @"__iree_flow_bert/encoder/layer_18/output/dense/bias" = dense<1.000000e-01> : tensor<128xf32>
  util.global private @"__iree_flow_bert/encoder/layer_18/output/dense/kernel" {noinline} = dense<9.99999974E-5> : tensor<512x128xf32>
  util.global private @"__iree_flow_bert/encoder/layer_19/attention/output/FakeLayerNorm/beta" = dense<1.000000e+00> : tensor<128xf32>
  util.global private @"__iree_flow_bert/encoder/layer_19/attention/output/FakeLayerNorm/gamma" = dense<4.000000e-01> : tensor<128xf32>
  util.global private @"__iree_flow_bert/encoder/layer_19/attention/output/dense/bias" = dense<1.000000e-01> : tensor<128xf32>
  util.global private @"__iree_flow_bert/encoder/layer_19/attention/output/dense/kernel" {noinline} = dense<9.99999974E-5> : tensor<128x128xf32>
  util.global private @"__iree_flow_bert/encoder/layer_19/attention/self/key/bias" = dense<1.000000e-01> : tensor<128xf32>
  util.global private @"__iree_flow_bert/encoder/layer_19/attention/self/key/kernel" {noinline} = dense<9.99999974E-5> : tensor<128x128xf32>
  util.global private @"__iree_flow_bert/encoder/layer_19/attention/self/query/bias" = dense<1.000000e-01> : tensor<128xf32>
  util.global private @"__iree_flow_bert/encoder/layer_19/attention/self/query/kernel" {noinline} = dense<9.99999974E-5> : tensor<128x128xf32>
  util.global private @"__iree_flow_bert/encoder/layer_19/attention/self/value/bias" = dense<1.000000e-01> : tensor<128xf32>
  util.global private @"__iree_flow_bert/encoder/layer_19/attention/self/value/kernel" {noinline} = dense<9.99999974E-5> : tensor<512x128xf32>
  util.global private @"__iree_flow_bert/encoder/layer_19/bottleneck/attention/FakeLayerNorm/beta" = dense<1.000000e+00> : tensor<128xf32>
  util.global private @"__iree_flow_bert/encoder/layer_19/bottleneck/attention/FakeLayerNorm/gamma" = dense<4.000000e-01> : tensor<128xf32>
  util.global private @"__iree_flow_bert/encoder/layer_19/bottleneck/attention/dense/bias" = dense<1.000000e-01> : tensor<128xf32>
  util.global private @"__iree_flow_bert/encoder/layer_19/bottleneck/attention/dense/kernel" {noinline} = dense<9.99999974E-5> : tensor<512x128xf32>
  util.global private @"__iree_flow_bert/encoder/layer_19/bottleneck/input/FakeLayerNorm/beta" = dense<1.000000e+00> : tensor<128xf32>
  util.global private @"__iree_flow_bert/encoder/layer_19/bottleneck/input/FakeLayerNorm/gamma" = dense<4.000000e-01> : tensor<128xf32>
  util.global private @"__iree_flow_bert/encoder/layer_19/bottleneck/input/dense/bias" = dense<1.000000e-01> : tensor<128xf32>
  util.global private @"__iree_flow_bert/encoder/layer_19/bottleneck/input/dense/kernel" {noinline} = dense<9.99999974E-5> : tensor<512x128xf32>
  util.global private @"__iree_flow_bert/encoder/layer_19/ffn_layer_0/intermediate/dense/bias" = dense<1.000000e-01> : tensor<512xf32>
  util.global private @"__iree_flow_bert/encoder/layer_19/ffn_layer_0/intermediate/dense/kernel" {noinline} = dense<9.99999974E-5> : tensor<128x512xf32>
  util.global private @"__iree_flow_bert/encoder/layer_19/ffn_layer_0/output/FakeLayerNorm/beta" = dense<1.000000e+00> : tensor<128xf32>
  util.global private @"__iree_flow_bert/encoder/layer_19/ffn_layer_0/output/FakeLayerNorm/gamma" = dense<4.000000e-01> : tensor<128xf32>
  util.global private @"__iree_flow_bert/encoder/layer_19/ffn_layer_0/output/dense/bias" = dense<1.000000e-01> : tensor<128xf32>
  util.global private @"__iree_flow_bert/encoder/layer_19/ffn_layer_0/output/dense/kernel" {noinline} = dense<9.99999974E-5> : tensor<512x128xf32>
  util.global private @"__iree_flow_bert/encoder/layer_19/ffn_layer_1/intermediate/dense/bias" = dense<1.000000e-01> : tensor<512xf32>
  util.global private @"__iree_flow_bert/encoder/layer_19/ffn_layer_1/intermediate/dense/kernel" {noinline} = dense<9.99999974E-5> : tensor<128x512xf32>
  util.global private @"__iree_flow_bert/encoder/layer_19/ffn_layer_1/output/FakeLayerNorm/beta" = dense<1.000000e+00> : tensor<128xf32>
  util.global private @"__iree_flow_bert/encoder/layer_19/ffn_layer_1/output/FakeLayerNorm/gamma" = dense<4.000000e-01> : tensor<128xf32>
  util.global private @"__iree_flow_bert/encoder/layer_19/ffn_layer_1/output/dense/bias" = dense<1.000000e-01> : tensor<128xf32>
  util.global private @"__iree_flow_bert/encoder/layer_19/ffn_layer_1/output/dense/kernel" {noinline} = dense<9.99999974E-5> : tensor<512x128xf32>
  util.global private @"__iree_flow_bert/encoder/layer_19/ffn_layer_2/intermediate/dense/bias" = dense<1.000000e-01> : tensor<512xf32>
  util.global private @"__iree_flow_bert/encoder/layer_19/ffn_layer_2/intermediate/dense/kernel" {noinline} = dense<9.99999974E-5> : tensor<128x512xf32>
  util.global private @"__iree_flow_bert/encoder/layer_19/ffn_layer_2/output/FakeLayerNorm/beta" = dense<1.000000e+00> : tensor<128xf32>
  util.global private @"__iree_flow_bert/encoder/layer_19/ffn_layer_2/output/FakeLayerNorm/gamma" = dense<4.000000e-01> : tensor<128xf32>
  util.global private @"__iree_flow_bert/encoder/layer_19/ffn_layer_2/output/dense/bias" = dense<1.000000e-01> : tensor<128xf32>
  util.global private @"__iree_flow_bert/encoder/layer_19/ffn_layer_2/output/dense/kernel" {noinline} = dense<9.99999974E-5> : tensor<512x128xf32>
  util.global private @"__iree_flow_bert/encoder/layer_19/intermediate/dense/bias" = dense<1.000000e-01> : tensor<512xf32>
  util.global private @"__iree_flow_bert/encoder/layer_19/intermediate/dense/kernel" {noinline} = dense<9.99999974E-5> : tensor<128x512xf32>
  util.global private @"__iree_flow_bert/encoder/layer_19/output/FakeLayerNorm/beta" = dense<1.000000e+00> : tensor<128xf32>
  util.global private @"__iree_flow_bert/encoder/layer_19/output/FakeLayerNorm/gamma" = dense<4.000000e-01> : tensor<128xf32>
  util.global private @"__iree_flow_bert/encoder/layer_19/output/bottleneck/FakeLayerNorm/beta" = dense<1.000000e+00> : tensor<512xf32>
  util.global private @"__iree_flow_bert/encoder/layer_19/output/bottleneck/FakeLayerNorm/gamma" = dense<4.000000e-01> : tensor<512xf32>
  util.global private @"__iree_flow_bert/encoder/layer_19/output/bottleneck/dense/bias" = dense<1.000000e-01> : tensor<512xf32>
  util.global private @"__iree_flow_bert/encoder/layer_19/output/bottleneck/dense/kernel" {noinline} = dense<9.99999974E-5> : tensor<128x512xf32>
  util.global private @"__iree_flow_bert/encoder/layer_19/output/dense/bias" = dense<1.000000e-01> : tensor<128xf32>
  util.global private @"__iree_flow_bert/encoder/layer_19/output/dense/kernel" {noinline} = dense<9.99999974E-5> : tensor<512x128xf32>
  util.global private @"__iree_flow_bert/encoder/layer_2/attention/output/FakeLayerNorm/beta" = dense<1.000000e+00> : tensor<128xf32>
  util.global private @"__iree_flow_bert/encoder/layer_2/attention/output/FakeLayerNorm/gamma" = dense<4.000000e-01> : tensor<128xf32>
  util.global private @"__iree_flow_bert/encoder/layer_2/attention/output/dense/bias" = dense<1.000000e-01> : tensor<128xf32>
  util.global private @"__iree_flow_bert/encoder/layer_2/attention/output/dense/kernel" {noinline} = dense<9.99999974E-5> : tensor<128x128xf32>
  util.global private @"__iree_flow_bert/encoder/layer_2/attention/self/key/bias" = dense<1.000000e-01> : tensor<128xf32>
  util.global private @"__iree_flow_bert/encoder/layer_2/attention/self/key/kernel" {noinline} = dense<9.99999974E-5> : tensor<128x128xf32>
  util.global private @"__iree_flow_bert/encoder/layer_2/attention/self/query/bias" = dense<1.000000e-01> : tensor<128xf32>
  util.global private @"__iree_flow_bert/encoder/layer_2/attention/self/query/kernel" {noinline} = dense<9.99999974E-5> : tensor<128x128xf32>
  util.global private @"__iree_flow_bert/encoder/layer_2/attention/self/value/bias" = dense<1.000000e-01> : tensor<128xf32>
  util.global private @"__iree_flow_bert/encoder/layer_2/attention/self/value/kernel" {noinline} = dense<9.99999974E-5> : tensor<512x128xf32>
  util.global private @"__iree_flow_bert/encoder/layer_2/bottleneck/attention/FakeLayerNorm/beta" = dense<1.000000e+00> : tensor<128xf32>
  util.global private @"__iree_flow_bert/encoder/layer_2/bottleneck/attention/FakeLayerNorm/gamma" = dense<4.000000e-01> : tensor<128xf32>
  util.global private @"__iree_flow_bert/encoder/layer_2/bottleneck/attention/dense/bias" = dense<1.000000e-01> : tensor<128xf32>
  util.global private @"__iree_flow_bert/encoder/layer_2/bottleneck/attention/dense/kernel" {noinline} = dense<9.99999974E-5> : tensor<512x128xf32>
  util.global private @"__iree_flow_bert/encoder/layer_2/bottleneck/input/FakeLayerNorm/beta" = dense<1.000000e+00> : tensor<128xf32>
  util.global private @"__iree_flow_bert/encoder/layer_2/bottleneck/input/FakeLayerNorm/gamma" = dense<4.000000e-01> : tensor<128xf32>
  util.global private @"__iree_flow_bert/encoder/layer_2/bottleneck/input/dense/bias" = dense<1.000000e-01> : tensor<128xf32>
  util.global private @"__iree_flow_bert/encoder/layer_2/bottleneck/input/dense/kernel" {noinline} = dense<9.99999974E-5> : tensor<512x128xf32>
  util.global private @"__iree_flow_bert/encoder/layer_2/ffn_layer_0/intermediate/dense/bias" = dense<1.000000e-01> : tensor<512xf32>
  util.global private @"__iree_flow_bert/encoder/layer_2/ffn_layer_0/intermediate/dense/kernel" {noinline} = dense<9.99999974E-5> : tensor<128x512xf32>
  util.global private @"__iree_flow_bert/encoder/layer_2/ffn_layer_0/output/FakeLayerNorm/beta" = dense<1.000000e+00> : tensor<128xf32>
  util.global private @"__iree_flow_bert/encoder/layer_2/ffn_layer_0/output/FakeLayerNorm/gamma" = dense<4.000000e-01> : tensor<128xf32>
  util.global private @"__iree_flow_bert/encoder/layer_2/ffn_layer_0/output/dense/bias" = dense<1.000000e-01> : tensor<128xf32>
  util.global private @"__iree_flow_bert/encoder/layer_2/ffn_layer_0/output/dense/kernel" {noinline} = dense<9.99999974E-5> : tensor<512x128xf32>
  util.global private @"__iree_flow_bert/encoder/layer_2/ffn_layer_1/intermediate/dense/bias" = dense<1.000000e-01> : tensor<512xf32>
  util.global private @"__iree_flow_bert/encoder/layer_2/ffn_layer_1/intermediate/dense/kernel" {noinline} = dense<9.99999974E-5> : tensor<128x512xf32>
  util.global private @"__iree_flow_bert/encoder/layer_2/ffn_layer_1/output/FakeLayerNorm/beta" = dense<1.000000e+00> : tensor<128xf32>
  util.global private @"__iree_flow_bert/encoder/layer_2/ffn_layer_1/output/FakeLayerNorm/gamma" = dense<4.000000e-01> : tensor<128xf32>
  util.global private @"__iree_flow_bert/encoder/layer_2/ffn_layer_1/output/dense/bias" = dense<1.000000e-01> : tensor<128xf32>
  util.global private @"__iree_flow_bert/encoder/layer_2/ffn_layer_1/output/dense/kernel" {noinline} = dense<9.99999974E-5> : tensor<512x128xf32>
  util.global private @"__iree_flow_bert/encoder/layer_2/ffn_layer_2/intermediate/dense/bias" = dense<1.000000e-01> : tensor<512xf32>
  util.global private @"__iree_flow_bert/encoder/layer_2/ffn_layer_2/intermediate/dense/kernel" {noinline} = dense<9.99999974E-5> : tensor<128x512xf32>
  util.global private @"__iree_flow_bert/encoder/layer_2/ffn_layer_2/output/FakeLayerNorm/beta" = dense<1.000000e+00> : tensor<128xf32>
  util.global private @"__iree_flow_bert/encoder/layer_2/ffn_layer_2/output/FakeLayerNorm/gamma" = dense<4.000000e-01> : tensor<128xf32>
  util.global private @"__iree_flow_bert/encoder/layer_2/ffn_layer_2/output/dense/bias" = dense<1.000000e-01> : tensor<128xf32>
  util.global private @"__iree_flow_bert/encoder/layer_2/ffn_layer_2/output/dense/kernel" {noinline} = dense<9.99999974E-5> : tensor<512x128xf32>
  util.global private @"__iree_flow_bert/encoder/layer_2/intermediate/dense/bias" = dense<1.000000e-01> : tensor<512xf32>
  util.global private @"__iree_flow_bert/encoder/layer_2/intermediate/dense/kernel" {noinline} = dense<9.99999974E-5> : tensor<128x512xf32>
  util.global private @"__iree_flow_bert/encoder/layer_2/output/FakeLayerNorm/beta" = dense<1.000000e+00> : tensor<128xf32>
  util.global private @"__iree_flow_bert/encoder/layer_2/output/FakeLayerNorm/gamma" = dense<4.000000e-01> : tensor<128xf32>
  util.global private @"__iree_flow_bert/encoder/layer_2/output/bottleneck/FakeLayerNorm/beta" = dense<1.000000e+00> : tensor<512xf32>
  util.global private @"__iree_flow_bert/encoder/layer_2/output/bottleneck/FakeLayerNorm/gamma" = dense<4.000000e-01> : tensor<512xf32>
  util.global private @"__iree_flow_bert/encoder/layer_2/output/bottleneck/dense/bias" = dense<1.000000e-01> : tensor<512xf32>
  util.global private @"__iree_flow_bert/encoder/layer_2/output/bottleneck/dense/kernel" {noinline} = dense<9.99999974E-5> : tensor<128x512xf32>
  util.global private @"__iree_flow_bert/encoder/layer_2/output/dense/bias" = dense<1.000000e-01> : tensor<128xf32>
  util.global private @"__iree_flow_bert/encoder/layer_2/output/dense/kernel" {noinline} = dense<9.99999974E-5> : tensor<512x128xf32>
  util.global private @"__iree_flow_bert/encoder/layer_20/attention/output/FakeLayerNorm/beta" = dense<1.000000e+00> : tensor<128xf32>
  util.global private @"__iree_flow_bert/encoder/layer_20/attention/output/FakeLayerNorm/gamma" = dense<4.000000e-01> : tensor<128xf32>
  util.global private @"__iree_flow_bert/encoder/layer_20/attention/output/dense/bias" = dense<1.000000e-01> : tensor<128xf32>
  util.global private @"__iree_flow_bert/encoder/layer_20/attention/output/dense/kernel" {noinline} = dense<9.99999974E-5> : tensor<128x128xf32>
  util.global private @"__iree_flow_bert/encoder/layer_20/attention/self/key/bias" = dense<1.000000e-01> : tensor<128xf32>
  util.global private @"__iree_flow_bert/encoder/layer_20/attention/self/key/kernel" {noinline} = dense<9.99999974E-5> : tensor<128x128xf32>
  util.global private @"__iree_flow_bert/encoder/layer_20/attention/self/query/bias" = dense<1.000000e-01> : tensor<128xf32>
  util.global private @"__iree_flow_bert/encoder/layer_20/attention/self/query/kernel" {noinline} = dense<9.99999974E-5> : tensor<128x128xf32>
  util.global private @"__iree_flow_bert/encoder/layer_20/attention/self/value/bias" = dense<1.000000e-01> : tensor<128xf32>
  util.global private @"__iree_flow_bert/encoder/layer_20/attention/self/value/kernel" {noinline} = dense<9.99999974E-5> : tensor<512x128xf32>
  util.global private @"__iree_flow_bert/encoder/layer_20/bottleneck/attention/FakeLayerNorm/beta" = dense<1.000000e+00> : tensor<128xf32>
  util.global private @"__iree_flow_bert/encoder/layer_20/bottleneck/attention/FakeLayerNorm/gamma" = dense<4.000000e-01> : tensor<128xf32>
  util.global private @"__iree_flow_bert/encoder/layer_20/bottleneck/attention/dense/bias" = dense<1.000000e-01> : tensor<128xf32>
  util.global private @"__iree_flow_bert/encoder/layer_20/bottleneck/attention/dense/kernel" {noinline} = dense<9.99999974E-5> : tensor<512x128xf32>
  util.global private @"__iree_flow_bert/encoder/layer_20/bottleneck/input/FakeLayerNorm/beta" = dense<1.000000e+00> : tensor<128xf32>
  util.global private @"__iree_flow_bert/encoder/layer_20/bottleneck/input/FakeLayerNorm/gamma" = dense<4.000000e-01> : tensor<128xf32>
  util.global private @"__iree_flow_bert/encoder/layer_20/bottleneck/input/dense/bias" = dense<1.000000e-01> : tensor<128xf32>
  util.global private @"__iree_flow_bert/encoder/layer_20/bottleneck/input/dense/kernel" {noinline} = dense<9.99999974E-5> : tensor<512x128xf32>
  util.global private @"__iree_flow_bert/encoder/layer_20/ffn_layer_0/intermediate/dense/bias" = dense<1.000000e-01> : tensor<512xf32>
  util.global private @"__iree_flow_bert/encoder/layer_20/ffn_layer_0/intermediate/dense/kernel" {noinline} = dense<9.99999974E-5> : tensor<128x512xf32>
  util.global private @"__iree_flow_bert/encoder/layer_20/ffn_layer_0/output/FakeLayerNorm/beta" = dense<1.000000e+00> : tensor<128xf32>
  util.global private @"__iree_flow_bert/encoder/layer_20/ffn_layer_0/output/FakeLayerNorm/gamma" = dense<4.000000e-01> : tensor<128xf32>
  util.global private @"__iree_flow_bert/encoder/layer_20/ffn_layer_0/output/dense/bias" = dense<1.000000e-01> : tensor<128xf32>
  util.global private @"__iree_flow_bert/encoder/layer_20/ffn_layer_0/output/dense/kernel" {noinline} = dense<9.99999974E-5> : tensor<512x128xf32>
  util.global private @"__iree_flow_bert/encoder/layer_20/ffn_layer_1/intermediate/dense/bias" = dense<1.000000e-01> : tensor<512xf32>
  util.global private @"__iree_flow_bert/encoder/layer_20/ffn_layer_1/intermediate/dense/kernel" {noinline} = dense<9.99999974E-5> : tensor<128x512xf32>
  util.global private @"__iree_flow_bert/encoder/layer_20/ffn_layer_1/output/FakeLayerNorm/beta" = dense<1.000000e+00> : tensor<128xf32>
  util.global private @"__iree_flow_bert/encoder/layer_20/ffn_layer_1/output/FakeLayerNorm/gamma" = dense<4.000000e-01> : tensor<128xf32>
  util.global private @"__iree_flow_bert/encoder/layer_20/ffn_layer_1/output/dense/bias" = dense<1.000000e-01> : tensor<128xf32>
  util.global private @"__iree_flow_bert/encoder/layer_20/ffn_layer_1/output/dense/kernel" {noinline} = dense<9.99999974E-5> : tensor<512x128xf32>
  util.global private @"__iree_flow_bert/encoder/layer_20/ffn_layer_2/intermediate/dense/bias" = dense<1.000000e-01> : tensor<512xf32>
  util.global private @"__iree_flow_bert/encoder/layer_20/ffn_layer_2/intermediate/dense/kernel" {noinline} = dense<9.99999974E-5> : tensor<128x512xf32>
  util.global private @"__iree_flow_bert/encoder/layer_20/ffn_layer_2/output/FakeLayerNorm/beta" = dense<1.000000e+00> : tensor<128xf32>
  util.global private @"__iree_flow_bert/encoder/layer_20/ffn_layer_2/output/FakeLayerNorm/gamma" = dense<4.000000e-01> : tensor<128xf32>
  util.global private @"__iree_flow_bert/encoder/layer_20/ffn_layer_2/output/dense/bias" = dense<1.000000e-01> : tensor<128xf32>
  util.global private @"__iree_flow_bert/encoder/layer_20/ffn_layer_2/output/dense/kernel" {noinline} = dense<9.99999974E-5> : tensor<512x128xf32>
  util.global private @"__iree_flow_bert/encoder/layer_20/intermediate/dense/bias" = dense<1.000000e-01> : tensor<512xf32>
  util.global private @"__iree_flow_bert/encoder/layer_20/intermediate/dense/kernel" {noinline} = dense<9.99999974E-5> : tensor<128x512xf32>
  util.global private @"__iree_flow_bert/encoder/layer_20/output/FakeLayerNorm/beta" = dense<1.000000e+00> : tensor<128xf32>
  util.global private @"__iree_flow_bert/encoder/layer_20/output/FakeLayerNorm/gamma" = dense<4.000000e-01> : tensor<128xf32>
  util.global private @"__iree_flow_bert/encoder/layer_20/output/bottleneck/FakeLayerNorm/beta" = dense<1.000000e+00> : tensor<512xf32>
  util.global private @"__iree_flow_bert/encoder/layer_20/output/bottleneck/FakeLayerNorm/gamma" = dense<4.000000e-01> : tensor<512xf32>
  util.global private @"__iree_flow_bert/encoder/layer_20/output/bottleneck/dense/bias" = dense<1.000000e-01> : tensor<512xf32>
  util.global private @"__iree_flow_bert/encoder/layer_20/output/bottleneck/dense/kernel" {noinline} = dense<9.99999974E-5> : tensor<128x512xf32>
  util.global private @"__iree_flow_bert/encoder/layer_20/output/dense/bias" = dense<1.000000e-01> : tensor<128xf32>
  util.global private @"__iree_flow_bert/encoder/layer_20/output/dense/kernel" {noinline} = dense<9.99999974E-5> : tensor<512x128xf32>
  util.global private @"__iree_flow_bert/encoder/layer_21/attention/output/FakeLayerNorm/beta" = dense<1.000000e+00> : tensor<128xf32>
  util.global private @"__iree_flow_bert/encoder/layer_21/attention/output/FakeLayerNorm/gamma" = dense<4.000000e-01> : tensor<128xf32>
  util.global private @"__iree_flow_bert/encoder/layer_21/attention/output/dense/bias" = dense<1.000000e-01> : tensor<128xf32>
  util.global private @"__iree_flow_bert/encoder/layer_21/attention/output/dense/kernel" {noinline} = dense<9.99999974E-5> : tensor<128x128xf32>
  util.global private @"__iree_flow_bert/encoder/layer_21/attention/self/key/bias" = dense<1.000000e-01> : tensor<128xf32>
  util.global private @"__iree_flow_bert/encoder/layer_21/attention/self/key/kernel" {noinline} = dense<9.99999974E-5> : tensor<128x128xf32>
  util.global private @"__iree_flow_bert/encoder/layer_21/attention/self/query/bias" = dense<1.000000e-01> : tensor<128xf32>
  util.global private @"__iree_flow_bert/encoder/layer_21/attention/self/query/kernel" {noinline} = dense<9.99999974E-5> : tensor<128x128xf32>
  util.global private @"__iree_flow_bert/encoder/layer_21/attention/self/value/bias" = dense<1.000000e-01> : tensor<128xf32>
  util.global private @"__iree_flow_bert/encoder/layer_21/attention/self/value/kernel" {noinline} = dense<9.99999974E-5> : tensor<512x128xf32>
  util.global private @"__iree_flow_bert/encoder/layer_21/bottleneck/attention/FakeLayerNorm/beta" = dense<1.000000e+00> : tensor<128xf32>
  util.global private @"__iree_flow_bert/encoder/layer_21/bottleneck/attention/FakeLayerNorm/gamma" = dense<4.000000e-01> : tensor<128xf32>
  util.global private @"__iree_flow_bert/encoder/layer_21/bottleneck/attention/dense/bias" = dense<1.000000e-01> : tensor<128xf32>
  util.global private @"__iree_flow_bert/encoder/layer_21/bottleneck/attention/dense/kernel" {noinline} = dense<9.99999974E-5> : tensor<512x128xf32>
  util.global private @"__iree_flow_bert/encoder/layer_21/bottleneck/input/FakeLayerNorm/beta" = dense<1.000000e+00> : tensor<128xf32>
  util.global private @"__iree_flow_bert/encoder/layer_21/bottleneck/input/FakeLayerNorm/gamma" = dense<4.000000e-01> : tensor<128xf32>
  util.global private @"__iree_flow_bert/encoder/layer_21/bottleneck/input/dense/bias" = dense<1.000000e-01> : tensor<128xf32>
  util.global private @"__iree_flow_bert/encoder/layer_21/bottleneck/input/dense/kernel" {noinline} = dense<9.99999974E-5> : tensor<512x128xf32>
  util.global private @"__iree_flow_bert/encoder/layer_21/ffn_layer_0/intermediate/dense/bias" = dense<1.000000e-01> : tensor<512xf32>
  util.global private @"__iree_flow_bert/encoder/layer_21/ffn_layer_0/intermediate/dense/kernel" {noinline} = dense<9.99999974E-5> : tensor<128x512xf32>
  util.global private @"__iree_flow_bert/encoder/layer_21/ffn_layer_0/output/FakeLayerNorm/beta" = dense<1.000000e+00> : tensor<128xf32>
  util.global private @"__iree_flow_bert/encoder/layer_21/ffn_layer_0/output/FakeLayerNorm/gamma" = dense<4.000000e-01> : tensor<128xf32>
  util.global private @"__iree_flow_bert/encoder/layer_21/ffn_layer_0/output/dense/bias" = dense<1.000000e-01> : tensor<128xf32>
  util.global private @"__iree_flow_bert/encoder/layer_21/ffn_layer_0/output/dense/kernel" {noinline} = dense<9.99999974E-5> : tensor<512x128xf32>
  util.global private @"__iree_flow_bert/encoder/layer_21/ffn_layer_1/intermediate/dense/bias" = dense<1.000000e-01> : tensor<512xf32>
  util.global private @"__iree_flow_bert/encoder/layer_21/ffn_layer_1/intermediate/dense/kernel" {noinline} = dense<9.99999974E-5> : tensor<128x512xf32>
  util.global private @"__iree_flow_bert/encoder/layer_21/ffn_layer_1/output/FakeLayerNorm/beta" = dense<1.000000e+00> : tensor<128xf32>
  util.global private @"__iree_flow_bert/encoder/layer_21/ffn_layer_1/output/FakeLayerNorm/gamma" = dense<4.000000e-01> : tensor<128xf32>
  util.global private @"__iree_flow_bert/encoder/layer_21/ffn_layer_1/output/dense/bias" = dense<1.000000e-01> : tensor<128xf32>
  util.global private @"__iree_flow_bert/encoder/layer_21/ffn_layer_1/output/dense/kernel" {noinline} = dense<9.99999974E-5> : tensor<512x128xf32>
  util.global private @"__iree_flow_bert/encoder/layer_21/ffn_layer_2/intermediate/dense/bias" = dense<1.000000e-01> : tensor<512xf32>
  util.global private @"__iree_flow_bert/encoder/layer_21/ffn_layer_2/intermediate/dense/kernel" {noinline} = dense<9.99999974E-5> : tensor<128x512xf32>
  util.global private @"__iree_flow_bert/encoder/layer_21/ffn_layer_2/output/FakeLayerNorm/beta" = dense<1.000000e+00> : tensor<128xf32>
  util.global private @"__iree_flow_bert/encoder/layer_21/ffn_layer_2/output/FakeLayerNorm/gamma" = dense<4.000000e-01> : tensor<128xf32>
  util.global private @"__iree_flow_bert/encoder/layer_21/ffn_layer_2/output/dense/bias" = dense<1.000000e-01> : tensor<128xf32>
  util.global private @"__iree_flow_bert/encoder/layer_21/ffn_layer_2/output/dense/kernel" {noinline} = dense<9.99999974E-5> : tensor<512x128xf32>
  util.global private @"__iree_flow_bert/encoder/layer_21/intermediate/dense/bias" = dense<1.000000e-01> : tensor<512xf32>
  util.global private @"__iree_flow_bert/encoder/layer_21/intermediate/dense/kernel" {noinline} = dense<9.99999974E-5> : tensor<128x512xf32>
  util.global private @"__iree_flow_bert/encoder/layer_21/output/FakeLayerNorm/beta" = dense<1.000000e+00> : tensor<128xf32>
  util.global private @"__iree_flow_bert/encoder/layer_21/output/FakeLayerNorm/gamma" = dense<4.000000e-01> : tensor<128xf32>
  util.global private @"__iree_flow_bert/encoder/layer_21/output/bottleneck/FakeLayerNorm/beta" = dense<1.000000e+00> : tensor<512xf32>
  util.global private @"__iree_flow_bert/encoder/layer_21/output/bottleneck/FakeLayerNorm/gamma" = dense<4.000000e-01> : tensor<512xf32>
  util.global private @"__iree_flow_bert/encoder/layer_21/output/bottleneck/dense/bias" = dense<1.000000e-01> : tensor<512xf32>
  util.global private @"__iree_flow_bert/encoder/layer_21/output/bottleneck/dense/kernel" {noinline} = dense<9.99999974E-5> : tensor<128x512xf32>
  util.global private @"__iree_flow_bert/encoder/layer_21/output/dense/bias" = dense<1.000000e-01> : tensor<128xf32>
  util.global private @"__iree_flow_bert/encoder/layer_21/output/dense/kernel" {noinline} = dense<9.99999974E-5> : tensor<512x128xf32>
  util.global private @"__iree_flow_bert/encoder/layer_22/attention/output/FakeLayerNorm/beta" = dense<1.000000e+00> : tensor<128xf32>
  util.global private @"__iree_flow_bert/encoder/layer_22/attention/output/FakeLayerNorm/gamma" = dense<4.000000e-01> : tensor<128xf32>
  util.global private @"__iree_flow_bert/encoder/layer_22/attention/output/dense/bias" = dense<1.000000e-01> : tensor<128xf32>
  util.global private @"__iree_flow_bert/encoder/layer_22/attention/output/dense/kernel" {noinline} = dense<9.99999974E-5> : tensor<128x128xf32>
  util.global private @"__iree_flow_bert/encoder/layer_22/attention/self/key/bias" = dense<1.000000e-01> : tensor<128xf32>
  util.global private @"__iree_flow_bert/encoder/layer_22/attention/self/key/kernel" {noinline} = dense<9.99999974E-5> : tensor<128x128xf32>
  util.global private @"__iree_flow_bert/encoder/layer_22/attention/self/query/bias" = dense<1.000000e-01> : tensor<128xf32>
  util.global private @"__iree_flow_bert/encoder/layer_22/attention/self/query/kernel" {noinline} = dense<9.99999974E-5> : tensor<128x128xf32>
  util.global private @"__iree_flow_bert/encoder/layer_22/attention/self/value/bias" = dense<1.000000e-01> : tensor<128xf32>
  util.global private @"__iree_flow_bert/encoder/layer_22/attention/self/value/kernel" {noinline} = dense<9.99999974E-5> : tensor<512x128xf32>
  util.global private @"__iree_flow_bert/encoder/layer_22/bottleneck/attention/FakeLayerNorm/beta" = dense<1.000000e+00> : tensor<128xf32>
  util.global private @"__iree_flow_bert/encoder/layer_22/bottleneck/attention/FakeLayerNorm/gamma" = dense<4.000000e-01> : tensor<128xf32>
  util.global private @"__iree_flow_bert/encoder/layer_22/bottleneck/attention/dense/bias" = dense<1.000000e-01> : tensor<128xf32>
  util.global private @"__iree_flow_bert/encoder/layer_22/bottleneck/attention/dense/kernel" {noinline} = dense<9.99999974E-5> : tensor<512x128xf32>
  util.global private @"__iree_flow_bert/encoder/layer_22/bottleneck/input/FakeLayerNorm/beta" = dense<1.000000e+00> : tensor<128xf32>
  util.global private @"__iree_flow_bert/encoder/layer_22/bottleneck/input/FakeLayerNorm/gamma" = dense<4.000000e-01> : tensor<128xf32>
  util.global private @"__iree_flow_bert/encoder/layer_22/bottleneck/input/dense/bias" = dense<1.000000e-01> : tensor<128xf32>
  util.global private @"__iree_flow_bert/encoder/layer_22/bottleneck/input/dense/kernel" {noinline} = dense<9.99999974E-5> : tensor<512x128xf32>
  util.global private @"__iree_flow_bert/encoder/layer_22/ffn_layer_0/intermediate/dense/bias" = dense<1.000000e-01> : tensor<512xf32>
  util.global private @"__iree_flow_bert/encoder/layer_22/ffn_layer_0/intermediate/dense/kernel" {noinline} = dense<9.99999974E-5> : tensor<128x512xf32>
  util.global private @"__iree_flow_bert/encoder/layer_22/ffn_layer_0/output/FakeLayerNorm/beta" = dense<1.000000e+00> : tensor<128xf32>
  util.global private @"__iree_flow_bert/encoder/layer_22/ffn_layer_0/output/FakeLayerNorm/gamma" = dense<4.000000e-01> : tensor<128xf32>
  util.global private @"__iree_flow_bert/encoder/layer_22/ffn_layer_0/output/dense/bias" = dense<1.000000e-01> : tensor<128xf32>
  util.global private @"__iree_flow_bert/encoder/layer_22/ffn_layer_0/output/dense/kernel" {noinline} = dense<9.99999974E-5> : tensor<512x128xf32>
  util.global private @"__iree_flow_bert/encoder/layer_22/ffn_layer_1/intermediate/dense/bias" = dense<1.000000e-01> : tensor<512xf32>
  util.global private @"__iree_flow_bert/encoder/layer_22/ffn_layer_1/intermediate/dense/kernel" {noinline} = dense<9.99999974E-5> : tensor<128x512xf32>
  util.global private @"__iree_flow_bert/encoder/layer_22/ffn_layer_1/output/FakeLayerNorm/beta" = dense<1.000000e+00> : tensor<128xf32>
  util.global private @"__iree_flow_bert/encoder/layer_22/ffn_layer_1/output/FakeLayerNorm/gamma" = dense<4.000000e-01> : tensor<128xf32>
  util.global private @"__iree_flow_bert/encoder/layer_22/ffn_layer_1/output/dense/bias" = dense<1.000000e-01> : tensor<128xf32>
  util.global private @"__iree_flow_bert/encoder/layer_22/ffn_layer_1/output/dense/kernel" {noinline} = dense<9.99999974E-5> : tensor<512x128xf32>
  util.global private @"__iree_flow_bert/encoder/layer_22/ffn_layer_2/intermediate/dense/bias" = dense<1.000000e-01> : tensor<512xf32>
  util.global private @"__iree_flow_bert/encoder/layer_22/ffn_layer_2/intermediate/dense/kernel" {noinline} = dense<9.99999974E-5> : tensor<128x512xf32>
  util.global private @"__iree_flow_bert/encoder/layer_22/ffn_layer_2/output/FakeLayerNorm/beta" = dense<1.000000e+00> : tensor<128xf32>
  util.global private @"__iree_flow_bert/encoder/layer_22/ffn_layer_2/output/FakeLayerNorm/gamma" = dense<4.000000e-01> : tensor<128xf32>
  util.global private @"__iree_flow_bert/encoder/layer_22/ffn_layer_2/output/dense/bias" = dense<1.000000e-01> : tensor<128xf32>
  util.global private @"__iree_flow_bert/encoder/layer_22/ffn_layer_2/output/dense/kernel" {noinline} = dense<9.99999974E-5> : tensor<512x128xf32>
  util.global private @"__iree_flow_bert/encoder/layer_22/intermediate/dense/bias" = dense<1.000000e-01> : tensor<512xf32>
  util.global private @"__iree_flow_bert/encoder/layer_22/intermediate/dense/kernel" {noinline} = dense<9.99999974E-5> : tensor<128x512xf32>
  util.global private @"__iree_flow_bert/encoder/layer_22/output/FakeLayerNorm/beta" = dense<1.000000e+00> : tensor<128xf32>
  util.global private @"__iree_flow_bert/encoder/layer_22/output/FakeLayerNorm/gamma" = dense<4.000000e-01> : tensor<128xf32>
  util.global private @"__iree_flow_bert/encoder/layer_22/output/bottleneck/FakeLayerNorm/beta" = dense<1.000000e+00> : tensor<512xf32>
  util.global private @"__iree_flow_bert/encoder/layer_22/output/bottleneck/FakeLayerNorm/gamma" = dense<4.000000e-01> : tensor<512xf32>
  util.global private @"__iree_flow_bert/encoder/layer_22/output/bottleneck/dense/bias" = dense<1.000000e-01> : tensor<512xf32>
  util.global private @"__iree_flow_bert/encoder/layer_22/output/bottleneck/dense/kernel" {noinline} = dense<9.99999974E-5> : tensor<128x512xf32>
  util.global private @"__iree_flow_bert/encoder/layer_22/output/dense/bias" = dense<1.000000e-01> : tensor<128xf32>
  util.global private @"__iree_flow_bert/encoder/layer_22/output/dense/kernel" {noinline} = dense<9.99999974E-5> : tensor<512x128xf32>
  util.global private @"__iree_flow_bert/encoder/layer_23/attention/output/FakeLayerNorm/beta" = dense<1.000000e+00> : tensor<128xf32>
  util.global private @"__iree_flow_bert/encoder/layer_23/attention/output/FakeLayerNorm/gamma" = dense<4.000000e-01> : tensor<128xf32>
  util.global private @"__iree_flow_bert/encoder/layer_23/attention/output/dense/bias" = dense<1.000000e-01> : tensor<128xf32>
  util.global private @"__iree_flow_bert/encoder/layer_23/attention/output/dense/kernel" {noinline} = dense<9.99999974E-5> : tensor<128x128xf32>
  util.global private @"__iree_flow_bert/encoder/layer_23/attention/self/key/bias" = dense<1.000000e-01> : tensor<128xf32>
  util.global private @"__iree_flow_bert/encoder/layer_23/attention/self/key/kernel" {noinline} = dense<9.99999974E-5> : tensor<128x128xf32>
  util.global private @"__iree_flow_bert/encoder/layer_23/attention/self/query/bias" = dense<1.000000e-01> : tensor<128xf32>
  util.global private @"__iree_flow_bert/encoder/layer_23/attention/self/query/kernel" {noinline} = dense<9.99999974E-5> : tensor<128x128xf32>
  util.global private @"__iree_flow_bert/encoder/layer_23/attention/self/value/bias" = dense<1.000000e-01> : tensor<128xf32>
  util.global private @"__iree_flow_bert/encoder/layer_23/attention/self/value/kernel" {noinline} = dense<9.99999974E-5> : tensor<512x128xf32>
  util.global private @"__iree_flow_bert/encoder/layer_23/bottleneck/attention/FakeLayerNorm/beta" = dense<1.000000e+00> : tensor<128xf32>
  util.global private @"__iree_flow_bert/encoder/layer_23/bottleneck/attention/FakeLayerNorm/gamma" = dense<4.000000e-01> : tensor<128xf32>
  util.global private @"__iree_flow_bert/encoder/layer_23/bottleneck/attention/dense/bias" = dense<1.000000e-01> : tensor<128xf32>
  util.global private @"__iree_flow_bert/encoder/layer_23/bottleneck/attention/dense/kernel" {noinline} = dense<9.99999974E-5> : tensor<512x128xf32>
  util.global private @"__iree_flow_bert/encoder/layer_23/bottleneck/input/FakeLayerNorm/beta" = dense<1.000000e+00> : tensor<128xf32>
  util.global private @"__iree_flow_bert/encoder/layer_23/bottleneck/input/FakeLayerNorm/gamma" = dense<4.000000e-01> : tensor<128xf32>
  util.global private @"__iree_flow_bert/encoder/layer_23/bottleneck/input/dense/bias" = dense<1.000000e-01> : tensor<128xf32>
  util.global private @"__iree_flow_bert/encoder/layer_23/bottleneck/input/dense/kernel" {noinline} = dense<9.99999974E-5> : tensor<512x128xf32>
  util.global private @"__iree_flow_bert/encoder/layer_23/ffn_layer_0/intermediate/dense/bias" = dense<1.000000e-01> : tensor<512xf32>
  util.global private @"__iree_flow_bert/encoder/layer_23/ffn_layer_0/intermediate/dense/kernel" {noinline} = dense<9.99999974E-5> : tensor<128x512xf32>
  util.global private @"__iree_flow_bert/encoder/layer_23/ffn_layer_0/output/FakeLayerNorm/beta" = dense<1.000000e+00> : tensor<128xf32>
  util.global private @"__iree_flow_bert/encoder/layer_23/ffn_layer_0/output/FakeLayerNorm/gamma" = dense<4.000000e-01> : tensor<128xf32>
  util.global private @"__iree_flow_bert/encoder/layer_23/ffn_layer_0/output/dense/bias" = dense<1.000000e-01> : tensor<128xf32>
  util.global private @"__iree_flow_bert/encoder/layer_23/ffn_layer_0/output/dense/kernel" {noinline} = dense<9.99999974E-5> : tensor<512x128xf32>
  util.global private @"__iree_flow_bert/encoder/layer_23/ffn_layer_1/intermediate/dense/bias" = dense<1.000000e-01> : tensor<512xf32>
  util.global private @"__iree_flow_bert/encoder/layer_23/ffn_layer_1/intermediate/dense/kernel" {noinline} = dense<9.99999974E-5> : tensor<128x512xf32>
  util.global private @"__iree_flow_bert/encoder/layer_23/ffn_layer_1/output/FakeLayerNorm/beta" = dense<1.000000e+00> : tensor<128xf32>
  util.global private @"__iree_flow_bert/encoder/layer_23/ffn_layer_1/output/FakeLayerNorm/gamma" = dense<4.000000e-01> : tensor<128xf32>
  util.global private @"__iree_flow_bert/encoder/layer_23/ffn_layer_1/output/dense/bias" = dense<1.000000e-01> : tensor<128xf32>
  util.global private @"__iree_flow_bert/encoder/layer_23/ffn_layer_1/output/dense/kernel" {noinline} = dense<9.99999974E-5> : tensor<512x128xf32>
  util.global private @"__iree_flow_bert/encoder/layer_23/ffn_layer_2/intermediate/dense/bias" = dense<1.000000e-01> : tensor<512xf32>
  util.global private @"__iree_flow_bert/encoder/layer_23/ffn_layer_2/intermediate/dense/kernel" {noinline} = dense<9.99999974E-5> : tensor<128x512xf32>
  util.global private @"__iree_flow_bert/encoder/layer_23/ffn_layer_2/output/FakeLayerNorm/beta" = dense<1.000000e+00> : tensor<128xf32>
  util.global private @"__iree_flow_bert/encoder/layer_23/ffn_layer_2/output/FakeLayerNorm/gamma" = dense<4.000000e-01> : tensor<128xf32>
  util.global private @"__iree_flow_bert/encoder/layer_23/ffn_layer_2/output/dense/bias" = dense<1.000000e-01> : tensor<128xf32>
  util.global private @"__iree_flow_bert/encoder/layer_23/ffn_layer_2/output/dense/kernel" {noinline} = dense<9.99999974E-5> : tensor<512x128xf32>
  util.global private @"__iree_flow_bert/encoder/layer_23/intermediate/dense/bias" = dense<1.000000e-01> : tensor<512xf32>
  util.global private @"__iree_flow_bert/encoder/layer_23/intermediate/dense/kernel" {noinline} = dense<9.99999974E-5> : tensor<128x512xf32>
  util.global private @"__iree_flow_bert/encoder/layer_23/output/FakeLayerNorm/beta" = dense<1.000000e+00> : tensor<128xf32>
  util.global private @"__iree_flow_bert/encoder/layer_23/output/FakeLayerNorm/gamma" = dense<4.000000e-01> : tensor<128xf32>
  util.global private @"__iree_flow_bert/encoder/layer_23/output/bottleneck/FakeLayerNorm/beta" = dense<1.000000e+00> : tensor<512xf32>
  util.global private @"__iree_flow_bert/encoder/layer_23/output/bottleneck/FakeLayerNorm/gamma" = dense<4.000000e-01> : tensor<512xf32>
  util.global private @"__iree_flow_bert/encoder/layer_23/output/bottleneck/dense/bias" = dense<1.000000e-01> : tensor<512xf32>
  util.global private @"__iree_flow_bert/encoder/layer_23/output/bottleneck/dense/kernel" {noinline} = dense<9.99999974E-5> : tensor<128x512xf32>
  util.global private @"__iree_flow_bert/encoder/layer_23/output/dense/bias" = dense<1.000000e-01> : tensor<128xf32>
  util.global private @"__iree_flow_bert/encoder/layer_23/output/dense/kernel" {noinline} = dense<9.99999974E-5> : tensor<512x128xf32>
  util.global private @"__iree_flow_bert/encoder/layer_3/attention/output/FakeLayerNorm/beta" = dense<1.000000e+00> : tensor<128xf32>
  util.global private @"__iree_flow_bert/encoder/layer_3/attention/output/FakeLayerNorm/gamma" = dense<4.000000e-01> : tensor<128xf32>
  util.global private @"__iree_flow_bert/encoder/layer_3/attention/output/dense/bias" = dense<1.000000e-01> : tensor<128xf32>
  util.global private @"__iree_flow_bert/encoder/layer_3/attention/output/dense/kernel" {noinline} = dense<9.99999974E-5> : tensor<128x128xf32>
  util.global private @"__iree_flow_bert/encoder/layer_3/attention/self/key/bias" = dense<1.000000e-01> : tensor<128xf32>
  util.global private @"__iree_flow_bert/encoder/layer_3/attention/self/key/kernel" {noinline} = dense<9.99999974E-5> : tensor<128x128xf32>
  util.global private @"__iree_flow_bert/encoder/layer_3/attention/self/query/bias" = dense<1.000000e-01> : tensor<128xf32>
  util.global private @"__iree_flow_bert/encoder/layer_3/attention/self/query/kernel" {noinline} = dense<9.99999974E-5> : tensor<128x128xf32>
  util.global private @"__iree_flow_bert/encoder/layer_3/attention/self/value/bias" = dense<1.000000e-01> : tensor<128xf32>
  util.global private @"__iree_flow_bert/encoder/layer_3/attention/self/value/kernel" {noinline} = dense<9.99999974E-5> : tensor<512x128xf32>
  util.global private @"__iree_flow_bert/encoder/layer_3/bottleneck/attention/FakeLayerNorm/beta" = dense<1.000000e+00> : tensor<128xf32>
  util.global private @"__iree_flow_bert/encoder/layer_3/bottleneck/attention/FakeLayerNorm/gamma" = dense<4.000000e-01> : tensor<128xf32>
  util.global private @"__iree_flow_bert/encoder/layer_3/bottleneck/attention/dense/bias" = dense<1.000000e-01> : tensor<128xf32>
  util.global private @"__iree_flow_bert/encoder/layer_3/bottleneck/attention/dense/kernel" {noinline} = dense<9.99999974E-5> : tensor<512x128xf32>
  util.global private @"__iree_flow_bert/encoder/layer_3/bottleneck/input/FakeLayerNorm/beta" = dense<1.000000e+00> : tensor<128xf32>
  util.global private @"__iree_flow_bert/encoder/layer_3/bottleneck/input/FakeLayerNorm/gamma" = dense<4.000000e-01> : tensor<128xf32>
  util.global private @"__iree_flow_bert/encoder/layer_3/bottleneck/input/dense/bias" = dense<1.000000e-01> : tensor<128xf32>
  util.global private @"__iree_flow_bert/encoder/layer_3/bottleneck/input/dense/kernel" {noinline} = dense<9.99999974E-5> : tensor<512x128xf32>
  util.global private @"__iree_flow_bert/encoder/layer_3/ffn_layer_0/intermediate/dense/bias" = dense<1.000000e-01> : tensor<512xf32>
  util.global private @"__iree_flow_bert/encoder/layer_3/ffn_layer_0/intermediate/dense/kernel" {noinline} = dense<9.99999974E-5> : tensor<128x512xf32>
  util.global private @"__iree_flow_bert/encoder/layer_3/ffn_layer_0/output/FakeLayerNorm/beta" = dense<1.000000e+00> : tensor<128xf32>
  util.global private @"__iree_flow_bert/encoder/layer_3/ffn_layer_0/output/FakeLayerNorm/gamma" = dense<4.000000e-01> : tensor<128xf32>
  util.global private @"__iree_flow_bert/encoder/layer_3/ffn_layer_0/output/dense/bias" = dense<1.000000e-01> : tensor<128xf32>
  util.global private @"__iree_flow_bert/encoder/layer_3/ffn_layer_0/output/dense/kernel" {noinline} = dense<9.99999974E-5> : tensor<512x128xf32>
  util.global private @"__iree_flow_bert/encoder/layer_3/ffn_layer_1/intermediate/dense/bias" = dense<1.000000e-01> : tensor<512xf32>
  util.global private @"__iree_flow_bert/encoder/layer_3/ffn_layer_1/intermediate/dense/kernel" {noinline} = dense<9.99999974E-5> : tensor<128x512xf32>
  util.global private @"__iree_flow_bert/encoder/layer_3/ffn_layer_1/output/FakeLayerNorm/beta" = dense<1.000000e+00> : tensor<128xf32>
  util.global private @"__iree_flow_bert/encoder/layer_3/ffn_layer_1/output/FakeLayerNorm/gamma" = dense<4.000000e-01> : tensor<128xf32>
  util.global private @"__iree_flow_bert/encoder/layer_3/ffn_layer_1/output/dense/bias" = dense<1.000000e-01> : tensor<128xf32>
  util.global private @"__iree_flow_bert/encoder/layer_3/ffn_layer_1/output/dense/kernel" {noinline} = dense<9.99999974E-5> : tensor<512x128xf32>
  util.global private @"__iree_flow_bert/encoder/layer_3/ffn_layer_2/intermediate/dense/bias" = dense<1.000000e-01> : tensor<512xf32>
  util.global private @"__iree_flow_bert/encoder/layer_3/ffn_layer_2/intermediate/dense/kernel" {noinline} = dense<9.99999974E-5> : tensor<128x512xf32>
  util.global private @"__iree_flow_bert/encoder/layer_3/ffn_layer_2/output/FakeLayerNorm/beta" = dense<1.000000e+00> : tensor<128xf32>
  util.global private @"__iree_flow_bert/encoder/layer_3/ffn_layer_2/output/FakeLayerNorm/gamma" = dense<4.000000e-01> : tensor<128xf32>
  util.global private @"__iree_flow_bert/encoder/layer_3/ffn_layer_2/output/dense/bias" = dense<1.000000e-01> : tensor<128xf32>
  util.global private @"__iree_flow_bert/encoder/layer_3/ffn_layer_2/output/dense/kernel" {noinline} = dense<9.99999974E-5> : tensor<512x128xf32>
  util.global private @"__iree_flow_bert/encoder/layer_3/intermediate/dense/bias" = dense<1.000000e-01> : tensor<512xf32>
  util.global private @"__iree_flow_bert/encoder/layer_3/intermediate/dense/kernel" {noinline} = dense<9.99999974E-5> : tensor<128x512xf32>
  util.global private @"__iree_flow_bert/encoder/layer_3/output/FakeLayerNorm/beta" = dense<1.000000e+00> : tensor<128xf32>
  util.global private @"__iree_flow_bert/encoder/layer_3/output/FakeLayerNorm/gamma" = dense<4.000000e-01> : tensor<128xf32>
  util.global private @"__iree_flow_bert/encoder/layer_3/output/bottleneck/FakeLayerNorm/beta" = dense<1.000000e+00> : tensor<512xf32>
  util.global private @"__iree_flow_bert/encoder/layer_3/output/bottleneck/FakeLayerNorm/gamma" = dense<4.000000e-01> : tensor<512xf32>
  util.global private @"__iree_flow_bert/encoder/layer_3/output/bottleneck/dense/bias" = dense<1.000000e-01> : tensor<512xf32>
  util.global private @"__iree_flow_bert/encoder/layer_3/output/bottleneck/dense/kernel" {noinline} = dense<9.99999974E-5> : tensor<128x512xf32>
  util.global private @"__iree_flow_bert/encoder/layer_3/output/dense/bias" = dense<1.000000e-01> : tensor<128xf32>
  util.global private @"__iree_flow_bert/encoder/layer_3/output/dense/kernel" {noinline} = dense<9.99999974E-5> : tensor<512x128xf32>
  util.global private @"__iree_flow_bert/encoder/layer_4/attention/output/FakeLayerNorm/beta" = dense<1.000000e+00> : tensor<128xf32>
  util.global private @"__iree_flow_bert/encoder/layer_4/attention/output/FakeLayerNorm/gamma" = dense<4.000000e-01> : tensor<128xf32>
  util.global private @"__iree_flow_bert/encoder/layer_4/attention/output/dense/bias" = dense<1.000000e-01> : tensor<128xf32>
  util.global private @"__iree_flow_bert/encoder/layer_4/attention/output/dense/kernel" {noinline} = dense<9.99999974E-5> : tensor<128x128xf32>
  util.global private @"__iree_flow_bert/encoder/layer_4/attention/self/key/bias" = dense<1.000000e-01> : tensor<128xf32>
  util.global private @"__iree_flow_bert/encoder/layer_4/attention/self/key/kernel" {noinline} = dense<9.99999974E-5> : tensor<128x128xf32>
  util.global private @"__iree_flow_bert/encoder/layer_4/attention/self/query/bias" = dense<1.000000e-01> : tensor<128xf32>
  util.global private @"__iree_flow_bert/encoder/layer_4/attention/self/query/kernel" {noinline} = dense<9.99999974E-5> : tensor<128x128xf32>
  util.global private @"__iree_flow_bert/encoder/layer_4/attention/self/value/bias" = dense<1.000000e-01> : tensor<128xf32>
  util.global private @"__iree_flow_bert/encoder/layer_4/attention/self/value/kernel" {noinline} = dense<9.99999974E-5> : tensor<512x128xf32>
  util.global private @"__iree_flow_bert/encoder/layer_4/bottleneck/attention/FakeLayerNorm/beta" = dense<1.000000e+00> : tensor<128xf32>
  util.global private @"__iree_flow_bert/encoder/layer_4/bottleneck/attention/FakeLayerNorm/gamma" = dense<4.000000e-01> : tensor<128xf32>
  util.global private @"__iree_flow_bert/encoder/layer_4/bottleneck/attention/dense/bias" = dense<1.000000e-01> : tensor<128xf32>
  util.global private @"__iree_flow_bert/encoder/layer_4/bottleneck/attention/dense/kernel" {noinline} = dense<9.99999974E-5> : tensor<512x128xf32>
  util.global private @"__iree_flow_bert/encoder/layer_4/bottleneck/input/FakeLayerNorm/beta" = dense<1.000000e+00> : tensor<128xf32>
  util.global private @"__iree_flow_bert/encoder/layer_4/bottleneck/input/FakeLayerNorm/gamma" = dense<4.000000e-01> : tensor<128xf32>
  util.global private @"__iree_flow_bert/encoder/layer_4/bottleneck/input/dense/bias" = dense<1.000000e-01> : tensor<128xf32>
  util.global private @"__iree_flow_bert/encoder/layer_4/bottleneck/input/dense/kernel" {noinline} = dense<9.99999974E-5> : tensor<512x128xf32>
  util.global private @"__iree_flow_bert/encoder/layer_4/ffn_layer_0/intermediate/dense/bias" = dense<1.000000e-01> : tensor<512xf32>
  util.global private @"__iree_flow_bert/encoder/layer_4/ffn_layer_0/intermediate/dense/kernel" {noinline} = dense<9.99999974E-5> : tensor<128x512xf32>
  util.global private @"__iree_flow_bert/encoder/layer_4/ffn_layer_0/output/FakeLayerNorm/beta" = dense<1.000000e+00> : tensor<128xf32>
  util.global private @"__iree_flow_bert/encoder/layer_4/ffn_layer_0/output/FakeLayerNorm/gamma" = dense<4.000000e-01> : tensor<128xf32>
  util.global private @"__iree_flow_bert/encoder/layer_4/ffn_layer_0/output/dense/bias" = dense<1.000000e-01> : tensor<128xf32>
  util.global private @"__iree_flow_bert/encoder/layer_4/ffn_layer_0/output/dense/kernel" {noinline} = dense<9.99999974E-5> : tensor<512x128xf32>
  util.global private @"__iree_flow_bert/encoder/layer_4/ffn_layer_1/intermediate/dense/bias" = dense<1.000000e-01> : tensor<512xf32>
  util.global private @"__iree_flow_bert/encoder/layer_4/ffn_layer_1/intermediate/dense/kernel" {noinline} = dense<9.99999974E-5> : tensor<128x512xf32>
  util.global private @"__iree_flow_bert/encoder/layer_4/ffn_layer_1/output/FakeLayerNorm/beta" = dense<1.000000e+00> : tensor<128xf32>
  util.global private @"__iree_flow_bert/encoder/layer_4/ffn_layer_1/output/FakeLayerNorm/gamma" = dense<4.000000e-01> : tensor<128xf32>
  util.global private @"__iree_flow_bert/encoder/layer_4/ffn_layer_1/output/dense/bias" = dense<1.000000e-01> : tensor<128xf32>
  util.global private @"__iree_flow_bert/encoder/layer_4/ffn_layer_1/output/dense/kernel" {noinline} = dense<9.99999974E-5> : tensor<512x128xf32>
  util.global private @"__iree_flow_bert/encoder/layer_4/ffn_layer_2/intermediate/dense/bias" = dense<1.000000e-01> : tensor<512xf32>
  util.global private @"__iree_flow_bert/encoder/layer_4/ffn_layer_2/intermediate/dense/kernel" {noinline} = dense<9.99999974E-5> : tensor<128x512xf32>
  util.global private @"__iree_flow_bert/encoder/layer_4/ffn_layer_2/output/FakeLayerNorm/beta" = dense<1.000000e+00> : tensor<128xf32>
  util.global private @"__iree_flow_bert/encoder/layer_4/ffn_layer_2/output/FakeLayerNorm/gamma" = dense<4.000000e-01> : tensor<128xf32>
  util.global private @"__iree_flow_bert/encoder/layer_4/ffn_layer_2/output/dense/bias" = dense<1.000000e-01> : tensor<128xf32>
  util.global private @"__iree_flow_bert/encoder/layer_4/ffn_layer_2/output/dense/kernel" {noinline} = dense<9.99999974E-5> : tensor<512x128xf32>
  util.global private @"__iree_flow_bert/encoder/layer_4/intermediate/dense/bias" = dense<1.000000e-01> : tensor<512xf32>
  util.global private @"__iree_flow_bert/encoder/layer_4/intermediate/dense/kernel" {noinline} = dense<9.99999974E-5> : tensor<128x512xf32>
  util.global private @"__iree_flow_bert/encoder/layer_4/output/FakeLayerNorm/beta" = dense<1.000000e+00> : tensor<128xf32>
  util.global private @"__iree_flow_bert/encoder/layer_4/output/FakeLayerNorm/gamma" = dense<4.000000e-01> : tensor<128xf32>
  util.global private @"__iree_flow_bert/encoder/layer_4/output/bottleneck/FakeLayerNorm/beta" = dense<1.000000e+00> : tensor<512xf32>
  util.global private @"__iree_flow_bert/encoder/layer_4/output/bottleneck/FakeLayerNorm/gamma" = dense<4.000000e-01> : tensor<512xf32>
  util.global private @"__iree_flow_bert/encoder/layer_4/output/bottleneck/dense/bias" = dense<1.000000e-01> : tensor<512xf32>
  util.global private @"__iree_flow_bert/encoder/layer_4/output/bottleneck/dense/kernel" {noinline} = dense<9.99999974E-5> : tensor<128x512xf32>
  util.global private @"__iree_flow_bert/encoder/layer_4/output/dense/bias" = dense<1.000000e-01> : tensor<128xf32>
  util.global private @"__iree_flow_bert/encoder/layer_4/output/dense/kernel" {noinline} = dense<9.99999974E-5> : tensor<512x128xf32>
  util.global private @"__iree_flow_bert/encoder/layer_5/attention/output/FakeLayerNorm/beta" = dense<1.000000e+00> : tensor<128xf32>
  util.global private @"__iree_flow_bert/encoder/layer_5/attention/output/FakeLayerNorm/gamma" = dense<4.000000e-01> : tensor<128xf32>
  util.global private @"__iree_flow_bert/encoder/layer_5/attention/output/dense/bias" = dense<1.000000e-01> : tensor<128xf32>
  util.global private @"__iree_flow_bert/encoder/layer_5/attention/output/dense/kernel" {noinline} = dense<9.99999974E-5> : tensor<128x128xf32>
  util.global private @"__iree_flow_bert/encoder/layer_5/attention/self/key/bias" = dense<1.000000e-01> : tensor<128xf32>
  util.global private @"__iree_flow_bert/encoder/layer_5/attention/self/key/kernel" {noinline} = dense<9.99999974E-5> : tensor<128x128xf32>
  util.global private @"__iree_flow_bert/encoder/layer_5/attention/self/query/bias" = dense<1.000000e-01> : tensor<128xf32>
  util.global private @"__iree_flow_bert/encoder/layer_5/attention/self/query/kernel" {noinline} = dense<9.99999974E-5> : tensor<128x128xf32>
  util.global private @"__iree_flow_bert/encoder/layer_5/attention/self/value/bias" = dense<1.000000e-01> : tensor<128xf32>
  util.global private @"__iree_flow_bert/encoder/layer_5/attention/self/value/kernel" {noinline} = dense<9.99999974E-5> : tensor<512x128xf32>
  util.global private @"__iree_flow_bert/encoder/layer_5/bottleneck/attention/FakeLayerNorm/beta" = dense<1.000000e+00> : tensor<128xf32>
  util.global private @"__iree_flow_bert/encoder/layer_5/bottleneck/attention/FakeLayerNorm/gamma" = dense<4.000000e-01> : tensor<128xf32>
  util.global private @"__iree_flow_bert/encoder/layer_5/bottleneck/attention/dense/bias" = dense<1.000000e-01> : tensor<128xf32>
  util.global private @"__iree_flow_bert/encoder/layer_5/bottleneck/attention/dense/kernel" {noinline} = dense<9.99999974E-5> : tensor<512x128xf32>
  util.global private @"__iree_flow_bert/encoder/layer_5/bottleneck/input/FakeLayerNorm/beta" = dense<1.000000e+00> : tensor<128xf32>
  util.global private @"__iree_flow_bert/encoder/layer_5/bottleneck/input/FakeLayerNorm/gamma" = dense<4.000000e-01> : tensor<128xf32>
  util.global private @"__iree_flow_bert/encoder/layer_5/bottleneck/input/dense/bias" = dense<1.000000e-01> : tensor<128xf32>
  util.global private @"__iree_flow_bert/encoder/layer_5/bottleneck/input/dense/kernel" {noinline} = dense<9.99999974E-5> : tensor<512x128xf32>
  util.global private @"__iree_flow_bert/encoder/layer_5/ffn_layer_0/intermediate/dense/bias" = dense<1.000000e-01> : tensor<512xf32>
  util.global private @"__iree_flow_bert/encoder/layer_5/ffn_layer_0/intermediate/dense/kernel" {noinline} = dense<9.99999974E-5> : tensor<128x512xf32>
  util.global private @"__iree_flow_bert/encoder/layer_5/ffn_layer_0/output/FakeLayerNorm/beta" = dense<1.000000e+00> : tensor<128xf32>
  util.global private @"__iree_flow_bert/encoder/layer_5/ffn_layer_0/output/FakeLayerNorm/gamma" = dense<4.000000e-01> : tensor<128xf32>
  util.global private @"__iree_flow_bert/encoder/layer_5/ffn_layer_0/output/dense/bias" = dense<1.000000e-01> : tensor<128xf32>
  util.global private @"__iree_flow_bert/encoder/layer_5/ffn_layer_0/output/dense/kernel" {noinline} = dense<9.99999974E-5> : tensor<512x128xf32>
  util.global private @"__iree_flow_bert/encoder/layer_5/ffn_layer_1/intermediate/dense/bias" = dense<1.000000e-01> : tensor<512xf32>
  util.global private @"__iree_flow_bert/encoder/layer_5/ffn_layer_1/intermediate/dense/kernel" {noinline} = dense<9.99999974E-5> : tensor<128x512xf32>
  util.global private @"__iree_flow_bert/encoder/layer_5/ffn_layer_1/output/FakeLayerNorm/beta" = dense<1.000000e+00> : tensor<128xf32>
  util.global private @"__iree_flow_bert/encoder/layer_5/ffn_layer_1/output/FakeLayerNorm/gamma" = dense<4.000000e-01> : tensor<128xf32>
  util.global private @"__iree_flow_bert/encoder/layer_5/ffn_layer_1/output/dense/bias" = dense<1.000000e-01> : tensor<128xf32>
  util.global private @"__iree_flow_bert/encoder/layer_5/ffn_layer_1/output/dense/kernel" {noinline} = dense<9.99999974E-5> : tensor<512x128xf32>
  util.global private @"__iree_flow_bert/encoder/layer_5/ffn_layer_2/intermediate/dense/bias" = dense<1.000000e-01> : tensor<512xf32>
  util.global private @"__iree_flow_bert/encoder/layer_5/ffn_layer_2/intermediate/dense/kernel" {noinline} = dense<9.99999974E-5> : tensor<128x512xf32>
  util.global private @"__iree_flow_bert/encoder/layer_5/ffn_layer_2/output/FakeLayerNorm/beta" = dense<1.000000e+00> : tensor<128xf32>
  util.global private @"__iree_flow_bert/encoder/layer_5/ffn_layer_2/output/FakeLayerNorm/gamma" = dense<4.000000e-01> : tensor<128xf32>
  util.global private @"__iree_flow_bert/encoder/layer_5/ffn_layer_2/output/dense/bias" = dense<1.000000e-01> : tensor<128xf32>
  util.global private @"__iree_flow_bert/encoder/layer_5/ffn_layer_2/output/dense/kernel" {noinline} = dense<9.99999974E-5> : tensor<512x128xf32>
  util.global private @"__iree_flow_bert/encoder/layer_5/intermediate/dense/bias" = dense<1.000000e-01> : tensor<512xf32>
  util.global private @"__iree_flow_bert/encoder/layer_5/intermediate/dense/kernel" {noinline} = dense<9.99999974E-5> : tensor<128x512xf32>
  util.global private @"__iree_flow_bert/encoder/layer_5/output/FakeLayerNorm/beta" = dense<1.000000e+00> : tensor<128xf32>
  util.global private @"__iree_flow_bert/encoder/layer_5/output/FakeLayerNorm/gamma" = dense<4.000000e-01> : tensor<128xf32>
  util.global private @"__iree_flow_bert/encoder/layer_5/output/bottleneck/FakeLayerNorm/beta" = dense<1.000000e+00> : tensor<512xf32>
  util.global private @"__iree_flow_bert/encoder/layer_5/output/bottleneck/FakeLayerNorm/gamma" = dense<4.000000e-01> : tensor<512xf32>
  util.global private @"__iree_flow_bert/encoder/layer_5/output/bottleneck/dense/bias" = dense<1.000000e-01> : tensor<512xf32>
  util.global private @"__iree_flow_bert/encoder/layer_5/output/bottleneck/dense/kernel" {noinline} = dense<9.99999974E-5> : tensor<128x512xf32>
  util.global private @"__iree_flow_bert/encoder/layer_5/output/dense/bias" = dense<1.000000e-01> : tensor<128xf32>
  util.global private @"__iree_flow_bert/encoder/layer_5/output/dense/kernel" {noinline} = dense<9.99999974E-5> : tensor<512x128xf32>
  util.global private @"__iree_flow_bert/encoder/layer_6/attention/output/FakeLayerNorm/beta" = dense<1.000000e+00> : tensor<128xf32>
  util.global private @"__iree_flow_bert/encoder/layer_6/attention/output/FakeLayerNorm/gamma" = dense<4.000000e-01> : tensor<128xf32>
  util.global private @"__iree_flow_bert/encoder/layer_6/attention/output/dense/bias" = dense<1.000000e-01> : tensor<128xf32>
  util.global private @"__iree_flow_bert/encoder/layer_6/attention/output/dense/kernel" {noinline} = dense<9.99999974E-5> : tensor<128x128xf32>
  util.global private @"__iree_flow_bert/encoder/layer_6/attention/self/key/bias" = dense<1.000000e-01> : tensor<128xf32>
  util.global private @"__iree_flow_bert/encoder/layer_6/attention/self/key/kernel" {noinline} = dense<9.99999974E-5> : tensor<128x128xf32>
  util.global private @"__iree_flow_bert/encoder/layer_6/attention/self/query/bias" = dense<1.000000e-01> : tensor<128xf32>
  util.global private @"__iree_flow_bert/encoder/layer_6/attention/self/query/kernel" {noinline} = dense<9.99999974E-5> : tensor<128x128xf32>
  util.global private @"__iree_flow_bert/encoder/layer_6/attention/self/value/bias" = dense<1.000000e-01> : tensor<128xf32>
  util.global private @"__iree_flow_bert/encoder/layer_6/attention/self/value/kernel" {noinline} = dense<9.99999974E-5> : tensor<512x128xf32>
  util.global private @"__iree_flow_bert/encoder/layer_6/bottleneck/attention/FakeLayerNorm/beta" = dense<1.000000e+00> : tensor<128xf32>
  util.global private @"__iree_flow_bert/encoder/layer_6/bottleneck/attention/FakeLayerNorm/gamma" = dense<4.000000e-01> : tensor<128xf32>
  util.global private @"__iree_flow_bert/encoder/layer_6/bottleneck/attention/dense/bias" = dense<1.000000e-01> : tensor<128xf32>
  util.global private @"__iree_flow_bert/encoder/layer_6/bottleneck/attention/dense/kernel" {noinline} = dense<9.99999974E-5> : tensor<512x128xf32>
  util.global private @"__iree_flow_bert/encoder/layer_6/bottleneck/input/FakeLayerNorm/beta" = dense<1.000000e+00> : tensor<128xf32>
  util.global private @"__iree_flow_bert/encoder/layer_6/bottleneck/input/FakeLayerNorm/gamma" = dense<4.000000e-01> : tensor<128xf32>
  util.global private @"__iree_flow_bert/encoder/layer_6/bottleneck/input/dense/bias" = dense<1.000000e-01> : tensor<128xf32>
  util.global private @"__iree_flow_bert/encoder/layer_6/bottleneck/input/dense/kernel" {noinline} = dense<9.99999974E-5> : tensor<512x128xf32>
  util.global private @"__iree_flow_bert/encoder/layer_6/ffn_layer_0/intermediate/dense/bias" = dense<1.000000e-01> : tensor<512xf32>
  util.global private @"__iree_flow_bert/encoder/layer_6/ffn_layer_0/intermediate/dense/kernel" {noinline} = dense<9.99999974E-5> : tensor<128x512xf32>
  util.global private @"__iree_flow_bert/encoder/layer_6/ffn_layer_0/output/FakeLayerNorm/beta" = dense<1.000000e+00> : tensor<128xf32>
  util.global private @"__iree_flow_bert/encoder/layer_6/ffn_layer_0/output/FakeLayerNorm/gamma" = dense<4.000000e-01> : tensor<128xf32>
  util.global private @"__iree_flow_bert/encoder/layer_6/ffn_layer_0/output/dense/bias" = dense<1.000000e-01> : tensor<128xf32>
  util.global private @"__iree_flow_bert/encoder/layer_6/ffn_layer_0/output/dense/kernel" {noinline} = dense<9.99999974E-5> : tensor<512x128xf32>
  util.global private @"__iree_flow_bert/encoder/layer_6/ffn_layer_1/intermediate/dense/bias" = dense<1.000000e-01> : tensor<512xf32>
  util.global private @"__iree_flow_bert/encoder/layer_6/ffn_layer_1/intermediate/dense/kernel" {noinline} = dense<9.99999974E-5> : tensor<128x512xf32>
  util.global private @"__iree_flow_bert/encoder/layer_6/ffn_layer_1/output/FakeLayerNorm/beta" = dense<1.000000e+00> : tensor<128xf32>
  util.global private @"__iree_flow_bert/encoder/layer_6/ffn_layer_1/output/FakeLayerNorm/gamma" = dense<4.000000e-01> : tensor<128xf32>
  util.global private @"__iree_flow_bert/encoder/layer_6/ffn_layer_1/output/dense/bias" = dense<1.000000e-01> : tensor<128xf32>
  util.global private @"__iree_flow_bert/encoder/layer_6/ffn_layer_1/output/dense/kernel" {noinline} = dense<9.99999974E-5> : tensor<512x128xf32>
  util.global private @"__iree_flow_bert/encoder/layer_6/ffn_layer_2/intermediate/dense/bias" = dense<1.000000e-01> : tensor<512xf32>
  util.global private @"__iree_flow_bert/encoder/layer_6/ffn_layer_2/intermediate/dense/kernel" {noinline} = dense<9.99999974E-5> : tensor<128x512xf32>
  util.global private @"__iree_flow_bert/encoder/layer_6/ffn_layer_2/output/FakeLayerNorm/beta" = dense<1.000000e+00> : tensor<128xf32>
  util.global private @"__iree_flow_bert/encoder/layer_6/ffn_layer_2/output/FakeLayerNorm/gamma" = dense<4.000000e-01> : tensor<128xf32>
  util.global private @"__iree_flow_bert/encoder/layer_6/ffn_layer_2/output/dense/bias" = dense<1.000000e-01> : tensor<128xf32>
  util.global private @"__iree_flow_bert/encoder/layer_6/ffn_layer_2/output/dense/kernel" {noinline} = dense<9.99999974E-5> : tensor<512x128xf32>
  util.global private @"__iree_flow_bert/encoder/layer_6/intermediate/dense/bias" = dense<1.000000e-01> : tensor<512xf32>
  util.global private @"__iree_flow_bert/encoder/layer_6/intermediate/dense/kernel" {noinline} = dense<9.99999974E-5> : tensor<128x512xf32>
  util.global private @"__iree_flow_bert/encoder/layer_6/output/FakeLayerNorm/beta" = dense<1.000000e+00> : tensor<128xf32>
  util.global private @"__iree_flow_bert/encoder/layer_6/output/FakeLayerNorm/gamma" = dense<4.000000e-01> : tensor<128xf32>
  util.global private @"__iree_flow_bert/encoder/layer_6/output/bottleneck/FakeLayerNorm/beta" = dense<1.000000e+00> : tensor<512xf32>
  util.global private @"__iree_flow_bert/encoder/layer_6/output/bottleneck/FakeLayerNorm/gamma" = dense<4.000000e-01> : tensor<512xf32>
  util.global private @"__iree_flow_bert/encoder/layer_6/output/bottleneck/dense/bias" = dense<1.000000e-01> : tensor<512xf32>
  util.global private @"__iree_flow_bert/encoder/layer_6/output/bottleneck/dense/kernel" {noinline} = dense<9.99999974E-5> : tensor<128x512xf32>
  util.global private @"__iree_flow_bert/encoder/layer_6/output/dense/bias" = dense<1.000000e-01> : tensor<128xf32>
  util.global private @"__iree_flow_bert/encoder/layer_6/output/dense/kernel" {noinline} = dense<9.99999974E-5> : tensor<512x128xf32>
  util.global private @"__iree_flow_bert/encoder/layer_7/attention/output/FakeLayerNorm/beta" = dense<1.000000e+00> : tensor<128xf32>
  util.global private @"__iree_flow_bert/encoder/layer_7/attention/output/FakeLayerNorm/gamma" = dense<4.000000e-01> : tensor<128xf32>
  util.global private @"__iree_flow_bert/encoder/layer_7/attention/output/dense/bias" = dense<1.000000e-01> : tensor<128xf32>
  util.global private @"__iree_flow_bert/encoder/layer_7/attention/output/dense/kernel" {noinline} = dense<9.99999974E-5> : tensor<128x128xf32>
  util.global private @"__iree_flow_bert/encoder/layer_7/attention/self/key/bias" = dense<1.000000e-01> : tensor<128xf32>
  util.global private @"__iree_flow_bert/encoder/layer_7/attention/self/key/kernel" {noinline} = dense<9.99999974E-5> : tensor<128x128xf32>
  util.global private @"__iree_flow_bert/encoder/layer_7/attention/self/query/bias" = dense<1.000000e-01> : tensor<128xf32>
  util.global private @"__iree_flow_bert/encoder/layer_7/attention/self/query/kernel" {noinline} = dense<9.99999974E-5> : tensor<128x128xf32>
  util.global private @"__iree_flow_bert/encoder/layer_7/attention/self/value/bias" = dense<1.000000e-01> : tensor<128xf32>
  util.global private @"__iree_flow_bert/encoder/layer_7/attention/self/value/kernel" {noinline} = dense<9.99999974E-5> : tensor<512x128xf32>
  util.global private @"__iree_flow_bert/encoder/layer_7/bottleneck/attention/FakeLayerNorm/beta" = dense<1.000000e+00> : tensor<128xf32>
  util.global private @"__iree_flow_bert/encoder/layer_7/bottleneck/attention/FakeLayerNorm/gamma" = dense<4.000000e-01> : tensor<128xf32>
  util.global private @"__iree_flow_bert/encoder/layer_7/bottleneck/attention/dense/bias" = dense<1.000000e-01> : tensor<128xf32>
  util.global private @"__iree_flow_bert/encoder/layer_7/bottleneck/attention/dense/kernel" {noinline} = dense<9.99999974E-5> : tensor<512x128xf32>
  util.global private @"__iree_flow_bert/encoder/layer_7/bottleneck/input/FakeLayerNorm/beta" = dense<1.000000e+00> : tensor<128xf32>
  util.global private @"__iree_flow_bert/encoder/layer_7/bottleneck/input/FakeLayerNorm/gamma" = dense<4.000000e-01> : tensor<128xf32>
  util.global private @"__iree_flow_bert/encoder/layer_7/bottleneck/input/dense/bias" = dense<1.000000e-01> : tensor<128xf32>
  util.global private @"__iree_flow_bert/encoder/layer_7/bottleneck/input/dense/kernel" {noinline} = dense<9.99999974E-5> : tensor<512x128xf32>
  util.global private @"__iree_flow_bert/encoder/layer_7/ffn_layer_0/intermediate/dense/bias" = dense<1.000000e-01> : tensor<512xf32>
  util.global private @"__iree_flow_bert/encoder/layer_7/ffn_layer_0/intermediate/dense/kernel" {noinline} = dense<9.99999974E-5> : tensor<128x512xf32>
  util.global private @"__iree_flow_bert/encoder/layer_7/ffn_layer_0/output/FakeLayerNorm/beta" = dense<1.000000e+00> : tensor<128xf32>
  util.global private @"__iree_flow_bert/encoder/layer_7/ffn_layer_0/output/FakeLayerNorm/gamma" = dense<4.000000e-01> : tensor<128xf32>
  util.global private @"__iree_flow_bert/encoder/layer_7/ffn_layer_0/output/dense/bias" = dense<1.000000e-01> : tensor<128xf32>
  util.global private @"__iree_flow_bert/encoder/layer_7/ffn_layer_0/output/dense/kernel" {noinline} = dense<9.99999974E-5> : tensor<512x128xf32>
  util.global private @"__iree_flow_bert/encoder/layer_7/ffn_layer_1/intermediate/dense/bias" = dense<1.000000e-01> : tensor<512xf32>
  util.global private @"__iree_flow_bert/encoder/layer_7/ffn_layer_1/intermediate/dense/kernel" {noinline} = dense<9.99999974E-5> : tensor<128x512xf32>
  util.global private @"__iree_flow_bert/encoder/layer_7/ffn_layer_1/output/FakeLayerNorm/beta" = dense<1.000000e+00> : tensor<128xf32>
  util.global private @"__iree_flow_bert/encoder/layer_7/ffn_layer_1/output/FakeLayerNorm/gamma" = dense<4.000000e-01> : tensor<128xf32>
  util.global private @"__iree_flow_bert/encoder/layer_7/ffn_layer_1/output/dense/bias" = dense<1.000000e-01> : tensor<128xf32>
  util.global private @"__iree_flow_bert/encoder/layer_7/ffn_layer_1/output/dense/kernel" {noinline} = dense<9.99999974E-5> : tensor<512x128xf32>
  util.global private @"__iree_flow_bert/encoder/layer_7/ffn_layer_2/intermediate/dense/bias" = dense<1.000000e-01> : tensor<512xf32>
  util.global private @"__iree_flow_bert/encoder/layer_7/ffn_layer_2/intermediate/dense/kernel" {noinline} = dense<9.99999974E-5> : tensor<128x512xf32>
  util.global private @"__iree_flow_bert/encoder/layer_7/ffn_layer_2/output/FakeLayerNorm/beta" = dense<1.000000e+00> : tensor<128xf32>
  util.global private @"__iree_flow_bert/encoder/layer_7/ffn_layer_2/output/FakeLayerNorm/gamma" = dense<4.000000e-01> : tensor<128xf32>
  util.global private @"__iree_flow_bert/encoder/layer_7/ffn_layer_2/output/dense/bias" = dense<1.000000e-01> : tensor<128xf32>
  util.global private @"__iree_flow_bert/encoder/layer_7/ffn_layer_2/output/dense/kernel" {noinline} = dense<9.99999974E-5> : tensor<512x128xf32>
  util.global private @"__iree_flow_bert/encoder/layer_7/intermediate/dense/bias" = dense<1.000000e-01> : tensor<512xf32>
  util.global private @"__iree_flow_bert/encoder/layer_7/intermediate/dense/kernel" {noinline} = dense<9.99999974E-5> : tensor<128x512xf32>
  util.global private @"__iree_flow_bert/encoder/layer_7/output/FakeLayerNorm/beta" = dense<1.000000e+00> : tensor<128xf32>
  util.global private @"__iree_flow_bert/encoder/layer_7/output/FakeLayerNorm/gamma" = dense<4.000000e-01> : tensor<128xf32>
  util.global private @"__iree_flow_bert/encoder/layer_7/output/bottleneck/FakeLayerNorm/beta" = dense<1.000000e+00> : tensor<512xf32>
  util.global private @"__iree_flow_bert/encoder/layer_7/output/bottleneck/FakeLayerNorm/gamma" = dense<4.000000e-01> : tensor<512xf32>
  util.global private @"__iree_flow_bert/encoder/layer_7/output/bottleneck/dense/bias" = dense<1.000000e-01> : tensor<512xf32>
  util.global private @"__iree_flow_bert/encoder/layer_7/output/bottleneck/dense/kernel" {noinline} = dense<9.99999974E-5> : tensor<128x512xf32>
  util.global private @"__iree_flow_bert/encoder/layer_7/output/dense/bias" = dense<1.000000e-01> : tensor<128xf32>
  util.global private @"__iree_flow_bert/encoder/layer_7/output/dense/kernel" {noinline} = dense<9.99999974E-5> : tensor<512x128xf32>
  util.global private @"__iree_flow_bert/encoder/layer_8/attention/output/FakeLayerNorm/beta" = dense<1.000000e+00> : tensor<128xf32>
  util.global private @"__iree_flow_bert/encoder/layer_8/attention/output/FakeLayerNorm/gamma" = dense<4.000000e-01> : tensor<128xf32>
  util.global private @"__iree_flow_bert/encoder/layer_8/attention/output/dense/bias" = dense<1.000000e-01> : tensor<128xf32>
  util.global private @"__iree_flow_bert/encoder/layer_8/attention/output/dense/kernel" {noinline} = dense<9.99999974E-5> : tensor<128x128xf32>
  util.global private @"__iree_flow_bert/encoder/layer_8/attention/self/key/bias" = dense<1.000000e-01> : tensor<128xf32>
  util.global private @"__iree_flow_bert/encoder/layer_8/attention/self/key/kernel" {noinline} = dense<9.99999974E-5> : tensor<128x128xf32>
  util.global private @"__iree_flow_bert/encoder/layer_8/attention/self/query/bias" = dense<1.000000e-01> : tensor<128xf32>
  util.global private @"__iree_flow_bert/encoder/layer_8/attention/self/query/kernel" {noinline} = dense<9.99999974E-5> : tensor<128x128xf32>
  util.global private @"__iree_flow_bert/encoder/layer_8/attention/self/value/bias" = dense<1.000000e-01> : tensor<128xf32>
  util.global private @"__iree_flow_bert/encoder/layer_8/attention/self/value/kernel" {noinline} = dense<9.99999974E-5> : tensor<512x128xf32>
  util.global private @"__iree_flow_bert/encoder/layer_8/bottleneck/attention/FakeLayerNorm/beta" = dense<1.000000e+00> : tensor<128xf32>
  util.global private @"__iree_flow_bert/encoder/layer_8/bottleneck/attention/FakeLayerNorm/gamma" = dense<4.000000e-01> : tensor<128xf32>
  util.global private @"__iree_flow_bert/encoder/layer_8/bottleneck/attention/dense/bias" = dense<1.000000e-01> : tensor<128xf32>
  util.global private @"__iree_flow_bert/encoder/layer_8/bottleneck/attention/dense/kernel" {noinline} = dense<9.99999974E-5> : tensor<512x128xf32>
  util.global private @"__iree_flow_bert/encoder/layer_8/bottleneck/input/FakeLayerNorm/beta" = dense<1.000000e+00> : tensor<128xf32>
  util.global private @"__iree_flow_bert/encoder/layer_8/bottleneck/input/FakeLayerNorm/gamma" = dense<4.000000e-01> : tensor<128xf32>
  util.global private @"__iree_flow_bert/encoder/layer_8/bottleneck/input/dense/bias" = dense<1.000000e-01> : tensor<128xf32>
  util.global private @"__iree_flow_bert/encoder/layer_8/bottleneck/input/dense/kernel" {noinline} = dense<9.99999974E-5> : tensor<512x128xf32>
  util.global private @"__iree_flow_bert/encoder/layer_8/ffn_layer_0/intermediate/dense/bias" = dense<1.000000e-01> : tensor<512xf32>
  util.global private @"__iree_flow_bert/encoder/layer_8/ffn_layer_0/intermediate/dense/kernel" {noinline} = dense<9.99999974E-5> : tensor<128x512xf32>
  util.global private @"__iree_flow_bert/encoder/layer_8/ffn_layer_0/output/FakeLayerNorm/beta" = dense<1.000000e+00> : tensor<128xf32>
  util.global private @"__iree_flow_bert/encoder/layer_8/ffn_layer_0/output/FakeLayerNorm/gamma" = dense<4.000000e-01> : tensor<128xf32>
  util.global private @"__iree_flow_bert/encoder/layer_8/ffn_layer_0/output/dense/bias" = dense<1.000000e-01> : tensor<128xf32>
  util.global private @"__iree_flow_bert/encoder/layer_8/ffn_layer_0/output/dense/kernel" {noinline} = dense<9.99999974E-5> : tensor<512x128xf32>
  util.global private @"__iree_flow_bert/encoder/layer_8/ffn_layer_1/intermediate/dense/bias" = dense<1.000000e-01> : tensor<512xf32>
  util.global private @"__iree_flow_bert/encoder/layer_8/ffn_layer_1/intermediate/dense/kernel" {noinline} = dense<9.99999974E-5> : tensor<128x512xf32>
  util.global private @"__iree_flow_bert/encoder/layer_8/ffn_layer_1/output/FakeLayerNorm/beta" = dense<1.000000e+00> : tensor<128xf32>
  util.global private @"__iree_flow_bert/encoder/layer_8/ffn_layer_1/output/FakeLayerNorm/gamma" = dense<4.000000e-01> : tensor<128xf32>
  util.global private @"__iree_flow_bert/encoder/layer_8/ffn_layer_1/output/dense/bias" = dense<1.000000e-01> : tensor<128xf32>
  util.global private @"__iree_flow_bert/encoder/layer_8/ffn_layer_1/output/dense/kernel" {noinline} = dense<9.99999974E-5> : tensor<512x128xf32>
  util.global private @"__iree_flow_bert/encoder/layer_8/ffn_layer_2/intermediate/dense/bias" = dense<1.000000e-01> : tensor<512xf32>
  util.global private @"__iree_flow_bert/encoder/layer_8/ffn_layer_2/intermediate/dense/kernel" {noinline} = dense<9.99999974E-5> : tensor<128x512xf32>
  util.global private @"__iree_flow_bert/encoder/layer_8/ffn_layer_2/output/FakeLayerNorm/beta" = dense<1.000000e+00> : tensor<128xf32>
  util.global private @"__iree_flow_bert/encoder/layer_8/ffn_layer_2/output/FakeLayerNorm/gamma" = dense<4.000000e-01> : tensor<128xf32>
  util.global private @"__iree_flow_bert/encoder/layer_8/ffn_layer_2/output/dense/bias" = dense<1.000000e-01> : tensor<128xf32>
  util.global private @"__iree_flow_bert/encoder/layer_8/ffn_layer_2/output/dense/kernel" {noinline} = dense<9.99999974E-5> : tensor<512x128xf32>
  util.global private @"__iree_flow_bert/encoder/layer_8/intermediate/dense/bias" = dense<1.000000e-01> : tensor<512xf32>
  util.global private @"__iree_flow_bert/encoder/layer_8/intermediate/dense/kernel" {noinline} = dense<9.99999974E-5> : tensor<128x512xf32>
  util.global private @"__iree_flow_bert/encoder/layer_8/output/FakeLayerNorm/beta" = dense<1.000000e+00> : tensor<128xf32>
  util.global private @"__iree_flow_bert/encoder/layer_8/output/FakeLayerNorm/gamma" = dense<4.000000e-01> : tensor<128xf32>
  util.global private @"__iree_flow_bert/encoder/layer_8/output/bottleneck/FakeLayerNorm/beta" = dense<1.000000e+00> : tensor<512xf32>
  util.global private @"__iree_flow_bert/encoder/layer_8/output/bottleneck/FakeLayerNorm/gamma" = dense<4.000000e-01> : tensor<512xf32>
  util.global private @"__iree_flow_bert/encoder/layer_8/output/bottleneck/dense/bias" = dense<1.000000e-01> : tensor<512xf32>
  util.global private @"__iree_flow_bert/encoder/layer_8/output/bottleneck/dense/kernel" {noinline} = dense<9.99999974E-5> : tensor<128x512xf32>
  util.global private @"__iree_flow_bert/encoder/layer_8/output/dense/bias" = dense<1.000000e-01> : tensor<128xf32>
  util.global private @"__iree_flow_bert/encoder/layer_8/output/dense/kernel" {noinline} = dense<9.99999974E-5> : tensor<512x128xf32>
  util.global private @"__iree_flow_bert/encoder/layer_9/attention/output/FakeLayerNorm/beta" = dense<1.000000e+00> : tensor<128xf32>
  util.global private @"__iree_flow_bert/encoder/layer_9/attention/output/FakeLayerNorm/gamma" = dense<4.000000e-01> : tensor<128xf32>
  util.global private @"__iree_flow_bert/encoder/layer_9/attention/output/dense/bias" = dense<1.000000e-01> : tensor<128xf32>
  util.global private @"__iree_flow_bert/encoder/layer_9/attention/output/dense/kernel" {noinline} = dense<9.99999974E-5> : tensor<128x128xf32>
  util.global private @"__iree_flow_bert/encoder/layer_9/attention/self/key/bias" = dense<1.000000e-01> : tensor<128xf32>
  util.global private @"__iree_flow_bert/encoder/layer_9/attention/self/key/kernel" {noinline} = dense<9.99999974E-5> : tensor<128x128xf32>
  util.global private @"__iree_flow_bert/encoder/layer_9/attention/self/query/bias" = dense<1.000000e-01> : tensor<128xf32>
  util.global private @"__iree_flow_bert/encoder/layer_9/attention/self/query/kernel" {noinline} = dense<9.99999974E-5> : tensor<128x128xf32>
  util.global private @"__iree_flow_bert/encoder/layer_9/attention/self/value/bias" = dense<1.000000e-01> : tensor<128xf32>
  util.global private @"__iree_flow_bert/encoder/layer_9/attention/self/value/kernel" {noinline} = dense<9.99999974E-5> : tensor<512x128xf32>
  util.global private @"__iree_flow_bert/encoder/layer_9/bottleneck/attention/FakeLayerNorm/beta" = dense<1.000000e+00> : tensor<128xf32>
  util.global private @"__iree_flow_bert/encoder/layer_9/bottleneck/attention/FakeLayerNorm/gamma" = dense<4.000000e-01> : tensor<128xf32>
  util.global private @"__iree_flow_bert/encoder/layer_9/bottleneck/attention/dense/bias" = dense<1.000000e-01> : tensor<128xf32>
  util.global private @"__iree_flow_bert/encoder/layer_9/bottleneck/attention/dense/kernel" {noinline} = dense<9.99999974E-5> : tensor<512x128xf32>
  util.global private @"__iree_flow_bert/encoder/layer_9/bottleneck/input/FakeLayerNorm/beta" = dense<1.000000e+00> : tensor<128xf32>
  util.global private @"__iree_flow_bert/encoder/layer_9/bottleneck/input/FakeLayerNorm/gamma" = dense<4.000000e-01> : tensor<128xf32>
  util.global private @"__iree_flow_bert/encoder/layer_9/bottleneck/input/dense/bias" = dense<1.000000e-01> : tensor<128xf32>
  util.global private @"__iree_flow_bert/encoder/layer_9/bottleneck/input/dense/kernel" {noinline} = dense<9.99999974E-5> : tensor<512x128xf32>
  util.global private @"__iree_flow_bert/encoder/layer_9/ffn_layer_0/intermediate/dense/bias" = dense<1.000000e-01> : tensor<512xf32>
  util.global private @"__iree_flow_bert/encoder/layer_9/ffn_layer_0/intermediate/dense/kernel" {noinline} = dense<9.99999974E-5> : tensor<128x512xf32>
  util.global private @"__iree_flow_bert/encoder/layer_9/ffn_layer_0/output/FakeLayerNorm/beta" = dense<1.000000e+00> : tensor<128xf32>
  util.global private @"__iree_flow_bert/encoder/layer_9/ffn_layer_0/output/FakeLayerNorm/gamma" = dense<4.000000e-01> : tensor<128xf32>
  util.global private @"__iree_flow_bert/encoder/layer_9/ffn_layer_0/output/dense/bias" = dense<1.000000e-01> : tensor<128xf32>
  util.global private @"__iree_flow_bert/encoder/layer_9/ffn_layer_0/output/dense/kernel" {noinline} = dense<9.99999974E-5> : tensor<512x128xf32>
  util.global private @"__iree_flow_bert/encoder/layer_9/ffn_layer_1/intermediate/dense/bias" = dense<1.000000e-01> : tensor<512xf32>
  util.global private @"__iree_flow_bert/encoder/layer_9/ffn_layer_1/intermediate/dense/kernel" {noinline} = dense<9.99999974E-5> : tensor<128x512xf32>
  util.global private @"__iree_flow_bert/encoder/layer_9/ffn_layer_1/output/FakeLayerNorm/beta" = dense<1.000000e+00> : tensor<128xf32>
  util.global private @"__iree_flow_bert/encoder/layer_9/ffn_layer_1/output/FakeLayerNorm/gamma" = dense<4.000000e-01> : tensor<128xf32>
  util.global private @"__iree_flow_bert/encoder/layer_9/ffn_layer_1/output/dense/bias" = dense<1.000000e-01> : tensor<128xf32>
  util.global private @"__iree_flow_bert/encoder/layer_9/ffn_layer_1/output/dense/kernel" {noinline} = dense<9.99999974E-5> : tensor<512x128xf32>
  util.global private @"__iree_flow_bert/encoder/layer_9/ffn_layer_2/intermediate/dense/bias" = dense<1.000000e-01> : tensor<512xf32>
  util.global private @"__iree_flow_bert/encoder/layer_9/ffn_layer_2/intermediate/dense/kernel" {noinline} = dense<9.99999974E-5> : tensor<128x512xf32>
  util.global private @"__iree_flow_bert/encoder/layer_9/ffn_layer_2/output/FakeLayerNorm/beta" = dense<1.000000e+00> : tensor<128xf32>
  util.global private @"__iree_flow_bert/encoder/layer_9/ffn_layer_2/output/FakeLayerNorm/gamma" = dense<4.000000e-01> : tensor<128xf32>
  util.global private @"__iree_flow_bert/encoder/layer_9/ffn_layer_2/output/dense/bias" = dense<1.000000e-01> : tensor<128xf32>
  util.global private @"__iree_flow_bert/encoder/layer_9/ffn_layer_2/output/dense/kernel" {noinline} = dense<9.99999974E-5> : tensor<512x128xf32>
  util.global private @"__iree_flow_bert/encoder/layer_9/intermediate/dense/bias" = dense<1.000000e-01> : tensor<512xf32>
…
    %3729 = stablehlo.reshape %3728 : (tensor<384x512xf32>) -> tensor<1x384x512xf32>
    %3730 = stablehlo.maximum %3729, %9 : tensor<1x384x512xf32>
    %3731 = stablehlo.reshape %3730 : (tensor<1x384x512xf32>) -> tensor<384x512xf32>
    %3732 = stablehlo.dot %3731, %570 : (tensor<384x512xf32>, tensor<512x128xf32>) -> tensor<384x128xf32>
    %3733 = stablehlo.broadcast_in_dim %569, dims = [1] : (tensor<128xf32>) -> tensor<384x128xf32>
    %3734 = stablehlo.add %3732, %3733 : tensor<384x128xf32>
    %3735 = stablehlo.reshape %3734 : (tensor<384x128xf32>) -> tensor<1x384x128xf32>
    %3736 = stablehlo.add %3735, %3724 : tensor<1x384x128xf32>
    %3737 = stablehlo.broadcast_in_dim %564, dims = [2] : (tensor<128xf32>) -> tensor<1x384x128xf32>
    %3738 = stablehlo.multiply %3736, %3737 : tensor<1x384x128xf32>
    %3739 = stablehlo.broadcast_in_dim %563, dims = [2] : (tensor<128xf32>) -> tensor<1x384x128xf32>
    %3740 = stablehlo.add %3738, %3739 : tensor<1x384x128xf32>
    %3741 = stablehlo.reshape %3740 : (tensor<1x384x128xf32>) -> tensor<384x128xf32>
    %3742 = stablehlo.dot %3741, %568 : (tensor<384x128xf32>, tensor<128x512xf32>) -> tensor<384x512xf32>
    %3743 = stablehlo.broadcast_in_dim %567, dims = [1] : (tensor<512xf32>) -> tensor<384x512xf32>
    %3744 = stablehlo.add %3742, %3743 : tensor<384x512xf32>
    %3745 = stablehlo.reshape %3744 : (tensor<384x512xf32>) -> tensor<1x384x512xf32>
    %3746 = stablehlo.add %3745, %3620 : tensor<1x384x512xf32>
    %3747 = stablehlo.broadcast_in_dim %566, dims = [2] : (tensor<512xf32>) -> tensor<1x384x512xf32>
    %3748 = stablehlo.multiply %3746, %3747 : tensor<1x384x512xf32>
    %3749 = stablehlo.broadcast_in_dim %565, dims = [2] : (tensor<512xf32>) -> tensor<1x384x512xf32>
    %3750 = stablehlo.add %3748, %3749 : tensor<1x384x512xf32>
    %3751 = stablehlo.reshape %3750 : (tensor<1x384x512xf32>) -> tensor<384x512xf32>
    %3752 = stablehlo.dot %3751, %626 : (tensor<384x512xf32>, tensor<512x128xf32>) -> tensor<384x128xf32>
    %3753 = stablehlo.broadcast_in_dim %625, dims = [1] : (tensor<128xf32>) -> tensor<384x128xf32>
    %3754 = stablehlo.add %3752, %3753 : tensor<384x128xf32>
    %3755 = stablehlo.reshape %3754 : (tensor<384x128xf32>) -> tensor<1x384x4x32xf32>
    %3756 = stablehlo.transpose %3755, dims = [0, 2, 1, 3] : (tensor<1x384x4x32xf32>) -> tensor<1x4x384x32xf32>
    %3757 = stablehlo.dot %3751, %630 : (tensor<384x512xf32>, tensor<512x128xf32>) -> tensor<384x128xf32>
    %3758 = stablehlo.reshape %3757 : (tensor<384x128xf32>) -> tensor<1x384x128xf32>
    %3759 = stablehlo.broadcast_in_dim %629, dims = [2] : (tensor<128xf32>) -> tensor<1x384x128xf32>
    %3760 = stablehlo.add %3758, %3759 : tensor<1x384x128xf32>
    %3761 = stablehlo.broadcast_in_dim %628, dims = [2] : (tensor<128xf32>) -> tensor<1x384x128xf32>
    %3762 = stablehlo.multiply %3760, %3761 : tensor<1x384x128xf32>
    %3763 = stablehlo.broadcast_in_dim %627, dims = [2] : (tensor<128xf32>) -> tensor<1x384x128xf32>
    %3764 = stablehlo.add %3762, %3763 : tensor<1x384x128xf32>
    %3765 = stablehlo.reshape %3764 : (tensor<1x384x128xf32>) -> tensor<384x128xf32>
    %3766 = stablehlo.dot %3765, %622 : (tensor<384x128xf32>, tensor<128x128xf32>) -> tensor<384x128xf32>
    %3767 = stablehlo.broadcast_in_dim %621, dims = [1] : (tensor<128xf32>) -> tensor<384x128xf32>
    %3768 = stablehlo.add %3766, %3767 : tensor<384x128xf32>
    %3769 = stablehlo.reshape %3768 : (tensor<384x128xf32>) -> tensor<1x384x4x32xf32>
    %3770 = stablehlo.transpose %3769, dims = [0, 2, 1, 3] : (tensor<1x384x4x32xf32>) -> tensor<1x4x384x32xf32>
    %3771 = stablehlo.dot %3765, %624 : (tensor<384x128xf32>, tensor<128x128xf32>) -> tensor<384x128xf32>
    %3772 = stablehlo.broadcast_in_dim %623, dims = [1] : (tensor<128xf32>) -> tensor<384x128xf32>
    %3773 = stablehlo.add %3771, %3772 : tensor<384x128xf32>
    %3774 = stablehlo.reshape %3773 : (tensor<384x128xf32>) -> tensor<1x384x4x32xf32>
    %3775 = stablehlo.transpose %3774, dims = [0, 2, 1, 3] : (tensor<1x384x4x32xf32>) -> tensor<1x4x384x32xf32>
    %3776 = stablehlo.dot_general %3775, %3770, batching_dims = [0, 1] x [0, 1], contracting_dims = [3] x [3] : (tensor<1x4x384x32xf32>, tensor<1x4x384x32xf32>) -> tensor<1x4x384x384xf32>
    %3777 = stablehlo.multiply %3776, %4 : tensor<1x4x384x384xf32>
    %3778 = stablehlo.broadcast_in_dim %1143, dims = [0, 1, 2, 3] : (tensor<1x1x384x384xf32>) -> tensor<1x4x384x384xf32>
    %3779 = stablehlo.add %3777, %3778 : tensor<1x4x384x384xf32>
    %3780 = stablehlo.reduce(%3779 init: %7) across dimensions = [3] : (tensor<1x4x384x384xf32>, tensor<f32>) -> tensor<1x4x384xf32>
     reducer(%arg0: tensor<f32>, %arg1: tensor<f32>)  {
      %4282 = stablehlo.maximum %arg0, %arg1 : tensor<f32>
      stablehlo.return %4282 : tensor<f32>
    }
    %3781 = stablehlo.broadcast_in_dim %3780, dims = [0, 1, 2] : (tensor<1x4x384xf32>) -> tensor<1x4x384x384xf32>
    %3782 = stablehlo.subtract %3779, %3781 : tensor<1x4x384x384xf32>
    %3783 = stablehlo.exponential %3782 : tensor<1x4x384x384xf32>
    %3784 = stablehlo.reduce(%3783 init: %8) across dimensions = [3] : (tensor<1x4x384x384xf32>, tensor<f32>) -> tensor<1x4x384xf32>
     reducer(%arg0: tensor<f32>, %arg1: tensor<f32>)  {
      %4282 = stablehlo.add %arg0, %arg1 : tensor<f32>
      stablehlo.return %4282 : tensor<f32>
    }
    %3785 = stablehlo.broadcast_in_dim %3784, dims = [0, 1, 2] : (tensor<1x4x384xf32>) -> tensor<1x4x384x384xf32>
    %3786 = stablehlo.divide %3783, %3785 : tensor<1x4x384x384xf32>
    %3787 = stablehlo.dot_general %3786, %3756, batching_dims = [0, 1] x [0, 1], contracting_dims = [3] x [2] : (tensor<1x4x384x384xf32>, tensor<1x4x384x32xf32>) -> tensor<1x4x384x32xf32>
    %3788 = stablehlo.transpose %3787, dims = [0, 2, 1, 3] : (tensor<1x4x384x32xf32>) -> tensor<1x384x4x32xf32>
    %3789 = stablehlo.reshape %3788 : (tensor<1x384x4x32xf32>) -> tensor<384x128xf32>
    %3790 = stablehlo.dot %3789, %620 : (tensor<384x128xf32>, tensor<128x128xf32>) -> tensor<384x128xf32>
    %3791 = stablehlo.broadcast_in_dim %619, dims = [1] : (tensor<128xf32>) -> tensor<384x128xf32>
    %3792 = stablehlo.add %3790, %3791 : tensor<384x128xf32>
    %3793 = stablehlo.reshape %3792 : (tensor<384x128xf32>) -> tensor<1x384x128xf32>
    %3794 = stablehlo.dot %3751, %634 : (tensor<384x512xf32>, tensor<512x128xf32>) -> tensor<384x128xf32>
    %3795 = stablehlo.broadcast_in_dim %633, dims = [1] : (tensor<128xf32>) -> tensor<384x128xf32>
    %3796 = stablehlo.add %3794, %3795 : tensor<384x128xf32>
    %3797 = stablehlo.reshape %3796 : (tensor<384x128xf32>) -> tensor<1x384x128xf32>
    %3798 = stablehlo.broadcast_in_dim %632, dims = [2] : (tensor<128xf32>) -> tensor<1x384x128xf32>
    %3799 = stablehlo.multiply %3797, %3798 : tensor<1x384x128xf32>
    %3800 = stablehlo.broadcast_in_dim %631, dims = [2] : (tensor<128xf32>) -> tensor<1x384x128xf32>
    %3801 = stablehlo.add %3799, %3800 : tensor<1x384x128xf32>
    %3802 = stablehlo.add %3793, %3801 : tensor<1x384x128xf32>
    %3803 = stablehlo.broadcast_in_dim %618, dims = [2] : (tensor<128xf32>) -> tensor<1x384x128xf32>
    %3804 = stablehlo.multiply %3802, %3803 : tensor<1x384x128xf32>
    %3805 = stablehlo.broadcast_in_dim %617, dims = [2] : (tensor<128xf32>) -> tensor<1x384x128xf32>
    %3806 = stablehlo.add %3804, %3805 : tensor<1x384x128xf32>
    %3807 = stablehlo.reshape %3806 : (tensor<1x384x128xf32>) -> tensor<384x128xf32>
    %3808 = stablehlo.dot %3807, %636 : (tensor<384x128xf32>, tensor<128x512xf32>) -> tensor<384x512xf32>
    %3809 = stablehlo.broadcast_in_dim %635, dims = [1] : (tensor<512xf32>) -> tensor<384x512xf32>
    %3810 = stablehlo.add %3808, %3809 : tensor<384x512xf32>
    %3811 = stablehlo.reshape %3810 : (tensor<384x512xf32>) -> tensor<1x384x512xf32>
    %3812 = stablehlo.maximum %3811, %9 : tensor<1x384x512xf32>
    %3813 = stablehlo.reshape %3812 : (tensor<1x384x512xf32>) -> tensor<384x512xf32>
    %3814 = stablehlo.dot %3813, %640 : (tensor<384x512xf32>, tensor<512x128xf32>) -> tensor<384x128xf32>
    %3815 = stablehlo.broadcast_in_dim %639, dims = [1] : (tensor<128xf32>) -> tensor<384x128xf32>
    %3816 = stablehlo.add %3814, %3815 : tensor<384x128xf32>
    %3817 = stablehlo.reshape %3816 : (tensor<384x128xf32>) -> tensor<1x384x128xf32>
    %3818 = stablehlo.add %3817, %3806 : tensor<1x384x128xf32>
    %3819 = stablehlo.broadcast_in_dim %638, dims = [2] : (tensor<128xf32>) -> tensor<1x384x128xf32>
    %3820 = stablehlo.multiply %3818, %3819 : tensor<1x384x128xf32>
    %3821 = stablehlo.broadcast_in_dim %637, dims = [2] : (tensor<128xf32>) -> tensor<1x384x128xf32>
    %3822 = stablehlo.add %3820, %3821 : tensor<1x384x128xf32>
    %3823 = stablehlo.reshape %3822 : (tensor<1x384x128xf32>) -> tensor<384x128xf32>
    %3824 = stablehlo.dot %3823, %642 : (tensor<384x128xf32>, tensor<128x512xf32>) -> tensor<384x512xf32>
    %3825 = stablehlo.broadcast_in_dim %641, dims = [1] : (tensor<512xf32>) -> tensor<384x512xf32>
    %3826 = stablehlo.add %3824, %3825 : tensor<384x512xf32>
    %3827 = stablehlo.reshape %3826 : (tensor<384x512xf32>) -> tensor<1x384x512xf32>
    %3828 = stablehlo.maximum %3827, %9 : tensor<1x384x512xf32>
    %3829 = stablehlo.reshape %3828 : (tensor<1x384x512xf32>) -> tensor<384x512xf32>
    %3830 = stablehlo.dot %3829, %646 : (tensor<384x512xf32>, tensor<512x128xf32>) -> tensor<384x128xf32>
    %3831 = stablehlo.broadcast_in_dim %645, dims = [1] : (tensor<128xf32>) -> tensor<384x128xf32>
    %3832 = stablehlo.add %3830, %3831 : tensor<384x128xf32>
    %3833 = stablehlo.reshape %3832 : (tensor<384x128xf32>) -> tensor<1x384x128xf32>
    %3834 = stablehlo.add %3833, %3822 : tensor<1x384x128xf32>
    %3835 = stablehlo.broadcast_in_dim %644, dims = [2] : (tensor<128xf32>) -> tensor<1x384x128xf32>
    %3836 = stablehlo.multiply %3834, %3835 : tensor<1x384x128xf32>
    %3837 = stablehlo.broadcast_in_dim %643, dims = [2] : (tensor<128xf32>) -> tensor<1x384x128xf32>
    %3838 = stablehlo.add %3836, %3837 : tensor<1x384x128xf32>
    %3839 = stablehlo.reshape %3838 : (tensor<1x384x128xf32>) -> tensor<384x128xf32>
    %3840 = stablehlo.dot %3839, %648 : (tensor<384x128xf32>, tensor<128x512xf32>) -> tensor<384x512xf32>
    %3841 = stablehlo.broadcast_in_dim %647, dims = [1] : (tensor<512xf32>) -> tensor<384x512xf32>
    %3842 = stablehlo.add %3840, %3841 : tensor<384x512xf32>
    %3843 = stablehlo.reshape %3842 : (tensor<384x512xf32>) -> tensor<1x384x512xf32>
    %3844 = stablehlo.maximum %3843, %9 : tensor<1x384x512xf32>
    %3845 = stablehlo.reshape %3844 : (tensor<1x384x512xf32>) -> tensor<384x512xf32>
    %3846 = stablehlo.dot %3845, %652 : (tensor<384x512xf32>, tensor<512x128xf32>) -> tensor<384x128xf32>
    %3847 = stablehlo.broadcast_in_dim %651, dims = [1] : (tensor<128xf32>) -> tensor<384x128xf32>
    %3848 = stablehlo.add %3846, %3847 : tensor<384x128xf32>
    %3849 = stablehlo.reshape %3848 : (tensor<384x128xf32>) -> tensor<1x384x128xf32>
    %3850 = stablehlo.add %3849, %3838 : tensor<1x384x128xf32>
    %3851 = stablehlo.broadcast_in_dim %650, dims = [2] : (tensor<128xf32>) -> tensor<1x384x128xf32>
    %3852 = stablehlo.multiply %3850, %3851 : tensor<1x384x128xf32>
    %3853 = stablehlo.broadcast_in_dim %649, dims = [2] : (tensor<128xf32>) -> tensor<1x384x128xf32>
    %3854 = stablehlo.add %3852, %3853 : tensor<1x384x128xf32>
    %3855 = stablehlo.reshape %3854 : (tensor<1x384x128xf32>) -> tensor<384x128xf32>
    %3856 = stablehlo.dot %3855, %654 : (tensor<384x128xf32>, tensor<128x512xf32>) -> tensor<384x512xf32>
    %3857 = stablehlo.broadcast_in_dim %653, dims = [1] : (tensor<512xf32>) -> tensor<384x512xf32>
    %3858 = stablehlo.add %3856, %3857 : tensor<384x512xf32>
    %3859 = stablehlo.reshape %3858 : (tensor<384x512xf32>) -> tensor<1x384x512xf32>
    %3860 = stablehlo.maximum %3859, %9 : tensor<1x384x512xf32>
    %3861 = stablehlo.reshape %3860 : (tensor<1x384x512xf32>) -> tensor<384x512xf32>
    %3862 = stablehlo.dot %3861, %662 : (tensor<384x512xf32>, tensor<512x128xf32>) -> tensor<384x128xf32>
    %3863 = stablehlo.broadcast_in_dim %661, dims = [1] : (tensor<128xf32>) -> tensor<384x128xf32>
    %3864 = stablehlo.add %3862, %3863 : tensor<384x128xf32>
    %3865 = stablehlo.reshape %3864 : (tensor<384x128xf32>) -> tensor<1x384x128xf32>
    %3866 = stablehlo.add %3865, %3854 : tensor<1x384x128xf32>
    %3867 = stablehlo.broadcast_in_dim %656, dims = [2] : (tensor<128xf32>) -> tensor<1x384x128xf32>
    %3868 = stablehlo.multiply %3866, %3867 : tensor<1x384x128xf32>
    %3869 = stablehlo.broadcast_in_dim %655, dims = [2] : (tensor<128xf32>) -> tensor<1x384x128xf32>
    %3870 = stablehlo.add %3868, %3869 : tensor<1x384x128xf32>
    %3871 = stablehlo.reshape %3870 : (tensor<1x384x128xf32>) -> tensor<384x128xf32>
    %3872 = stablehlo.dot %3871, %660 : (tensor<384x128xf32>, tensor<128x512xf32>) -> tensor<384x512xf32>
    %3873 = stablehlo.broadcast_in_dim %659, dims = [1] : (tensor<512xf32>) -> tensor<384x512xf32>
    %3874 = stablehlo.add %3872, %3873 : tensor<384x512xf32>
    %3875 = stablehlo.reshape %3874 : (tensor<384x512xf32>) -> tensor<1x384x512xf32>
    %3876 = stablehlo.add %3875, %3750 : tensor<1x384x512xf32>
    %3877 = stablehlo.broadcast_in_dim %658, dims = [2] : (tensor<512xf32>) -> tensor<1x384x512xf32>
    %3878 = stablehlo.multiply %3876, %3877 : tensor<1x384x512xf32>
    %3879 = stablehlo.broadcast_in_dim %657, dims = [2] : (tensor<512xf32>) -> tensor<1x384x512xf32>
    %3880 = stablehlo.add %3878, %3879 : tensor<1x384x512xf32>
    %3881 = stablehlo.reshape %3880 : (tensor<1x384x512xf32>) -> tensor<384x512xf32>
    %3882 = stablehlo.dot %3881, %672 : (tensor<384x512xf32>, tensor<512x128xf32>) -> tensor<384x128xf32>
    %3883 = stablehlo.broadcast_in_dim %671, dims = [1] : (tensor<128xf32>) -> tensor<384x128xf32>
    %3884 = stablehlo.add %3882, %3883 : tensor<384x128xf32>
    %3885 = stablehlo.reshape %3884 : (tensor<384x128xf32>) -> tensor<1x384x4x32xf32>
    %3886 = stablehlo.transpose %3885, dims = [0, 2, 1, 3] : (tensor<1x384x4x32xf32>) -> tensor<1x4x384x32xf32>
    %3887 = stablehlo.dot %3881, %676 : (tensor<384x512xf32>, tensor<512x128xf32>) -> tensor<384x128xf32>
    %3888 = stablehlo.reshape %3887 : (tensor<384x128xf32>) -> tensor<1x384x128xf32>
    %3889 = stablehlo.broadcast_in_dim %675, dims = [2] : (tensor<128xf32>) -> tensor<1x384x128xf32>
    %3890 = stablehlo.add %3888, %3889 : tensor<1x384x128xf32>
    %3891 = stablehlo.broadcast_in_dim %674, dims = [2] : (tensor<128xf32>) -> tensor<1x384x128xf32>
    %3892 = stablehlo.multiply %3890, %3891 : tensor<1x384x128xf32>
    %3893 = stablehlo.broadcast_in_dim %673, dims = [2] : (tensor<128xf32>) -> tensor<1x384x128xf32>
    %3894 = stablehlo.add %3892, %3893 : tensor<1x384x128xf32>
    %3895 = stablehlo.reshape %3894 : (tensor<1x384x128xf32>) -> tensor<384x128xf32>
    %3896 = stablehlo.dot %3895, %668 : (tensor<384x128xf32>, tensor<128x128xf32>) -> tensor<384x128xf32>
    %3897 = stablehlo.broadcast_in_dim %667, dims = [1] : (tensor<128xf32>) -> tensor<384x128xf32>
    %3898 = stablehlo.add %3896, %3897 : tensor<384x128xf32>
    %3899 = stablehlo.reshape %3898 : (tensor<384x128xf32>) -> tensor<1x384x4x32xf32>
    %3900 = stablehlo.transpose %3899, dims = [0, 2, 1, 3] : (tensor<1x384x4x32xf32>) -> tensor<1x4x384x32xf32>
    %3901 = stablehlo.dot %3895, %670 : (tensor<384x128xf32>, tensor<128x128xf32>) -> tensor<384x128xf32>
    %3902 = stablehlo.broadcast_in_dim %669, dims = [1] : (tensor<128xf32>) -> tensor<384x128xf32>
    %3903 = stablehlo.add %3901, %3902 : tensor<384x128xf32>
    %3904 = stablehlo.reshape %3903 : (tensor<384x128xf32>) -> tensor<1x384x4x32xf32>
    %3905 = stablehlo.transpose %3904, dims = [0, 2, 1, 3] : (tensor<1x384x4x32xf32>) -> tensor<1x4x384x32xf32>
    %3906 = stablehlo.dot_general %3905, %3900, batching_dims = [0, 1] x [0, 1], contracting_dims = [3] x [3] : (tensor<1x4x384x32xf32>, tensor<1x4x384x32xf32>) -> tensor<1x4x384x384xf32>
    %3907 = stablehlo.multiply %3906, %4 : tensor<1x4x384x384xf32>
    %3908 = stablehlo.broadcast_in_dim %1143, dims = [0, 1, 2, 3] : (tensor<1x1x384x384xf32>) -> tensor<1x4x384x384xf32>
    %3909 = stablehlo.add %3907, %3908 : tensor<1x4x384x384xf32>
    %3910 = stablehlo.reduce(%3909 init: %7) across dimensions = [3] : (tensor<1x4x384x384xf32>, tensor<f32>) -> tensor<1x4x384xf32>
     reducer(%arg0: tensor<f32>, %arg1: tensor<f32>)  {
      %4282 = stablehlo.maximum %arg0, %arg1 : tensor<f32>
      stablehlo.return %4282 : tensor<f32>
    }
    %3911 = stablehlo.broadcast_in_dim %3910, dims = [0, 1, 2] : (tensor<1x4x384xf32>) -> tensor<1x4x384x384xf32>
    %3912 = stablehlo.subtract %3909, %3911 : tensor<1x4x384x384xf32>
    %3913 = stablehlo.exponential %3912 : tensor<1x4x384x384xf32>
    %3914 = stablehlo.reduce(%3913 init: %8) across dimensions = [3] : (tensor<1x4x384x384xf32>, tensor<f32>) -> tensor<1x4x384xf32>
     reducer(%arg0: tensor<f32>, %arg1: tensor<f32>)  {
      %4282 = stablehlo.add %arg0, %arg1 : tensor<f32>
      stablehlo.return %4282 : tensor<f32>
    }
    %3915 = stablehlo.broadcast_in_dim %3914, dims = [0, 1, 2] : (tensor<1x4x384xf32>) -> tensor<1x4x384x384xf32>
    %3916 = stablehlo.divide %3913, %3915 : tensor<1x4x384x384xf32>
    %3917 = stablehlo.dot_general %3916, %3886, batching_dims = [0, 1] x [0, 1], contracting_dims = [3] x [2] : (tensor<1x4x384x384xf32>, tensor<1x4x384x32xf32>) -> tensor<1x4x384x32xf32>
    %3918 = stablehlo.transpose %3917, dims = [0, 2, 1, 3] : (tensor<1x4x384x32xf32>) -> tensor<1x384x4x32xf32>
    %3919 = stablehlo.reshape %3918 : (tensor<1x384x4x32xf32>) -> tensor<384x128xf32>
    %3920 = stablehlo.dot %3919, %666 : (tensor<384x128xf32>, tensor<128x128xf32>) -> tensor<384x128xf32>
    %3921 = stablehlo.broadcast_in_dim %665, dims = [1] : (tensor<128xf32>) -> tensor<384x128xf32>
    %3922 = stablehlo.add %3920, %3921 : tensor<384x128xf32>
    %3923 = stablehlo.reshape %3922 : (tensor<384x128xf32>) -> tensor<1x384x128xf32>
    %3924 = stablehlo.dot %3881, %680 : (tensor<384x512xf32>, tensor<512x128xf32>) -> tensor<384x128xf32>
    %3925 = stablehlo.broadcast_in_dim %679, dims = [1] : (tensor<128xf32>) -> tensor<384x128xf32>
    %3926 = stablehlo.add %3924, %3925 : tensor<384x128xf32>
    %3927 = stablehlo.reshape %3926 : (tensor<384x128xf32>) -> tensor<1x384x128xf32>
    %3928 = stablehlo.broadcast_in_dim %678, dims = [2] : (tensor<128xf32>) -> tensor<1x384x128xf32>
    %3929 = stablehlo.multiply %3927, %3928 : tensor<1x384x128xf32>
    %3930 = stablehlo.broadcast_in_dim %677, dims = [2] : (tensor<128xf32>) -> tensor<1x384x128xf32>
    %3931 = stablehlo.add %3929, %3930 : tensor<1x384x128xf32>
    %3932 = stablehlo.add %3923, %3931 : tensor<1x384x128xf32>
    %3933 = stablehlo.broadcast_in_dim %664, dims = [2] : (tensor<128xf32>) -> tensor<1x384x128xf32>
    %3934 = stablehlo.multiply %3932, %3933 : tensor<1x384x128xf32>
    %3935 = stablehlo.broadcast_in_dim %663, dims = [2] : (tensor<128xf32>) -> tensor<1x384x128xf32>
    %3936 = stablehlo.add %3934, %3935 : tensor<1x384x128xf32>
    %3937 = stablehlo.reshape %3936 : (tensor<1x384x128xf32>) -> tensor<384x128xf32>
    %3938 = stablehlo.dot %3937, %682 : (tensor<384x128xf32>, tensor<128x512xf32>) -> tensor<384x512xf32>
    %3939 = stablehlo.broadcast_in_dim %681, dims = [1] : (tensor<512xf32>) -> tensor<384x512xf32>
    %3940 = stablehlo.add %3938, %3939 : tensor<384x512xf32>
    %3941 = stablehlo.reshape %3940 : (tensor<384x512xf32>) -> tensor<1x384x512xf32>
    %3942 = stablehlo.maximum %3941, %9 : tensor<1x384x512xf32>
    %3943 = stablehlo.reshape %3942 : (tensor<1x384x512xf32>) -> tensor<384x512xf32>
    %3944 = stablehlo.dot %3943, %686 : (tensor<384x512xf32>, tensor<512x128xf32>) -> tensor<384x128xf32>
    %3945 = stablehlo.broadcast_in_dim %685, dims = [1] : (tensor<128xf32>) -> tensor<384x128xf32>
    %3946 = stablehlo.add %3944, %3945 : tensor<384x128xf32>
    %3947 = stablehlo.reshape %3946 : (tensor<384x128xf32>) -> tensor<1x384x128xf32>
    %3948 = stablehlo.add %3947, %3936 : tensor<1x384x128xf32>
    %3949 = stablehlo.broadcast_in_dim %684, dims = [2] : (tensor<128xf32>) -> tensor<1x384x128xf32>
    %3950 = stablehlo.multiply %3948, %3949 : tensor<1x384x128xf32>
    %3951 = stablehlo.broadcast_in_dim %683, dims = [2] : (tensor<128xf32>) -> tensor<1x384x128xf32>
    %3952 = stablehlo.add %3950, %3951 : tensor<1x384x128xf32>
    %3953 = stablehlo.reshape %3952 : (tensor<1x384x128xf32>) -> tensor<384x128xf32>
    %3954 = stablehlo.dot %3953, %688 : (tensor<384x128xf32>, tensor<128x512xf32>) -> tensor<384x512xf32>
    %3955 = stablehlo.broadcast_in_dim %687, dims = [1] : (tensor<512xf32>) -> tensor<384x512xf32>
    %3956 = stablehlo.add %3954, %3955 : tensor<384x512xf32>
    %3957 = stablehlo.reshape %3956 : (tensor<384x512xf32>) -> tensor<1x384x512xf32>
    %3958 = stablehlo.maximum %3957, %9 : tensor<1x384x512xf32>
    %3959 = stablehlo.reshape %3958 : (tensor<1x384x512xf32>) -> tensor<384x512xf32>
    %3960 = stablehlo.dot %3959, %692 : (tensor<384x512xf32>, tensor<512x128xf32>) -> tensor<384x128xf32>
    %3961 = stablehlo.broadcast_in_dim %691, dims = [1] : (tensor<128xf32>) -> tensor<384x128xf32>
    %3962 = stablehlo.add %3960, %3961 : tensor<384x128xf32>
    %3963 = stablehlo.reshape %3962 : (tensor<384x128xf32>) -> tensor<1x384x128xf32>
    %3964 = stablehlo.add %3963, %3952 : tensor<1x384x128xf32>
    %3965 = stablehlo.broadcast_in_dim %690, dims = [2] : (tensor<128xf32>) -> tensor<1x384x128xf32>
    %3966 = stablehlo.multiply %3964, %3965 : tensor<1x384x128xf32>
    %3967 = stablehlo.broadcast_in_dim %689, dims = [2] : (tensor<128xf32>) -> tensor<1x384x128xf32>
    %3968 = stablehlo.add %3966, %3967 : tensor<1x384x128xf32>
    %3969 = stablehlo.reshape %3968 : (tensor<1x384x128xf32>) -> tensor<384x128xf32>
    %3970 = stablehlo.dot %3969, %694 : (tensor<384x128xf32>, tensor<128x512xf32>) -> tensor<384x512xf32>
    %3971 = stablehlo.broadcast_in_dim %693, dims = [1] : (tensor<512xf32>) -> tensor<384x512xf32>
    %3972 = stablehlo.add %3970, %3971 : tensor<384x512xf32>
    %3973 = stablehlo.reshape %3972 : (tensor<384x512xf32>) -> tensor<1x384x512xf32>
    %3974 = stablehlo.maximum %3973, %9 : tensor<1x384x512xf32>
    %3975 = stablehlo.reshape %3974 : (tensor<1x384x512xf32>) -> tensor<384x512xf32>
    %3976 = stablehlo.dot %3975, %698 : (tensor<384x512xf32>, tensor<512x128xf32>) -> tensor<384x128xf32>
    %3977 = stablehlo.broadcast_in_dim %697, dims = [1] : (tensor<128xf32>) -> tensor<384x128xf32>
    %3978 = stablehlo.add %3976, %3977 : tensor<384x128xf32>
    %3979 = stablehlo.reshape %3978 : (tensor<384x128xf32>) -> tensor<1x384x128xf32>
    %3980 = stablehlo.add %3979, %3968 : tensor<1x384x128xf32>
    %3981 = stablehlo.broadcast_in_dim %696, dims = [2] : (tensor<128xf32>) -> tensor<1x384x128xf32>
    %3982 = stablehlo.multiply %3980, %3981 : tensor<1x384x128xf32>
    %3983 = stablehlo.broadcast_in_dim %695, dims = [2] : (tensor<128xf32>) -> tensor<1x384x128xf32>
    %3984 = stablehlo.add %3982, %3983 : tensor<1x384x128xf32>
    %3985 = stablehlo.reshape %3984 : (tensor<1x384x128xf32>) -> tensor<384x128xf32>
    %3986 = stablehlo.dot %3985, %700 : (tensor<384x128xf32>, tensor<128x512xf32>) -> tensor<384x512xf32>
    %3987 = stablehlo.broadcast_in_dim %699, dims = [1] : (tensor<512xf32>) -> tensor<384x512xf32>
    %3988 = stablehlo.add %3986, %3987 : tensor<384x512xf32>
    %3989 = stablehlo.reshape %3988 : (tensor<384x512xf32>) -> tensor<1x384x512xf32>
    %3990 = stablehlo.maximum %3989, %9 : tensor<1x384x512xf32>
    %3991 = stablehlo.reshape %3990 : (tensor<1x384x512xf32>) -> tensor<384x512xf32>
    %3992 = stablehlo.dot %3991, %708 : (tensor<384x512xf32>, tensor<512x128xf32>) -> tensor<384x128xf32>
    %3993 = stablehlo.broadcast_in_dim %707, dims = [1] : (tensor<128xf32>) -> tensor<384x128xf32>
    %3994 = stablehlo.add %3992, %3993 : tensor<384x128xf32>
    %3995 = stablehlo.reshape %3994 : (tensor<384x128xf32>) -> tensor<1x384x128xf32>
    %3996 = stablehlo.add %3995, %3984 : tensor<1x384x128xf32>
    %3997 = stablehlo.broadcast_in_dim %702, dims = [2] : (tensor<128xf32>) -> tensor<1x384x128xf32>
    %3998 = stablehlo.multiply %3996, %3997 : tensor<1x384x128xf32>
    %3999 = stablehlo.broadcast_in_dim %701, dims = [2] : (tensor<128xf32>) -> tensor<1x384x128xf32>
    %4000 = stablehlo.add %3998, %3999 : tensor<1x384x128xf32>
    %4001 = stablehlo.reshape %4000 : (tensor<1x384x128xf32>) -> tensor<384x128xf32>
    %4002 = stablehlo.dot %4001, %706 : (tensor<384x128xf32>, tensor<128x512xf32>) -> tensor<384x512xf32>
    %4003 = stablehlo.broadcast_in_dim %705, dims = [1] : (tensor<512xf32>) -> tensor<384x512xf32>
    %4004 = stablehlo.add %4002, %4003 : tensor<384x512xf32>
    %4005 = stablehlo.reshape %4004 : (tensor<384x512xf32>) -> tensor<1x384x512xf32>
    %4006 = stablehlo.add %4005, %3880 : tensor<1x384x512xf32>
    %4007 = stablehlo.broadcast_in_dim %704, dims = [2] : (tensor<512xf32>) -> tensor<1x384x512xf32>
    %4008 = stablehlo.multiply %4006, %4007 : tensor<1x384x512xf32>
    %4009 = stablehlo.broadcast_in_dim %703, dims = [2] : (tensor<512xf32>) -> tensor<1x384x512xf32>
    %4010 = stablehlo.add %4008, %4009 : tensor<1x384x512xf32>
    %4011 = stablehlo.reshape %4010 : (tensor<1x384x512xf32>) -> tensor<384x512xf32>
    %4012 = stablehlo.dot %4011, %718 : (tensor<384x512xf32>, tensor<512x128xf32>) -> tensor<384x128xf32>
    %4013 = stablehlo.broadcast_in_dim %717, dims = [1] : (tensor<128xf32>) -> tensor<384x128xf32>
    %4014 = stablehlo.add %4012, %4013 : tensor<384x128xf32>
    %4015 = stablehlo.reshape %4014 : (tensor<384x128xf32>) -> tensor<1x384x4x32xf32>
    %4016 = stablehlo.transpose %4015, dims = [0, 2, 1, 3] : (tensor<1x384x4x32xf32>) -> tensor<1x4x384x32xf32>
    %4017 = stablehlo.dot %4011, %722 : (tensor<384x512xf32>, tensor<512x128xf32>) -> tensor<384x128xf32>
    %4018 = stablehlo.reshape %4017 : (tensor<384x128xf32>) -> tensor<1x384x128xf32>
    %4019 = stablehlo.broadcast_in_dim %721, dims = [2] : (tensor<128xf32>) -> tensor<1x384x128xf32>
    %4020 = stablehlo.add %4018, %4019 : tensor<1x384x128xf32>
    %4021 = stablehlo.broadcast_in_dim %720, dims = [2] : (tensor<128xf32>) -> tensor<1x384x128xf32>
    %4022 = stablehlo.multiply %4020, %4021 : tensor<1x384x128xf32>
    %4023 = stablehlo.broadcast_in_dim %719, dims = [2] : (tensor<128xf32>) -> tensor<1x384x128xf32>
    %4024 = stablehlo.add %4022, %4023 : tensor<1x384x128xf32>
    %4025 = stablehlo.reshape %4024 : (tensor<1x384x128xf32>) -> tensor<384x128xf32>
    %4026 = stablehlo.dot %4025, %714 : (tensor<384x128xf32>, tensor<128x128xf32>) -> tensor<384x128xf32>
    %4027 = stablehlo.broadcast_in_dim %713, dims = [1] : (tensor<128xf32>) -> tensor<384x128xf32>
    %4028 = stablehlo.add %4026, %4027 : tensor<384x128xf32>
    %4029 = stablehlo.reshape %4028 : (tensor<384x128xf32>) -> tensor<1x384x4x32xf32>
    %4030 = stablehlo.transpose %4029, dims = [0, 2, 1, 3] : (tensor<1x384x4x32xf32>) -> tensor<1x4x384x32xf32>
    %4031 = stablehlo.dot %4025, %716 : (tensor<384x128xf32>, tensor<128x128xf32>) -> tensor<384x128xf32>
    %4032 = stablehlo.broadcast_in_dim %715, dims = [1] : (tensor<128xf32>) -> tensor<384x128xf32>
    %4033 = stablehlo.add %4031, %4032 : tensor<384x128xf32>
    %4034 = stablehlo.reshape %4033 : (tensor<384x128xf32>) -> tensor<1x384x4x32xf32>
    %4035 = stablehlo.transpose %4034, dims = [0, 2, 1, 3] : (tensor<1x384x4x32xf32>) -> tensor<1x4x384x32xf32>
    %4036 = stablehlo.dot_general %4035, %4030, batching_dims = [0, 1] x [0, 1], contracting_dims = [3] x [3] : (tensor<1x4x384x32xf32>, tensor<1x4x384x32xf32>) -> tensor<1x4x384x384xf32>
    %4037 = stablehlo.multiply %4036, %4 : tensor<1x4x384x384xf32>
    %4038 = stablehlo.broadcast_in_dim %1143, dims = [0, 1, 2, 3] : (tensor<1x1x384x384xf32>) -> tensor<1x4x384x384xf32>
    %4039 = stablehlo.add %4037, %4038 : tensor<1x4x384x384xf32>
    %4040 = stablehlo.reduce(%4039 init: %7) across dimensions = [3] : (tensor<1x4x384x384xf32>, tensor<f32>) -> tensor<1x4x384xf32>
     reducer(%arg0: tensor<f32>, %arg1: tensor<f32>)  {
      %4282 = stablehlo.maximum %arg0, %arg1 : tensor<f32>
      stablehlo.return %4282 : tensor<f32>
    }
    %4041 = stablehlo.broadcast_in_dim %4040, dims = [0, 1, 2] : (tensor<1x4x384xf32>) -> tensor<1x4x384x384xf32>
    %4042 = stablehlo.subtract %4039, %4041 : tensor<1x4x384x384xf32>
    %4043 = stablehlo.exponential %4042 : tensor<1x4x384x384xf32>
    %4044 = stablehlo.reduce(%4043 init: %8) across dimensions = [3] : (tensor<1x4x384x384xf32>, tensor<f32>) -> tensor<1x4x384xf32>
     reducer(%arg0: tensor<f32>, %arg1: tensor<f32>)  {
      %4282 = stablehlo.add %arg0, %arg1 : tensor<f32>
      stablehlo.return %4282 : tensor<f32>
    }
    %4045 = stablehlo.broadcast_in_dim %4044, dims = [0, 1, 2] : (tensor<1x4x384xf32>) -> tensor<1x4x384x384xf32>
    %4046 = stablehlo.divide %4043, %4045 : tensor<1x4x384x384xf32>
    %4047 = stablehlo.dot_general %4046, %4016, batching_dims = [0, 1] x [0, 1], contracting_dims = [3] x [2] : (tensor<1x4x384x384xf32>, tensor<1x4x384x32xf32>) -> tensor<1x4x384x32xf32>
    %4048 = stablehlo.transpose %4047, dims = [0, 2, 1, 3] : (tensor<1x4x384x32xf32>) -> tensor<1x384x4x32xf32>
    %4049 = stablehlo.reshape %4048 : (tensor<1x384x4x32xf32>) -> tensor<384x128xf32>
    %4050 = stablehlo.dot %4049, %712 : (tensor<384x128xf32>, tensor<128x128xf32>) -> tensor<384x128xf32>
    %4051 = stablehlo.broadcast_in_dim %711, dims = [1] : (tensor<128xf32>) -> tensor<384x128xf32>
    %4052 = stablehlo.add %4050, %4051 : tensor<384x128xf32>
    %4053 = stablehlo.reshape %4052 : (tensor<384x128xf32>) -> tensor<1x384x128xf32>
    %4054 = stablehlo.dot %4011, %726 : (tensor<384x512xf32>, tensor<512x128xf32>) -> tensor<384x128xf32>
    %4055 = stablehlo.broadcast_in_dim %725, dims = [1] : (tensor<128xf32>) -> tensor<384x128xf32>
    %4056 = stablehlo.add %4054, %4055 : tensor<384x128xf32>
    %4057 = stablehlo.reshape %4056 : (tensor<384x128xf32>) -> tensor<1x384x128xf32>
    %4058 = stablehlo.broadcast_in_dim %724, dims = [2] : (tensor<128xf32>) -> tensor<1x384x128xf32>
    %4059 = stablehlo.multiply %4057, %4058 : tensor<1x384x128xf32>
    %4060 = stablehlo.broadcast_in_dim %723, dims = [2] : (tensor<128xf32>) -> tensor<1x384x128xf32>
    %4061 = stablehlo.add %4059, %4060 : tensor<1x384x128xf32>
    %4062 = stablehlo.add %4053, %4061 : tensor<1x384x128xf32>
    %4063 = stablehlo.broadcast_in_dim %710, dims = [2] : (tensor<128xf32>) -> tensor<1x384x128xf32>
    %4064 = stablehlo.multiply %4062, %4063 : tensor<1x384x128xf32>
    %4065 = stablehlo.broadcast_in_dim %709, dims = [2] : (tensor<128xf32>) -> tensor<1x384x128xf32>
    %4066 = stablehlo.add %4064, %4065 : tensor<1x384x128xf32>
    %4067 = stablehlo.reshape %4066 : (tensor<1x384x128xf32>) -> tensor<384x128xf32>
    %4068 = stablehlo.dot %4067, %728 : (tensor<384x128xf32>, tensor<128x512xf32>) -> tensor<384x512xf32>
    %4069 = stablehlo.broadcast_in_dim %727, dims = [1] : (tensor<512xf32>) -> tensor<384x512xf32>
    %4070 = stablehlo.add %4068, %4069 : tensor<384x512xf32>
    %4071 = stablehlo.reshape %4070 : (tensor<384x512xf32>) -> tensor<1x384x512xf32>
    %4072 = stablehlo.maximum %4071, %9 : tensor<1x384x512xf32>
    %4073 = stablehlo.reshape %4072 : (tensor<1x384x512xf32>) -> tensor<384x512xf32>
    %4074 = stablehlo.dot %4073, %732 : (tensor<384x512xf32>, tensor<512x128xf32>) -> tensor<384x128xf32>
    %4075 = stablehlo.broadcast_in_dim %731, dims = [1] : (tensor<128xf32>) -> tensor<384x128xf32>
    %4076 = stablehlo.add %4074, %4075 : tensor<384x128xf32>
    %4077 = stablehlo.reshape %4076 : (tensor<384x128xf32>) -> tensor<1x384x128xf32>
    %4078 = stablehlo.add %4077, %4066 : tensor<1x384x128xf32>
    %4079 = stablehlo.broadcast_in_dim %730, dims = [2] : (tensor<128xf32>) -> tensor<1x384x128xf32>
    %4080 = stablehlo.multiply %4078, %4079 : tensor<1x384x128xf32>
    %4081 = stablehlo.broadcast_in_dim %729, dims = [2] : (tensor<128xf32>) -> tensor<1x384x128xf32>
    %4082 = stablehlo.add %4080, %4081 : tensor<1x384x128xf32>
    %4083 = stablehlo.reshape %4082 : (tensor<1x384x128xf32>) -> tensor<384x128xf32>
    %4084 = stablehlo.dot %4083, %734 : (tensor<384x128xf32>, tensor<128x512xf32>) -> tensor<384x512xf32>
    %4085 = stablehlo.broadcast_in_dim %733, dims = [1] : (tensor<512xf32>) -> tensor<384x512xf32>
    %4086 = stablehlo.add %4084, %4085 : tensor<384x512xf32>
    %4087 = stablehlo.reshape %4086 : (tensor<384x512xf32>) -> tensor<1x384x512xf32>
    %4088 = stablehlo.maximum %4087, %9 : tensor<1x384x512xf32>
    %4089 = stablehlo.reshape %4088 : (tensor<1x384x512xf32>) -> tensor<384x512xf32>
    %4090 = stablehlo.dot %4089, %738 : (tensor<384x512xf32>, tensor<512x128xf32>) -> tensor<384x128xf32>
    %4091 = stablehlo.broadcast_in_dim %737, dims = [1] : (tensor<128xf32>) -> tensor<384x128xf32>
    %4092 = stablehlo.add %4090, %4091 : tensor<384x128xf32>
    %4093 = stablehlo.reshape %4092 : (tensor<384x128xf32>) -> tensor<1x384x128xf32>
    %4094 = stablehlo.add %4093, %4082 : tensor<1x384x128xf32>
    %4095 = stablehlo.broadcast_in_dim %736, dims = [2] : (tensor<128xf32>) -> tensor<1x384x128xf32>
    %4096 = stablehlo.multiply %4094, %4095 : tensor<1x384x128xf32>
    %4097 = stablehlo.broadcast_in_dim %735, dims = [2] : (tensor<128xf32>) -> tensor<1x384x128xf32>
    %4098 = stablehlo.add %4096, %4097 : tensor<1x384x128xf32>
    %4099 = stablehlo.reshape %4098 : (tensor<1x384x128xf32>) -> tensor<384x128xf32>
    %4100 = stablehlo.dot %4099, %740 : (tensor<384x128xf32>, tensor<128x512xf32>) -> tensor<384x512xf32>
    %4101 = stablehlo.broadcast_in_dim %739, dims = [1] : (tensor<512xf32>) -> tensor<384x512xf32>
    %4102 = stablehlo.add %4100, %4101 : tensor<384x512xf32>
    %4103 = stablehlo.reshape %4102 : (tensor<384x512xf32>) -> tensor<1x384x512xf32>
    %4104 = stablehlo.maximum %4103, %9 : tensor<1x384x512xf32>
    %4105 = stablehlo.reshape %4104 : (tensor<1x384x512xf32>) -> tensor<384x512xf32>
    %4106 = stablehlo.dot %4105, %744 : (tensor<384x512xf32>, tensor<512x128xf32>) -> tensor<384x128xf32>
    %4107 = stablehlo.broadcast_in_dim %743, dims = [1] : (tensor<128xf32>) -> tensor<384x128xf32>
    %4108 = stablehlo.add %4106, %4107 : tensor<384x128xf32>
    %4109 = stablehlo.reshape %4108 : (tensor<384x128xf32>) -> tensor<1x384x128xf32>
    %4110 = stablehlo.add %4109, %4098 : tensor<1x384x128xf32>
    %4111 = stablehlo.broadcast_in_dim %742, dims = [2] : (tensor<128xf32>) -> tensor<1x384x128xf32>
    %4112 = stablehlo.multiply %4110, %4111 : tensor<1x384x128xf32>
    %4113 = stablehlo.broadcast_in_dim %741, dims = [2] : (tensor<128xf32>) -> tensor<1x384x128xf32>
    %4114 = stablehlo.add %4112, %4113 : tensor<1x384x128xf32>
    %4115 = stablehlo.reshape %4114 : (tensor<1x384x128xf32>) -> tensor<384x128xf32>
    %4116 = stablehlo.dot %4115, %746 : (tensor<384x128xf32>, tensor<128x512xf32>) -> tensor<384x512xf32>
    %4117 = stablehlo.broadcast_in_dim %745, dims = [1] : (tensor<512xf32>) -> tensor<384x512xf32>
    %4118 = stablehlo.add %4116, %4117 : tensor<384x512xf32>
    %4119 = stablehlo.reshape %4118 : (tensor<384x512xf32>) -> tensor<1x384x512xf32>
    %4120 = stablehlo.maximum %4119, %9 : tensor<1x384x512xf32>
    %4121 = stablehlo.reshape %4120 : (tensor<1x384x512xf32>) -> tensor<384x512xf32>
    %4122 = stablehlo.dot %4121, %754 : (tensor<384x512xf32>, tensor<512x128xf32>) -> tensor<384x128xf32>
    %4123 = stablehlo.broadcast_in_dim %753, dims = [1] : (tensor<128xf32>) -> tensor<384x128xf32>
    %4124 = stablehlo.add %4122, %4123 : tensor<384x128xf32>
    %4125 = stablehlo.reshape %4124 : (tensor<384x128xf32>) -> tensor<1x384x128xf32>
    %4126 = stablehlo.add %4125, %4114 : tensor<1x384x128xf32>
    %4127 = stablehlo.broadcast_in_dim %748, dims = [2] : (tensor<128xf32>) -> tensor<1x384x128xf32>
    %4128 = stablehlo.multiply %4126, %4127 : tensor<1x384x128xf32>
    %4129 = stablehlo.broadcast_in_dim %747, dims = [2] : (tensor<128xf32>) -> tensor<1x384x128xf32>
    %4130 = stablehlo.add %4128, %4129 : tensor<1x384x128xf32>
    %4131 = stablehlo.reshape %4130 : (tensor<1x384x128xf32>) -> tensor<384x128xf32>
    %4132 = stablehlo.dot %4131, %752 : (tensor<384x128xf32>, tensor<128x512xf32>) -> tensor<384x512xf32>
    %4133 = stablehlo.broadcast_in_dim %751, dims = [1] : (tensor<512xf32>) -> tensor<384x512xf32>
    %4134 = stablehlo.add %4132, %4133 : tensor<384x512xf32>
    %4135 = stablehlo.reshape %4134 : (tensor<384x512xf32>) -> tensor<1x384x512xf32>
    %4136 = stablehlo.add %4135, %4010 : tensor<1x384x512xf32>
    %4137 = stablehlo.broadcast_in_dim %750, dims = [2] : (tensor<512xf32>) -> tensor<1x384x512xf32>
    %4138 = stablehlo.multiply %4136, %4137 : tensor<1x384x512xf32>
    %4139 = stablehlo.broadcast_in_dim %749, dims = [2] : (tensor<512xf32>) -> tensor<1x384x512xf32>
    %4140 = stablehlo.add %4138, %4139 : tensor<1x384x512xf32>
    %4141 = stablehlo.reshape %4140 : (tensor<1x384x512xf32>) -> tensor<384x512xf32>
    %4142 = stablehlo.dot %4141, %764 : (tensor<384x512xf32>, tensor<512x128xf32>) -> tensor<384x128xf32>
    %4143 = stablehlo.broadcast_in_dim %763, dims = [1] : (tensor<128xf32>) -> tensor<384x128xf32>
    %4144 = stablehlo.add %4142, %4143 : tensor<384x128xf32>
    %4145 = stablehlo.reshape %4144 : (tensor<384x128xf32>) -> tensor<1x384x4x32xf32>
    %4146 = stablehlo.transpose %4145, dims = [0, 2, 1, 3] : (tensor<1x384x4x32xf32>) -> tensor<1x4x384x32xf32>
    %4147 = stablehlo.dot %4141, %768 : (tensor<384x512xf32>, tensor<512x128xf32>) -> tensor<384x128xf32>
    %4148 = stablehlo.reshape %4147 : (tensor<384x128xf32>) -> tensor<1x384x128xf32>
    %4149 = stablehlo.broadcast_in_dim %767, dims = [2] : (tensor<128xf32>) -> tensor<1x384x128xf32>
    %4150 = stablehlo.add %4148, %4149 : tensor<1x384x128xf32>
    %4151 = stablehlo.broadcast_in_dim %766, dims = [2] : (tensor<128xf32>) -> tensor<1x384x128xf32>
    %4152 = stablehlo.multiply %4150, %4151 : tensor<1x384x128xf32>
    %4153 = stablehlo.broadcast_in_dim %765, dims = [2] : (tensor<128xf32>) -> tensor<1x384x128xf32>
    %4154 = stablehlo.add %4152, %4153 : tensor<1x384x128xf32>
    %4155 = stablehlo.reshape %4154 : (tensor<1x384x128xf32>) -> tensor<384x128xf32>
    %4156 = stablehlo.dot %4155, %760 : (tensor<384x128xf32>, tensor<128x128xf32>) -> tensor<384x128xf32>
    %4157 = stablehlo.broadcast_in_dim %759, dims = [1] : (tensor<128xf32>) -> tensor<384x128xf32>
    %4158 = stablehlo.add %4156, %4157 : tensor<384x128xf32>
    %4159 = stablehlo.reshape %4158 : (tensor<384x128xf32>) -> tensor<1x384x4x32xf32>
    %4160 = stablehlo.transpose %4159, dims = [0, 2, 1, 3] : (tensor<1x384x4x32xf32>) -> tensor<1x4x384x32xf32>
    %4161 = stablehlo.dot %4155, %762 : (tensor<384x128xf32>, tensor<128x128xf32>) -> tensor<384x128xf32>
    %4162 = stablehlo.broadcast_in_dim %761, dims = [1] : (tensor<128xf32>) -> tensor<384x128xf32>
    %4163 = stablehlo.add %4161, %4162 : tensor<384x128xf32>
    %4164 = stablehlo.reshape %4163 : (tensor<384x128xf32>) -> tensor<1x384x4x32xf32>
    %4165 = stablehlo.transpose %4164, dims = [0, 2, 1, 3] : (tensor<1x384x4x32xf32>) -> tensor<1x4x384x32xf32>
    %4166 = stablehlo.dot_general %4165, %4160, batching_dims = [0, 1] x [0, 1], contracting_dims = [3] x [3] : (tensor<1x4x384x32xf32>, tensor<1x4x384x32xf32>) -> tensor<1x4x384x384xf32>
    %4167 = stablehlo.multiply %4166, %4 : tensor<1x4x384x384xf32>
    %4168 = stablehlo.broadcast_in_dim %1143, dims = [0, 1, 2, 3] : (tensor<1x1x384x384xf32>) -> tensor<1x4x384x384xf32>
    %4169 = stablehlo.add %4167, %4168 : tensor<1x4x384x384xf32>
    %4170 = stablehlo.reduce(%4169 init: %7) across dimensions = [3] : (tensor<1x4x384x384xf32>, tensor<f32>) -> tensor<1x4x384xf32>
     reducer(%arg0: tensor<f32>, %arg1: tensor<f32>)  {
      %4282 = stablehlo.maximum %arg0, %arg1 : tensor<f32>
      stablehlo.return %4282 : tensor<f32>
    }
    %4171 = stablehlo.broadcast_in_dim %4170, dims = [0, 1, 2] : (tensor<1x4x384xf32>) -> tensor<1x4x384x384xf32>
    %4172 = stablehlo.subtract %4169, %4171 : tensor<1x4x384x384xf32>
    %4173 = stablehlo.exponential %4172 : tensor<1x4x384x384xf32>
    %4174 = stablehlo.reduce(%4173 init: %8) across dimensions = [3] : (tensor<1x4x384x384xf32>, tensor<f32>) -> tensor<1x4x384xf32>
     reducer(%arg0: tensor<f32>, %arg1: tensor<f32>)  {
      %4282 = stablehlo.add %arg0, %arg1 : tensor<f32>
      stablehlo.return %4282 : tensor<f32>
    }
    %4175 = stablehlo.broadcast_in_dim %4174, dims = [0, 1, 2] : (tensor<1x4x384xf32>) -> tensor<1x4x384x384xf32>
    %4176 = stablehlo.divide %4173, %4175 : tensor<1x4x384x384xf32>
    %4177 = stablehlo.dot_general %4176, %4146, batching_dims = [0, 1] x [0, 1], contracting_dims = [3] x [2] : (tensor<1x4x384x384xf32>, tensor<1x4x384x32xf32>) -> tensor<1x4x384x32xf32>
    %4178 = stablehlo.transpose %4177, dims = [0, 2, 1, 3] : (tensor<1x4x384x32xf32>) -> tensor<1x384x4x32xf32>
    %4179 = stablehlo.reshape %4178 : (tensor<1x384x4x32xf32>) -> tensor<384x128xf32>
    %4180 = stablehlo.dot %4179, %758 : (tensor<384x128xf32>, tensor<128x128xf32>) -> tensor<384x128xf32>
    %4181 = stablehlo.broadcast_in_dim %757, dims = [1] : (tensor<128xf32>) -> tensor<384x128xf32>
    %4182 = stablehlo.add %4180, %4181 : tensor<384x128xf32>
    %4183 = stablehlo.reshape %4182 : (tensor<384x128xf32>) -> tensor<1x384x128xf32>
    %4184 = stablehlo.dot %4141, %772 : (tensor<384x512xf32>, tensor<512x128xf32>) -> tensor<384x128xf32>
    %4185 = stablehlo.broadcast_in_dim %771, dims = [1] : (tensor<128xf32>) -> tensor<384x128xf32>
    %4186 = stablehlo.add %4184, %4185 : tensor<384x128xf32>
    %4187 = stablehlo.reshape %4186 : (tensor<384x128xf32>) -> tensor<1x384x128xf32>
    %4188 = stablehlo.broadcast_in_dim %770, dims = [2] : (tensor<128xf32>) -> tensor<1x384x128xf32>
    %4189 = stablehlo.multiply %4187, %4188 : tensor<1x384x128xf32>
    %4190 = stablehlo.broadcast_in_dim %769, dims = [2] : (tensor<128xf32>) -> tensor<1x384x128xf32>
    %4191 = stablehlo.add %4189, %4190 : tensor<1x384x128xf32>
    %4192 = stablehlo.add %4183, %4191 : tensor<1x384x128xf32>
    %4193 = stablehlo.broadcast_in_dim %756, dims = [2] : (tensor<128xf32>) -> tensor<1x384x128xf32>
    %4194 = stablehlo.multiply %4192, %4193 : tensor<1x384x128xf32>
    %4195 = stablehlo.broadcast_in_dim %755, dims = [2] : (tensor<128xf32>) -> tensor<1x384x128xf32>
    %4196 = stablehlo.add %4194, %4195 : tensor<1x384x128xf32>
    %4197 = stablehlo.reshape %4196 : (tensor<1x384x128xf32>) -> tensor<384x128xf32>
    %4198 = stablehlo.dot %4197, %774 : (tensor<384x128xf32>, tensor<128x512xf32>) -> tensor<384x512xf32>
    %4199 = stablehlo.broadcast_in_dim %773, dims = [1] : (tensor<512xf32>) -> tensor<384x512xf32>
    %4200 = stablehlo.add %4198, %4199 : tensor<384x512xf32>
    %4201 = stablehlo.reshape %4200 : (tensor<384x512xf32>) -> tensor<1x384x512xf32>
    %4202 = stablehlo.maximum %4201, %9 : tensor<1x384x512xf32>
    %4203 = stablehlo.reshape %4202 : (tensor<1x384x512xf32>) -> tensor<384x512xf32>
    %4204 = stablehlo.dot %4203, %778 : (tensor<384x512xf32>, tensor<512x128xf32>) -> tensor<384x128xf32>
    %4205 = stablehlo.broadcast_in_dim %777, dims = [1] : (tensor<128xf32>) -> tensor<384x128xf32>
    %4206 = stablehlo.add %4204, %4205 : tensor<384x128xf32>
    %4207 = stablehlo.reshape %4206 : (tensor<384x128xf32>) -> tensor<1x384x128xf32>
    %4208 = stablehlo.add %4207, %4196 : tensor<1x384x128xf32>
    %4209 = stablehlo.broadcast_in_dim %776, dims = [2] : (tensor<128xf32>) -> tensor<1x384x128xf32>
    %4210 = stablehlo.multiply %4208, %4209 : tensor<1x384x128xf32>
    %4211 = stablehlo.broadcast_in_dim %775, dims = [2] : (tensor<128xf32>) -> tensor<1x384x128xf32>
    %4212 = stablehlo.add %4210, %4211 : tensor<1x384x128xf32>
    %4213 = stablehlo.reshape %4212 : (tensor<1x384x128xf32>) -> tensor<384x128xf32>
    %4214 = stablehlo.dot %4213, %780 : (tensor<384x128xf32>, tensor<128x512xf32>) -> tensor<384x512xf32>
    %4215 = stablehlo.broadcast_in_dim %779, dims = [1] : (tensor<512xf32>) -> tensor<384x512xf32>
    %4216 = stablehlo.add %4214, %4215 : tensor<384x512xf32>
    %4217 = stablehlo.reshape %4216 : (tensor<384x512xf32>) -> tensor<1x384x512xf32>
    %4218 = stablehlo.maximum %4217, %9 : tensor<1x384x512xf32>
    %4219 = stablehlo.reshape %4218 : (tensor<1x384x512xf32>) -> tensor<384x512xf32>
    %4220 = stablehlo.dot %4219, %784 : (tensor<384x512xf32>, tensor<512x128xf32>) -> tensor<384x128xf32>
    %4221 = stablehlo.broadcast_in_dim %783, dims = [1] : (tensor<128xf32>) -> tensor<384x128xf32>
    %4222 = stablehlo.add %4220, %4221 : tensor<384x128xf32>
    %4223 = stablehlo.reshape %4222 : (tensor<384x128xf32>) -> tensor<1x384x128xf32>
    %4224 = stablehlo.add %4223, %4212 : tensor<1x384x128xf32>
    %4225 = stablehlo.broadcast_in_dim %782, dims = [2] : (tensor<128xf32>) -> tensor<1x384x128xf32>
    %4226 = stablehlo.multiply %4224, %4225 : tensor<1x384x128xf32>
    %4227 = stablehlo.broadcast_in_dim %781, dims = [2] : (tensor<128xf32>) -> tensor<1x384x128xf32>
    %4228 = stablehlo.add %4226, %4227 : tensor<1x384x128xf32>
    %4229 = stablehlo.reshape %4228 : (tensor<1x384x128xf32>) -> tensor<384x128xf32>
    %4230 = stablehlo.dot %4229, %786 : (tensor<384x128xf32>, tensor<128x512xf32>) -> tensor<384x512xf32>
    %4231 = stablehlo.broadcast_in_dim %785, dims = [1] : (tensor<512xf32>) -> tensor<384x512xf32>
    %4232 = stablehlo.add %4230, %4231 : tensor<384x512xf32>
    %4233 = stablehlo.reshape %4232 : (tensor<384x512xf32>) -> tensor<1x384x512xf32>
    %4234 = stablehlo.maximum %4233, %9 : tensor<1x384x512xf32>
    %4235 = stablehlo.reshape %4234 : (tensor<1x384x512xf32>) -> tensor<384x512xf32>
    %4236 = stablehlo.dot %4235, %790 : (tensor<384x512xf32>, tensor<512x128xf32>) -> tensor<384x128xf32>
    %4237 = stablehlo.broadcast_in_dim %789, dims = [1] : (tensor<128xf32>) -> tensor<384x128xf32>
    %4238 = stablehlo.add %4236, %4237 : tensor<384x128xf32>
    %4239 = stablehlo.reshape %4238 : (tensor<384x128xf32>) -> tensor<1x384x128xf32>
    %4240 = stablehlo.add %4239, %4228 : tensor<1x384x128xf32>
    %4241 = stablehlo.broadcast_in_dim %788, dims = [2] : (tensor<128xf32>) -> tensor<1x384x128xf32>
    %4242 = stablehlo.multiply %4240, %4241 : tensor<1x384x128xf32>
    %4243 = stablehlo.broadcast_in_dim %787, dims = [2] : (tensor<128xf32>) -> tensor<1x384x128xf32>
    %4244 = stablehlo.add %4242, %4243 : tensor<1x384x128xf32>
    %4245 = stablehlo.reshape %4244 : (tensor<1x384x128xf32>) -> tensor<384x128xf32>
    %4246 = stablehlo.dot %4245, %792 : (tensor<384x128xf32>, tensor<128x512xf32>) -> tensor<384x512xf32>
    %4247 = stablehlo.broadcast_in_dim %791, dims = [1] : (tensor<512xf32>) -> tensor<384x512xf32>
    %4248 = stablehlo.add %4246, %4247 : tensor<384x512xf32>
    %4249 = stablehlo.reshape %4248 : (tensor<384x512xf32>) -> tensor<1x384x512xf32>
    %4250 = stablehlo.maximum %4249, %9 : tensor<1x384x512xf32>
    %4251 = stablehlo.reshape %4250 : (tensor<1x384x512xf32>) -> tensor<384x512xf32>
    %4252 = stablehlo.dot %4251, %800 : (tensor<384x512xf32>, tensor<512x128xf32>) -> tensor<384x128xf32>
    %4253 = stablehlo.broadcast_in_dim %799, dims = [1] : (tensor<128xf32>) -> tensor<384x128xf32>
    %4254 = stablehlo.add %4252, %4253 : tensor<384x128xf32>
    %4255 = stablehlo.reshape %4254 : (tensor<384x128xf32>) -> tensor<1x384x128xf32>
    %4256 = stablehlo.add %4255, %4244 : tensor<1x384x128xf32>
    %4257 = stablehlo.broadcast_in_dim %794, dims = [2] : (tensor<128xf32>) -> tensor<1x384x128xf32>
    %4258 = stablehlo.multiply %4256, %4257 : tensor<1x384x128xf32>
    %4259 = stablehlo.broadcast_in_dim %793, dims = [2] : (tensor<128xf32>) -> tensor<1x384x128xf32>
    %4260 = stablehlo.add %4258, %4259 : tensor<1x384x128xf32>
    %4261 = stablehlo.reshape %4260 : (tensor<1x384x128xf32>) -> tensor<384x128xf32>
    %4262 = stablehlo.dot %4261, %798 : (tensor<384x128xf32>, tensor<128x512xf32>) -> tensor<384x512xf32>
    %4263 = stablehlo.broadcast_in_dim %797, dims = [1] : (tensor<512xf32>) -> tensor<384x512xf32>
    %4264 = stablehlo.add %4262, %4263 : tensor<384x512xf32>
    %4265 = stablehlo.reshape %4264 : (tensor<384x512xf32>) -> tensor<1x384x512xf32>
    %4266 = stablehlo.add %4265, %4140 : tensor<1x384x512xf32>
    %4267 = stablehlo.broadcast_in_dim %796, dims = [2] : (tensor<512xf32>) -> tensor<1x384x512xf32>
    %4268 = stablehlo.multiply %4266, %4267 : tensor<1x384x512xf32>
    %4269 = stablehlo.broadcast_in_dim %795, dims = [2] : (tensor<512xf32>) -> tensor<1x384x512xf32>
    %4270 = stablehlo.add %4268, %4269 : tensor<1x384x512xf32>
    %4271 = stablehlo.reshape %4270 : (tensor<1x384x512xf32>) -> tensor<384x512xf32>
    %4272 = stablehlo.transpose %1124, dims = [1, 0] : (tensor<2x512xf32>) -> tensor<512x2xf32>
    %4273 = stablehlo.dot %4271, %4272 : (tensor<384x512xf32>, tensor<512x2xf32>) -> tensor<384x2xf32>
    %4274 = stablehlo.broadcast_in_dim %1123, dims = [1] : (tensor<2xf32>) -> tensor<384x2xf32>
    %4275 = stablehlo.add %4273, %4274 : tensor<384x2xf32>
    %4276 = stablehlo.reshape %4275 : (tensor<384x2xf32>) -> tensor<1x384x2xf32>
    %4277 = stablehlo.transpose %4276, dims = [2, 0, 1] : (tensor<1x384x2xf32>) -> tensor<2x1x384xf32>
    %4278 = "stablehlo.slice"(%4277) {limit_indices = dense<[1, 1, 384]> : tensor<3xi64>, start_indices = dense<0> : tensor<3xi64>, strides = dense<1> : tensor<3xi64>} : (tensor<2x1x384xf32>) -> tensor<1x1x384xf32>
    %4279 = stablehlo.reshape %4278 : (tensor<1x1x384xf32>) -> tensor<1x384xf32>
    %4280 = "stablehlo.slice"(%4277) {limit_indices = dense<[2, 1, 384]> : tensor<3xi64>, start_indices = dense<[1, 0, 0]> : tensor<3xi64>, strides = dense<1> : tensor<3xi64>} : (tensor<2x1x384xf32>) -> tensor<1x1x384xf32>
    %4281 = stablehlo.reshape %4280 : (tensor<1x1x384xf32>) -> tensor<1x384xf32>
    check.expect_almost_eq_const(%4279, dense<895.130676> : tensor<1x384xf32>) : tensor<1x384xf32>
    check.expect_almost_eq_const(%4281, dense<895.130676> : tensor<1x384xf32>) : tensor<1x384xf32>
    return
  }
}
