// MobileBert encoder model with placeholder weights, for testing.

module {
  util.global private @"__iree_flow_bert/embeddings/FakeLayerNorm/beta" = dense<1.0> : tensor<512xf32>
  util.global private @"__iree_flow_bert/embeddings/FakeLayerNorm/gamma" = dense<0.4> : tensor<512xf32>
  util.global private @"__iree_flow_bert/embeddings/embedding_transformation/bias" = dense<0.1> : tensor<512xf32>
  util.global private @"__iree_flow_bert/embeddings/embedding_transformation/kernel" {noinline} = dense<0.0001> : tensor<384x512xf32>
  util.global private @"__iree_flow_bert/embeddings/position_embeddings" {noinline} = dense<0.0> : tensor<512x512xf32>
  util.global private @"__iree_flow_bert/embeddings/token_type_embeddings" {noinline} = dense<0.0> : tensor<2x512xf32>
  util.global private @"__iree_flow_bert/embeddings/word_embeddings" {noinline} = dense<0.0> : tensor<30522x128xf32>
  util.global private @"__iree_flow_bert/encoder/layer_0/attention/output/FakeLayerNorm/beta" = dense<1.0> : tensor<128xf32>
  util.global private @"__iree_flow_bert/encoder/layer_0/attention/output/FakeLayerNorm/gamma" = dense<0.4> : tensor<128xf32>
  util.global private @"__iree_flow_bert/encoder/layer_0/attention/output/dense/bias" = dense<0.1> : tensor<128xf32>
  util.global private @"__iree_flow_bert/encoder/layer_0/attention/output/dense/kernel" {noinline} = dense<0.0001> : tensor<128x128xf32>
  util.global private @"__iree_flow_bert/encoder/layer_0/attention/self/key/bias" = dense<0.1> : tensor<128xf32>
  util.global private @"__iree_flow_bert/encoder/layer_0/attention/self/key/kernel" {noinline} = dense<0.0001> : tensor<128x128xf32>
  util.global private @"__iree_flow_bert/encoder/layer_0/attention/self/query/bias" = dense<0.1> : tensor<128xf32>
  util.global private @"__iree_flow_bert/encoder/layer_0/attention/self/query/kernel" {noinline} = dense<0.0001> : tensor<128x128xf32>
  util.global private @"__iree_flow_bert/encoder/layer_0/attention/self/value/bias" = dense<0.1> : tensor<128xf32>
  util.global private @"__iree_flow_bert/encoder/layer_0/attention/self/value/kernel" {noinline} = dense<0.0001> : tensor<512x128xf32>
  util.global private @"__iree_flow_bert/encoder/layer_0/bottleneck/attention/FakeLayerNorm/beta" = dense<1.0> : tensor<128xf32>
  util.global private @"__iree_flow_bert/encoder/layer_0/bottleneck/attention/FakeLayerNorm/gamma" = dense<0.4> : tensor<128xf32>
  util.global private @"__iree_flow_bert/encoder/layer_0/bottleneck/attention/dense/bias" = dense<0.1> : tensor<128xf32>
  util.global private @"__iree_flow_bert/encoder/layer_0/bottleneck/attention/dense/kernel" {noinline} = dense<0.0001> : tensor<512x128xf32>
  util.global private @"__iree_flow_bert/encoder/layer_0/bottleneck/input/FakeLayerNorm/beta" = dense<1.0> : tensor<128xf32>
  util.global private @"__iree_flow_bert/encoder/layer_0/bottleneck/input/FakeLayerNorm/gamma" = dense<0.4> : tensor<128xf32>
  util.global private @"__iree_flow_bert/encoder/layer_0/bottleneck/input/dense/bias" = dense<0.1> : tensor<128xf32>
  util.global private @"__iree_flow_bert/encoder/layer_0/bottleneck/input/dense/kernel" {noinline} = dense<0.0001> : tensor<512x128xf32>
  util.global private @"__iree_flow_bert/encoder/layer_0/ffn_layer_0/intermediate/dense/bias" = dense<0.1> : tensor<512xf32>
  util.global private @"__iree_flow_bert/encoder/layer_0/ffn_layer_0/intermediate/dense/kernel" {noinline} = dense<0.0001> : tensor<128x512xf32>
  util.global private @"__iree_flow_bert/encoder/layer_0/ffn_layer_0/output/FakeLayerNorm/beta" = dense<1.0> : tensor<128xf32>
  util.global private @"__iree_flow_bert/encoder/layer_0/ffn_layer_0/output/FakeLayerNorm/gamma" = dense<0.4> : tensor<128xf32>
  util.global private @"__iree_flow_bert/encoder/layer_0/ffn_layer_0/output/dense/bias" = dense<0.1> : tensor<128xf32>
  util.global private @"__iree_flow_bert/encoder/layer_0/ffn_layer_0/output/dense/kernel" {noinline} = dense<0.0001> : tensor<512x128xf32>
  util.global private @"__iree_flow_bert/encoder/layer_0/ffn_layer_1/intermediate/dense/bias" = dense<0.1> : tensor<512xf32>
  util.global private @"__iree_flow_bert/encoder/layer_0/ffn_layer_1/intermediate/dense/kernel" {noinline} = dense<0.0001> : tensor<128x512xf32>
  util.global private @"__iree_flow_bert/encoder/layer_0/ffn_layer_1/output/FakeLayerNorm/beta" = dense<1.0> : tensor<128xf32>
  util.global private @"__iree_flow_bert/encoder/layer_0/ffn_layer_1/output/FakeLayerNorm/gamma" = dense<0.4> : tensor<128xf32>
  util.global private @"__iree_flow_bert/encoder/layer_0/ffn_layer_1/output/dense/bias" = dense<0.1> : tensor<128xf32>
  util.global private @"__iree_flow_bert/encoder/layer_0/ffn_layer_1/output/dense/kernel" {noinline} = dense<0.0001> : tensor<512x128xf32>
  util.global private @"__iree_flow_bert/encoder/layer_0/ffn_layer_2/intermediate/dense/bias" = dense<0.1> : tensor<512xf32>
  util.global private @"__iree_flow_bert/encoder/layer_0/ffn_layer_2/intermediate/dense/kernel" {noinline} = dense<0.0001> : tensor<128x512xf32>
  util.global private @"__iree_flow_bert/encoder/layer_0/ffn_layer_2/output/FakeLayerNorm/beta" = dense<1.0> : tensor<128xf32>
  util.global private @"__iree_flow_bert/encoder/layer_0/ffn_layer_2/output/FakeLayerNorm/gamma" = dense<0.4> : tensor<128xf32>
  util.global private @"__iree_flow_bert/encoder/layer_0/ffn_layer_2/output/dense/bias" = dense<0.1> : tensor<128xf32>
  util.global private @"__iree_flow_bert/encoder/layer_0/ffn_layer_2/output/dense/kernel" {noinline} = dense<0.0001> : tensor<512x128xf32>
  util.global private @"__iree_flow_bert/encoder/layer_0/intermediate/dense/bias" = dense<0.1> : tensor<512xf32>
  util.global private @"__iree_flow_bert/encoder/layer_0/intermediate/dense/kernel" {noinline} = dense<0.0001> : tensor<128x512xf32>
  util.global private @"__iree_flow_bert/encoder/layer_0/output/FakeLayerNorm/beta" = dense<1.0> : tensor<128xf32>
  util.global private @"__iree_flow_bert/encoder/layer_0/output/FakeLayerNorm/gamma" = dense<0.4> : tensor<128xf32>
  util.global private @"__iree_flow_bert/encoder/layer_0/output/bottleneck/FakeLayerNorm/beta" = dense<1.0> : tensor<512xf32>
  util.global private @"__iree_flow_bert/encoder/layer_0/output/bottleneck/FakeLayerNorm/gamma" = dense<0.4> : tensor<512xf32>
  util.global private @"__iree_flow_bert/encoder/layer_0/output/bottleneck/dense/bias" = dense<0.1> : tensor<512xf32>
  util.global private @"__iree_flow_bert/encoder/layer_0/output/bottleneck/dense/kernel" {noinline} = dense<0.0001> : tensor<128x512xf32>
  util.global private @"__iree_flow_bert/encoder/layer_0/output/dense/bias" = dense<0.1> : tensor<128xf32>
  util.global private @"__iree_flow_bert/encoder/layer_0/output/dense/kernel" {noinline} = dense<0.0001> : tensor<512x128xf32>
  util.global private @"__iree_flow_bert/encoder/layer_1/attention/output/FakeLayerNorm/beta" = dense<1.0> : tensor<128xf32>
  util.global private @"__iree_flow_bert/encoder/layer_1/attention/output/FakeLayerNorm/gamma" = dense<0.4> : tensor<128xf32>
  util.global private @"__iree_flow_bert/encoder/layer_1/attention/output/dense/bias" = dense<0.1> : tensor<128xf32>
  util.global private @"__iree_flow_bert/encoder/layer_1/attention/output/dense/kernel" {noinline} = dense<0.0001> : tensor<128x128xf32>
  util.global private @"__iree_flow_bert/encoder/layer_1/attention/self/key/bias" = dense<0.1> : tensor<128xf32>
  util.global private @"__iree_flow_bert/encoder/layer_1/attention/self/key/kernel" {noinline} = dense<0.0001> : tensor<128x128xf32>
  util.global private @"__iree_flow_bert/encoder/layer_1/attention/self/query/bias" = dense<0.1> : tensor<128xf32>
  util.global private @"__iree_flow_bert/encoder/layer_1/attention/self/query/kernel" {noinline} = dense<0.0001> : tensor<128x128xf32>
  util.global private @"__iree_flow_bert/encoder/layer_1/attention/self/value/bias" = dense<0.1> : tensor<128xf32>
  util.global private @"__iree_flow_bert/encoder/layer_1/attention/self/value/kernel" {noinline} = dense<0.0001> : tensor<512x128xf32>
  util.global private @"__iree_flow_bert/encoder/layer_1/bottleneck/attention/FakeLayerNorm/beta" = dense<1.0> : tensor<128xf32>
  util.global private @"__iree_flow_bert/encoder/layer_1/bottleneck/attention/FakeLayerNorm/gamma" = dense<0.4> : tensor<128xf32>
  util.global private @"__iree_flow_bert/encoder/layer_1/bottleneck/attention/dense/bias" = dense<0.1> : tensor<128xf32>
  util.global private @"__iree_flow_bert/encoder/layer_1/bottleneck/attention/dense/kernel" {noinline} = dense<0.0001> : tensor<512x128xf32>
  util.global private @"__iree_flow_bert/encoder/layer_1/bottleneck/input/FakeLayerNorm/beta" = dense<1.0> : tensor<128xf32>
  util.global private @"__iree_flow_bert/encoder/layer_1/bottleneck/input/FakeLayerNorm/gamma" = dense<0.4> : tensor<128xf32>
  util.global private @"__iree_flow_bert/encoder/layer_1/bottleneck/input/dense/bias" = dense<0.1> : tensor<128xf32>
  util.global private @"__iree_flow_bert/encoder/layer_1/bottleneck/input/dense/kernel" {noinline} = dense<0.0001> : tensor<512x128xf32>
  util.global private @"__iree_flow_bert/encoder/layer_1/ffn_layer_0/intermediate/dense/bias" = dense<0.1> : tensor<512xf32>
  util.global private @"__iree_flow_bert/encoder/layer_1/ffn_layer_0/intermediate/dense/kernel" {noinline} = dense<0.0001> : tensor<128x512xf32>
  util.global private @"__iree_flow_bert/encoder/layer_1/ffn_layer_0/output/FakeLayerNorm/beta" = dense<1.0> : tensor<128xf32>
  util.global private @"__iree_flow_bert/encoder/layer_1/ffn_layer_0/output/FakeLayerNorm/gamma" = dense<0.4> : tensor<128xf32>
  util.global private @"__iree_flow_bert/encoder/layer_1/ffn_layer_0/output/dense/bias" = dense<0.1> : tensor<128xf32>
  util.global private @"__iree_flow_bert/encoder/layer_1/ffn_layer_0/output/dense/kernel" {noinline} = dense<0.0001> : tensor<512x128xf32>
  util.global private @"__iree_flow_bert/encoder/layer_1/ffn_layer_1/intermediate/dense/bias" = dense<0.1> : tensor<512xf32>
  util.global private @"__iree_flow_bert/encoder/layer_1/ffn_layer_1/intermediate/dense/kernel" {noinline} = dense<0.0001> : tensor<128x512xf32>
  util.global private @"__iree_flow_bert/encoder/layer_1/ffn_layer_1/output/FakeLayerNorm/beta" = dense<1.0> : tensor<128xf32>
  util.global private @"__iree_flow_bert/encoder/layer_1/ffn_layer_1/output/FakeLayerNorm/gamma" = dense<0.4> : tensor<128xf32>
  util.global private @"__iree_flow_bert/encoder/layer_1/ffn_layer_1/output/dense/bias" = dense<0.1> : tensor<128xf32>
  util.global private @"__iree_flow_bert/encoder/layer_1/ffn_layer_1/output/dense/kernel" {noinline} = dense<0.0001> : tensor<512x128xf32>
  util.global private @"__iree_flow_bert/encoder/layer_1/ffn_layer_2/intermediate/dense/bias" = dense<0.1> : tensor<512xf32>
  util.global private @"__iree_flow_bert/encoder/layer_1/ffn_layer_2/intermediate/dense/kernel" {noinline} = dense<0.0001> : tensor<128x512xf32>
  util.global private @"__iree_flow_bert/encoder/layer_1/ffn_layer_2/output/FakeLayerNorm/beta" = dense<1.0> : tensor<128xf32>
  util.global private @"__iree_flow_bert/encoder/layer_1/ffn_layer_2/output/FakeLayerNorm/gamma" = dense<0.4> : tensor<128xf32>
  util.global private @"__iree_flow_bert/encoder/layer_1/ffn_layer_2/output/dense/bias" = dense<0.1> : tensor<128xf32>
  util.global private @"__iree_flow_bert/encoder/layer_1/ffn_layer_2/output/dense/kernel" {noinline} = dense<0.0001> : tensor<512x128xf32>
  util.global private @"__iree_flow_bert/encoder/layer_1/intermediate/dense/bias" = dense<0.1> : tensor<512xf32>
  util.global private @"__iree_flow_bert/encoder/layer_1/intermediate/dense/kernel" {noinline} = dense<0.0001> : tensor<128x512xf32>
  util.global private @"__iree_flow_bert/encoder/layer_1/output/FakeLayerNorm/beta" = dense<1.0> : tensor<128xf32>
  util.global private @"__iree_flow_bert/encoder/layer_1/output/FakeLayerNorm/gamma" = dense<0.4> : tensor<128xf32>
  util.global private @"__iree_flow_bert/encoder/layer_1/output/bottleneck/FakeLayerNorm/beta" = dense<1.0> : tensor<512xf32>
  util.global private @"__iree_flow_bert/encoder/layer_1/output/bottleneck/FakeLayerNorm/gamma" = dense<0.4> : tensor<512xf32>
  util.global private @"__iree_flow_bert/encoder/layer_1/output/bottleneck/dense/bias" = dense<0.1> : tensor<512xf32>
  util.global private @"__iree_flow_bert/encoder/layer_1/output/bottleneck/dense/kernel" {noinline} = dense<0.0001> : tensor<128x512xf32>
  util.global private @"__iree_flow_bert/encoder/layer_1/output/dense/bias" = dense<0.1> : tensor<128xf32>
  util.global private @"__iree_flow_bert/encoder/layer_1/output/dense/kernel" {noinline} = dense<0.0001> : tensor<512x128xf32>
  util.global private @"__iree_flow_bert/encoder/layer_10/attention/output/FakeLayerNorm/beta" = dense<1.0> : tensor<128xf32>
  util.global private @"__iree_flow_bert/encoder/layer_10/attention/output/FakeLayerNorm/gamma" = dense<0.4> : tensor<128xf32>
  util.global private @"__iree_flow_bert/encoder/layer_10/attention/output/dense/bias" = dense<0.1> : tensor<128xf32>
  util.global private @"__iree_flow_bert/encoder/layer_10/attention/output/dense/kernel" {noinline} = dense<0.0001> : tensor<128x128xf32>
  util.global private @"__iree_flow_bert/encoder/layer_10/attention/self/key/bias" = dense<0.1> : tensor<128xf32>
  util.global private @"__iree_flow_bert/encoder/layer_10/attention/self/key/kernel" {noinline} = dense<0.0001> : tensor<128x128xf32>
  util.global private @"__iree_flow_bert/encoder/layer_10/attention/self/query/bias" = dense<0.1> : tensor<128xf32>
  util.global private @"__iree_flow_bert/encoder/layer_10/attention/self/query/kernel" {noinline} = dense<0.0001> : tensor<128x128xf32>
  util.global private @"__iree_flow_bert/encoder/layer_10/attention/self/value/bias" = dense<0.1> : tensor<128xf32>
  util.global private @"__iree_flow_bert/encoder/layer_10/attention/self/value/kernel" {noinline} = dense<0.0001> : tensor<512x128xf32>
  util.global private @"__iree_flow_bert/encoder/layer_10/bottleneck/attention/FakeLayerNorm/beta" = dense<1.0> : tensor<128xf32>
  util.global private @"__iree_flow_bert/encoder/layer_10/bottleneck/attention/FakeLayerNorm/gamma" = dense<0.4> : tensor<128xf32>
  util.global private @"__iree_flow_bert/encoder/layer_10/bottleneck/attention/dense/bias" = dense<0.1> : tensor<128xf32>
  util.global private @"__iree_flow_bert/encoder/layer_10/bottleneck/attention/dense/kernel" {noinline} = dense<0.0001> : tensor<512x128xf32>
  util.global private @"__iree_flow_bert/encoder/layer_10/bottleneck/input/FakeLayerNorm/beta" = dense<1.0> : tensor<128xf32>
  util.global private @"__iree_flow_bert/encoder/layer_10/bottleneck/input/FakeLayerNorm/gamma" = dense<0.4> : tensor<128xf32>
  util.global private @"__iree_flow_bert/encoder/layer_10/bottleneck/input/dense/bias" = dense<0.1> : tensor<128xf32>
  util.global private @"__iree_flow_bert/encoder/layer_10/bottleneck/input/dense/kernel" {noinline} = dense<0.0001> : tensor<512x128xf32>
  util.global private @"__iree_flow_bert/encoder/layer_10/ffn_layer_0/intermediate/dense/bias" = dense<0.1> : tensor<512xf32>
  util.global private @"__iree_flow_bert/encoder/layer_10/ffn_layer_0/intermediate/dense/kernel" {noinline} = dense<0.0001> : tensor<128x512xf32>
  util.global private @"__iree_flow_bert/encoder/layer_10/ffn_layer_0/output/FakeLayerNorm/beta" = dense<1.0> : tensor<128xf32>
  util.global private @"__iree_flow_bert/encoder/layer_10/ffn_layer_0/output/FakeLayerNorm/gamma" = dense<0.4> : tensor<128xf32>
  util.global private @"__iree_flow_bert/encoder/layer_10/ffn_layer_0/output/dense/bias" = dense<0.1> : tensor<128xf32>
  util.global private @"__iree_flow_bert/encoder/layer_10/ffn_layer_0/output/dense/kernel" {noinline} = dense<0.0001> : tensor<512x128xf32>
  util.global private @"__iree_flow_bert/encoder/layer_10/ffn_layer_1/intermediate/dense/bias" = dense<0.1> : tensor<512xf32>
  util.global private @"__iree_flow_bert/encoder/layer_10/ffn_layer_1/intermediate/dense/kernel" {noinline} = dense<0.0001> : tensor<128x512xf32>
  util.global private @"__iree_flow_bert/encoder/layer_10/ffn_layer_1/output/FakeLayerNorm/beta" = dense<1.0> : tensor<128xf32>
  util.global private @"__iree_flow_bert/encoder/layer_10/ffn_layer_1/output/FakeLayerNorm/gamma" = dense<0.4> : tensor<128xf32>
  util.global private @"__iree_flow_bert/encoder/layer_10/ffn_layer_1/output/dense/bias" = dense<0.1> : tensor<128xf32>
  util.global private @"__iree_flow_bert/encoder/layer_10/ffn_layer_1/output/dense/kernel" {noinline} = dense<0.0001> : tensor<512x128xf32>
  util.global private @"__iree_flow_bert/encoder/layer_10/ffn_layer_2/intermediate/dense/bias" = dense<0.1> : tensor<512xf32>
  util.global private @"__iree_flow_bert/encoder/layer_10/ffn_layer_2/intermediate/dense/kernel" {noinline} = dense<0.0001> : tensor<128x512xf32>
  util.global private @"__iree_flow_bert/encoder/layer_10/ffn_layer_2/output/FakeLayerNorm/beta" = dense<1.0> : tensor<128xf32>
  util.global private @"__iree_flow_bert/encoder/layer_10/ffn_layer_2/output/FakeLayerNorm/gamma" = dense<0.4> : tensor<128xf32>
  util.global private @"__iree_flow_bert/encoder/layer_10/ffn_layer_2/output/dense/bias" = dense<0.1> : tensor<128xf32>
  util.global private @"__iree_flow_bert/encoder/layer_10/ffn_layer_2/output/dense/kernel" {noinline} = dense<0.0001> : tensor<512x128xf32>
  util.global private @"__iree_flow_bert/encoder/layer_10/intermediate/dense/bias" = dense<0.1> : tensor<512xf32>
  util.global private @"__iree_flow_bert/encoder/layer_10/intermediate/dense/kernel" {noinline} = dense<0.0001> : tensor<128x512xf32>
  util.global private @"__iree_flow_bert/encoder/layer_10/output/FakeLayerNorm/beta" = dense<1.0> : tensor<128xf32>
  util.global private @"__iree_flow_bert/encoder/layer_10/output/FakeLayerNorm/gamma" = dense<0.4> : tensor<128xf32>
  util.global private @"__iree_flow_bert/encoder/layer_10/output/bottleneck/FakeLayerNorm/beta" = dense<1.0> : tensor<512xf32>
  util.global private @"__iree_flow_bert/encoder/layer_10/output/bottleneck/FakeLayerNorm/gamma" = dense<0.4> : tensor<512xf32>
  util.global private @"__iree_flow_bert/encoder/layer_10/output/bottleneck/dense/bias" = dense<0.1> : tensor<512xf32>
  util.global private @"__iree_flow_bert/encoder/layer_10/output/bottleneck/dense/kernel" {noinline} = dense<0.0001> : tensor<128x512xf32>
  util.global private @"__iree_flow_bert/encoder/layer_10/output/dense/bias" = dense<0.1> : tensor<128xf32>
  util.global private @"__iree_flow_bert/encoder/layer_10/output/dense/kernel" {noinline} = dense<0.0001> : tensor<512x128xf32>
  util.global private @"__iree_flow_bert/encoder/layer_11/attention/output/FakeLayerNorm/beta" = dense<1.0> : tensor<128xf32>
  util.global private @"__iree_flow_bert/encoder/layer_11/attention/output/FakeLayerNorm/gamma" = dense<0.4> : tensor<128xf32>
  util.global private @"__iree_flow_bert/encoder/layer_11/attention/output/dense/bias" = dense<0.1> : tensor<128xf32>
  util.global private @"__iree_flow_bert/encoder/layer_11/attention/output/dense/kernel" {noinline} = dense<0.0001> : tensor<128x128xf32>
  util.global private @"__iree_flow_bert/encoder/layer_11/attention/self/key/bias" = dense<0.1> : tensor<128xf32>
  util.global private @"__iree_flow_bert/encoder/layer_11/attention/self/key/kernel" {noinline} = dense<0.0001> : tensor<128x128xf32>
  util.global private @"__iree_flow_bert/encoder/layer_11/attention/self/query/bias" = dense<0.1> : tensor<128xf32>
  util.global private @"__iree_flow_bert/encoder/layer_11/attention/self/query/kernel" {noinline} = dense<0.0001> : tensor<128x128xf32>
  util.global private @"__iree_flow_bert/encoder/layer_11/attention/self/value/bias" = dense<0.1> : tensor<128xf32>
  util.global private @"__iree_flow_bert/encoder/layer_11/attention/self/value/kernel" {noinline} = dense<0.0001> : tensor<512x128xf32>
  util.global private @"__iree_flow_bert/encoder/layer_11/bottleneck/attention/FakeLayerNorm/beta" = dense<1.0> : tensor<128xf32>
  util.global private @"__iree_flow_bert/encoder/layer_11/bottleneck/attention/FakeLayerNorm/gamma" = dense<0.4> : tensor<128xf32>
  util.global private @"__iree_flow_bert/encoder/layer_11/bottleneck/attention/dense/bias" = dense<0.1> : tensor<128xf32>
  util.global private @"__iree_flow_bert/encoder/layer_11/bottleneck/attention/dense/kernel" {noinline} = dense<0.0001> : tensor<512x128xf32>
  util.global private @"__iree_flow_bert/encoder/layer_11/bottleneck/input/FakeLayerNorm/beta" = dense<1.0> : tensor<128xf32>
  util.global private @"__iree_flow_bert/encoder/layer_11/bottleneck/input/FakeLayerNorm/gamma" = dense<0.4> : tensor<128xf32>
  util.global private @"__iree_flow_bert/encoder/layer_11/bottleneck/input/dense/bias" = dense<0.1> : tensor<128xf32>
  util.global private @"__iree_flow_bert/encoder/layer_11/bottleneck/input/dense/kernel" {noinline} = dense<0.0001> : tensor<512x128xf32>
  util.global private @"__iree_flow_bert/encoder/layer_11/ffn_layer_0/intermediate/dense/bias" = dense<0.1> : tensor<512xf32>
  util.global private @"__iree_flow_bert/encoder/layer_11/ffn_layer_0/intermediate/dense/kernel" {noinline} = dense<0.0001> : tensor<128x512xf32>
  util.global private @"__iree_flow_bert/encoder/layer_11/ffn_layer_0/output/FakeLayerNorm/beta" = dense<1.0> : tensor<128xf32>
  util.global private @"__iree_flow_bert/encoder/layer_11/ffn_layer_0/output/FakeLayerNorm/gamma" = dense<0.4> : tensor<128xf32>
  util.global private @"__iree_flow_bert/encoder/layer_11/ffn_layer_0/output/dense/bias" = dense<0.1> : tensor<128xf32>
  util.global private @"__iree_flow_bert/encoder/layer_11/ffn_layer_0/output/dense/kernel" {noinline} = dense<0.0001> : tensor<512x128xf32>
  util.global private @"__iree_flow_bert/encoder/layer_11/ffn_layer_1/intermediate/dense/bias" = dense<0.1> : tensor<512xf32>
  util.global private @"__iree_flow_bert/encoder/layer_11/ffn_layer_1/intermediate/dense/kernel" {noinline} = dense<0.0001> : tensor<128x512xf32>
  util.global private @"__iree_flow_bert/encoder/layer_11/ffn_layer_1/output/FakeLayerNorm/beta" = dense<1.0> : tensor<128xf32>
  util.global private @"__iree_flow_bert/encoder/layer_11/ffn_layer_1/output/FakeLayerNorm/gamma" = dense<0.4> : tensor<128xf32>
  util.global private @"__iree_flow_bert/encoder/layer_11/ffn_layer_1/output/dense/bias" = dense<0.1> : tensor<128xf32>
  util.global private @"__iree_flow_bert/encoder/layer_11/ffn_layer_1/output/dense/kernel" {noinline} = dense<0.0001> : tensor<512x128xf32>
  util.global private @"__iree_flow_bert/encoder/layer_11/ffn_layer_2/intermediate/dense/bias" = dense<0.1> : tensor<512xf32>
  util.global private @"__iree_flow_bert/encoder/layer_11/ffn_layer_2/intermediate/dense/kernel" {noinline} = dense<0.0001> : tensor<128x512xf32>
  util.global private @"__iree_flow_bert/encoder/layer_11/ffn_layer_2/output/FakeLayerNorm/beta" = dense<1.0> : tensor<128xf32>
  util.global private @"__iree_flow_bert/encoder/layer_11/ffn_layer_2/output/FakeLayerNorm/gamma" = dense<0.4> : tensor<128xf32>
  util.global private @"__iree_flow_bert/encoder/layer_11/ffn_layer_2/output/dense/bias" = dense<0.1> : tensor<128xf32>
  util.global private @"__iree_flow_bert/encoder/layer_11/ffn_layer_2/output/dense/kernel" {noinline} = dense<0.0001> : tensor<512x128xf32>
  util.global private @"__iree_flow_bert/encoder/layer_11/intermediate/dense/bias" = dense<0.1> : tensor<512xf32>
  util.global private @"__iree_flow_bert/encoder/layer_11/intermediate/dense/kernel" {noinline} = dense<0.0001> : tensor<128x512xf32>
  util.global private @"__iree_flow_bert/encoder/layer_11/output/FakeLayerNorm/beta" = dense<1.0> : tensor<128xf32>
  util.global private @"__iree_flow_bert/encoder/layer_11/output/FakeLayerNorm/gamma" = dense<0.4> : tensor<128xf32>
  util.global private @"__iree_flow_bert/encoder/layer_11/output/bottleneck/FakeLayerNorm/beta" = dense<1.0> : tensor<512xf32>
  util.global private @"__iree_flow_bert/encoder/layer_11/output/bottleneck/FakeLayerNorm/gamma" = dense<0.4> : tensor<512xf32>
  util.global private @"__iree_flow_bert/encoder/layer_11/output/bottleneck/dense/bias" = dense<0.1> : tensor<512xf32>
  util.global private @"__iree_flow_bert/encoder/layer_11/output/bottleneck/dense/kernel" {noinline} = dense<0.0001> : tensor<128x512xf32>
  util.global private @"__iree_flow_bert/encoder/layer_11/output/dense/bias" = dense<0.1> : tensor<128xf32>
  util.global private @"__iree_flow_bert/encoder/layer_11/output/dense/kernel" {noinline} = dense<0.0001> : tensor<512x128xf32>
  util.global private @"__iree_flow_bert/encoder/layer_12/attention/output/FakeLayerNorm/beta" = dense<1.0> : tensor<128xf32>
  util.global private @"__iree_flow_bert/encoder/layer_12/attention/output/FakeLayerNorm/gamma" = dense<0.4> : tensor<128xf32>
  util.global private @"__iree_flow_bert/encoder/layer_12/attention/output/dense/bias" = dense<0.1> : tensor<128xf32>
  util.global private @"__iree_flow_bert/encoder/layer_12/attention/output/dense/kernel" {noinline} = dense<0.0001> : tensor<128x128xf32>
  util.global private @"__iree_flow_bert/encoder/layer_12/attention/self/key/bias" = dense<0.1> : tensor<128xf32>
  util.global private @"__iree_flow_bert/encoder/layer_12/attention/self/key/kernel" {noinline} = dense<0.0001> : tensor<128x128xf32>
  util.global private @"__iree_flow_bert/encoder/layer_12/attention/self/query/bias" = dense<0.1> : tensor<128xf32>
  util.global private @"__iree_flow_bert/encoder/layer_12/attention/self/query/kernel" {noinline} = dense<0.0001> : tensor<128x128xf32>
  util.global private @"__iree_flow_bert/encoder/layer_12/attention/self/value/bias" = dense<0.1> : tensor<128xf32>
  util.global private @"__iree_flow_bert/encoder/layer_12/attention/self/value/kernel" {noinline} = dense<0.0001> : tensor<512x128xf32>
  util.global private @"__iree_flow_bert/encoder/layer_12/bottleneck/attention/FakeLayerNorm/beta" = dense<1.0> : tensor<128xf32>
  util.global private @"__iree_flow_bert/encoder/layer_12/bottleneck/attention/FakeLayerNorm/gamma" = dense<0.4> : tensor<128xf32>
  util.global private @"__iree_flow_bert/encoder/layer_12/bottleneck/attention/dense/bias" = dense<0.1> : tensor<128xf32>
  util.global private @"__iree_flow_bert/encoder/layer_12/bottleneck/attention/dense/kernel" {noinline} = dense<0.0001> : tensor<512x128xf32>
  util.global private @"__iree_flow_bert/encoder/layer_12/bottleneck/input/FakeLayerNorm/beta" = dense<1.0> : tensor<128xf32>
  util.global private @"__iree_flow_bert/encoder/layer_12/bottleneck/input/FakeLayerNorm/gamma" = dense<0.4> : tensor<128xf32>
  util.global private @"__iree_flow_bert/encoder/layer_12/bottleneck/input/dense/bias" = dense<0.1> : tensor<128xf32>
  util.global private @"__iree_flow_bert/encoder/layer_12/bottleneck/input/dense/kernel" {noinline} = dense<0.0001> : tensor<512x128xf32>
  util.global private @"__iree_flow_bert/encoder/layer_12/ffn_layer_0/intermediate/dense/bias" = dense<0.1> : tensor<512xf32>
  util.global private @"__iree_flow_bert/encoder/layer_12/ffn_layer_0/intermediate/dense/kernel" {noinline} = dense<0.0001> : tensor<128x512xf32>
  util.global private @"__iree_flow_bert/encoder/layer_12/ffn_layer_0/output/FakeLayerNorm/beta" = dense<1.0> : tensor<128xf32>
  util.global private @"__iree_flow_bert/encoder/layer_12/ffn_layer_0/output/FakeLayerNorm/gamma" = dense<0.4> : tensor<128xf32>
  util.global private @"__iree_flow_bert/encoder/layer_12/ffn_layer_0/output/dense/bias" = dense<0.1> : tensor<128xf32>
  util.global private @"__iree_flow_bert/encoder/layer_12/ffn_layer_0/output/dense/kernel" {noinline} = dense<0.0001> : tensor<512x128xf32>
  util.global private @"__iree_flow_bert/encoder/layer_12/ffn_layer_1/intermediate/dense/bias" = dense<0.1> : tensor<512xf32>
  util.global private @"__iree_flow_bert/encoder/layer_12/ffn_layer_1/intermediate/dense/kernel" {noinline} = dense<0.0001> : tensor<128x512xf32>
  util.global private @"__iree_flow_bert/encoder/layer_12/ffn_layer_1/output/FakeLayerNorm/beta" = dense<1.0> : tensor<128xf32>
  util.global private @"__iree_flow_bert/encoder/layer_12/ffn_layer_1/output/FakeLayerNorm/gamma" = dense<0.4> : tensor<128xf32>
  util.global private @"__iree_flow_bert/encoder/layer_12/ffn_layer_1/output/dense/bias" = dense<0.1> : tensor<128xf32>
  util.global private @"__iree_flow_bert/encoder/layer_12/ffn_layer_1/output/dense/kernel" {noinline} = dense<0.0001> : tensor<512x128xf32>
  util.global private @"__iree_flow_bert/encoder/layer_12/ffn_layer_2/intermediate/dense/bias" = dense<0.1> : tensor<512xf32>
  util.global private @"__iree_flow_bert/encoder/layer_12/ffn_layer_2/intermediate/dense/kernel" {noinline} = dense<0.0001> : tensor<128x512xf32>
  util.global private @"__iree_flow_bert/encoder/layer_12/ffn_layer_2/output/FakeLayerNorm/beta" = dense<1.0> : tensor<128xf32>
  util.global private @"__iree_flow_bert/encoder/layer_12/ffn_layer_2/output/FakeLayerNorm/gamma" = dense<0.4> : tensor<128xf32>
  util.global private @"__iree_flow_bert/encoder/layer_12/ffn_layer_2/output/dense/bias" = dense<0.1> : tensor<128xf32>
  util.global private @"__iree_flow_bert/encoder/layer_12/ffn_layer_2/output/dense/kernel" {noinline} = dense<0.0001> : tensor<512x128xf32>
  util.global private @"__iree_flow_bert/encoder/layer_12/intermediate/dense/bias" = dense<0.1> : tensor<512xf32>
  util.global private @"__iree_flow_bert/encoder/layer_12/intermediate/dense/kernel" {noinline} = dense<0.0001> : tensor<128x512xf32>
  util.global private @"__iree_flow_bert/encoder/layer_12/output/FakeLayerNorm/beta" = dense<1.0> : tensor<128xf32>
  util.global private @"__iree_flow_bert/encoder/layer_12/output/FakeLayerNorm/gamma" = dense<0.4> : tensor<128xf32>
  util.global private @"__iree_flow_bert/encoder/layer_12/output/bottleneck/FakeLayerNorm/beta" = dense<1.0> : tensor<512xf32>
  util.global private @"__iree_flow_bert/encoder/layer_12/output/bottleneck/FakeLayerNorm/gamma" = dense<0.4> : tensor<512xf32>
  util.global private @"__iree_flow_bert/encoder/layer_12/output/bottleneck/dense/bias" = dense<0.1> : tensor<512xf32>
  util.global private @"__iree_flow_bert/encoder/layer_12/output/bottleneck/dense/kernel" {noinline} = dense<0.0001> : tensor<128x512xf32>
  util.global private @"__iree_flow_bert/encoder/layer_12/output/dense/bias" = dense<0.1> : tensor<128xf32>
  util.global private @"__iree_flow_bert/encoder/layer_12/output/dense/kernel" {noinline} = dense<0.0001> : tensor<512x128xf32>
  util.global private @"__iree_flow_bert/encoder/layer_13/attention/output/FakeLayerNorm/beta" = dense<1.0> : tensor<128xf32>
  util.global private @"__iree_flow_bert/encoder/layer_13/attention/output/FakeLayerNorm/gamma" = dense<0.4> : tensor<128xf32>
  util.global private @"__iree_flow_bert/encoder/layer_13/attention/output/dense/bias" = dense<0.1> : tensor<128xf32>
  util.global private @"__iree_flow_bert/encoder/layer_13/attention/output/dense/kernel" {noinline} = dense<0.0001> : tensor<128x128xf32>
  util.global private @"__iree_flow_bert/encoder/layer_13/attention/self/key/bias" = dense<0.1> : tensor<128xf32>
  util.global private @"__iree_flow_bert/encoder/layer_13/attention/self/key/kernel" {noinline} = dense<0.0001> : tensor<128x128xf32>
  util.global private @"__iree_flow_bert/encoder/layer_13/attention/self/query/bias" = dense<0.1> : tensor<128xf32>
  util.global private @"__iree_flow_bert/encoder/layer_13/attention/self/query/kernel" {noinline} = dense<0.0001> : tensor<128x128xf32>
  util.global private @"__iree_flow_bert/encoder/layer_13/attention/self/value/bias" = dense<0.1> : tensor<128xf32>
  util.global private @"__iree_flow_bert/encoder/layer_13/attention/self/value/kernel" {noinline} = dense<0.0001> : tensor<512x128xf32>
  util.global private @"__iree_flow_bert/encoder/layer_13/bottleneck/attention/FakeLayerNorm/beta" = dense<1.0> : tensor<128xf32>
  util.global private @"__iree_flow_bert/encoder/layer_13/bottleneck/attention/FakeLayerNorm/gamma" = dense<0.4> : tensor<128xf32>
  util.global private @"__iree_flow_bert/encoder/layer_13/bottleneck/attention/dense/bias" = dense<0.1> : tensor<128xf32>
  util.global private @"__iree_flow_bert/encoder/layer_13/bottleneck/attention/dense/kernel" {noinline} = dense<0.0001> : tensor<512x128xf32>
  util.global private @"__iree_flow_bert/encoder/layer_13/bottleneck/input/FakeLayerNorm/beta" = dense<1.0> : tensor<128xf32>
  util.global private @"__iree_flow_bert/encoder/layer_13/bottleneck/input/FakeLayerNorm/gamma" = dense<0.4> : tensor<128xf32>
  util.global private @"__iree_flow_bert/encoder/layer_13/bottleneck/input/dense/bias" = dense<0.1> : tensor<128xf32>
  util.global private @"__iree_flow_bert/encoder/layer_13/bottleneck/input/dense/kernel" {noinline} = dense<0.0001> : tensor<512x128xf32>
  util.global private @"__iree_flow_bert/encoder/layer_13/ffn_layer_0/intermediate/dense/bias" = dense<0.1> : tensor<512xf32>
  util.global private @"__iree_flow_bert/encoder/layer_13/ffn_layer_0/intermediate/dense/kernel" {noinline} = dense<0.0001> : tensor<128x512xf32>
  util.global private @"__iree_flow_bert/encoder/layer_13/ffn_layer_0/output/FakeLayerNorm/beta" = dense<1.0> : tensor<128xf32>
  util.global private @"__iree_flow_bert/encoder/layer_13/ffn_layer_0/output/FakeLayerNorm/gamma" = dense<0.4> : tensor<128xf32>
  util.global private @"__iree_flow_bert/encoder/layer_13/ffn_layer_0/output/dense/bias" = dense<0.1> : tensor<128xf32>
  util.global private @"__iree_flow_bert/encoder/layer_13/ffn_layer_0/output/dense/kernel" {noinline} = dense<0.0001> : tensor<512x128xf32>
  util.global private @"__iree_flow_bert/encoder/layer_13/ffn_layer_1/intermediate/dense/bias" = dense<0.1> : tensor<512xf32>
  util.global private @"__iree_flow_bert/encoder/layer_13/ffn_layer_1/intermediate/dense/kernel" {noinline} = dense<0.0001> : tensor<128x512xf32>
  util.global private @"__iree_flow_bert/encoder/layer_13/ffn_layer_1/output/FakeLayerNorm/beta" = dense<1.0> : tensor<128xf32>
  util.global private @"__iree_flow_bert/encoder/layer_13/ffn_layer_1/output/FakeLayerNorm/gamma" = dense<0.4> : tensor<128xf32>
  util.global private @"__iree_flow_bert/encoder/layer_13/ffn_layer_1/output/dense/bias" = dense<0.1> : tensor<128xf32>
  util.global private @"__iree_flow_bert/encoder/layer_13/ffn_layer_1/output/dense/kernel" {noinline} = dense<0.0001> : tensor<512x128xf32>
  util.global private @"__iree_flow_bert/encoder/layer_13/ffn_layer_2/intermediate/dense/bias" = dense<0.1> : tensor<512xf32>
  util.global private @"__iree_flow_bert/encoder/layer_13/ffn_layer_2/intermediate/dense/kernel" {noinline} = dense<0.0001> : tensor<128x512xf32>
  util.global private @"__iree_flow_bert/encoder/layer_13/ffn_layer_2/output/FakeLayerNorm/beta" = dense<1.0> : tensor<128xf32>
  util.global private @"__iree_flow_bert/encoder/layer_13/ffn_layer_2/output/FakeLayerNorm/gamma" = dense<0.4> : tensor<128xf32>
  util.global private @"__iree_flow_bert/encoder/layer_13/ffn_layer_2/output/dense/bias" = dense<0.1> : tensor<128xf32>
  util.global private @"__iree_flow_bert/encoder/layer_13/ffn_layer_2/output/dense/kernel" {noinline} = dense<0.0001> : tensor<512x128xf32>
  util.global private @"__iree_flow_bert/encoder/layer_13/intermediate/dense/bias" = dense<0.1> : tensor<512xf32>
  util.global private @"__iree_flow_bert/encoder/layer_13/intermediate/dense/kernel" {noinline} = dense<0.0001> : tensor<128x512xf32>
  util.global private @"__iree_flow_bert/encoder/layer_13/output/FakeLayerNorm/beta" = dense<1.0> : tensor<128xf32>
  util.global private @"__iree_flow_bert/encoder/layer_13/output/FakeLayerNorm/gamma" = dense<0.4> : tensor<128xf32>
  util.global private @"__iree_flow_bert/encoder/layer_13/output/bottleneck/FakeLayerNorm/beta" = dense<1.0> : tensor<512xf32>
  util.global private @"__iree_flow_bert/encoder/layer_13/output/bottleneck/FakeLayerNorm/gamma" = dense<0.4> : tensor<512xf32>
  util.global private @"__iree_flow_bert/encoder/layer_13/output/bottleneck/dense/bias" = dense<0.1> : tensor<512xf32>
  util.global private @"__iree_flow_bert/encoder/layer_13/output/bottleneck/dense/kernel" {noinline} = dense<0.0001> : tensor<128x512xf32>
  util.global private @"__iree_flow_bert/encoder/layer_13/output/dense/bias" = dense<0.1> : tensor<128xf32>
  util.global private @"__iree_flow_bert/encoder/layer_13/output/dense/kernel" {noinline} = dense<0.0001> : tensor<512x128xf32>
  util.global private @"__iree_flow_bert/encoder/layer_14/attention/output/FakeLayerNorm/beta" = dense<1.0> : tensor<128xf32>
  util.global private @"__iree_flow_bert/encoder/layer_14/attention/output/FakeLayerNorm/gamma" = dense<0.4> : tensor<128xf32>
  util.global private @"__iree_flow_bert/encoder/layer_14/attention/output/dense/bias" = dense<0.1> : tensor<128xf32>
  util.global private @"__iree_flow_bert/encoder/layer_14/attention/output/dense/kernel" {noinline} = dense<0.0001> : tensor<128x128xf32>
  util.global private @"__iree_flow_bert/encoder/layer_14/attention/self/key/bias" = dense<0.1> : tensor<128xf32>
  util.global private @"__iree_flow_bert/encoder/layer_14/attention/self/key/kernel" {noinline} = dense<0.0001> : tensor<128x128xf32>
  util.global private @"__iree_flow_bert/encoder/layer_14/attention/self/query/bias" = dense<0.1> : tensor<128xf32>
  util.global private @"__iree_flow_bert/encoder/layer_14/attention/self/query/kernel" {noinline} = dense<0.0001> : tensor<128x128xf32>
  util.global private @"__iree_flow_bert/encoder/layer_14/attention/self/value/bias" = dense<0.1> : tensor<128xf32>
  util.global private @"__iree_flow_bert/encoder/layer_14/attention/self/value/kernel" {noinline} = dense<0.0001> : tensor<512x128xf32>
  util.global private @"__iree_flow_bert/encoder/layer_14/bottleneck/attention/FakeLayerNorm/beta" = dense<1.0> : tensor<128xf32>
  util.global private @"__iree_flow_bert/encoder/layer_14/bottleneck/attention/FakeLayerNorm/gamma" = dense<0.4> : tensor<128xf32>
  util.global private @"__iree_flow_bert/encoder/layer_14/bottleneck/attention/dense/bias" = dense<0.1> : tensor<128xf32>
  util.global private @"__iree_flow_bert/encoder/layer_14/bottleneck/attention/dense/kernel" {noinline} = dense<0.0001> : tensor<512x128xf32>
  util.global private @"__iree_flow_bert/encoder/layer_14/bottleneck/input/FakeLayerNorm/beta" = dense<1.0> : tensor<128xf32>
  util.global private @"__iree_flow_bert/encoder/layer_14/bottleneck/input/FakeLayerNorm/gamma" = dense<0.4> : tensor<128xf32>
  util.global private @"__iree_flow_bert/encoder/layer_14/bottleneck/input/dense/bias" = dense<0.1> : tensor<128xf32>
  util.global private @"__iree_flow_bert/encoder/layer_14/bottleneck/input/dense/kernel" {noinline} = dense<0.0001> : tensor<512x128xf32>
  util.global private @"__iree_flow_bert/encoder/layer_14/ffn_layer_0/intermediate/dense/bias" = dense<0.1> : tensor<512xf32>
  util.global private @"__iree_flow_bert/encoder/layer_14/ffn_layer_0/intermediate/dense/kernel" {noinline} = dense<0.0001> : tensor<128x512xf32>
  util.global private @"__iree_flow_bert/encoder/layer_14/ffn_layer_0/output/FakeLayerNorm/beta" = dense<1.0> : tensor<128xf32>
  util.global private @"__iree_flow_bert/encoder/layer_14/ffn_layer_0/output/FakeLayerNorm/gamma" = dense<0.4> : tensor<128xf32>
  util.global private @"__iree_flow_bert/encoder/layer_14/ffn_layer_0/output/dense/bias" = dense<0.1> : tensor<128xf32>
  util.global private @"__iree_flow_bert/encoder/layer_14/ffn_layer_0/output/dense/kernel" {noinline} = dense<0.0001> : tensor<512x128xf32>
  util.global private @"__iree_flow_bert/encoder/layer_14/ffn_layer_1/intermediate/dense/bias" = dense<0.1> : tensor<512xf32>
  util.global private @"__iree_flow_bert/encoder/layer_14/ffn_layer_1/intermediate/dense/kernel" {noinline} = dense<0.0001> : tensor<128x512xf32>
  util.global private @"__iree_flow_bert/encoder/layer_14/ffn_layer_1/output/FakeLayerNorm/beta" = dense<1.0> : tensor<128xf32>
  util.global private @"__iree_flow_bert/encoder/layer_14/ffn_layer_1/output/FakeLayerNorm/gamma" = dense<0.4> : tensor<128xf32>
  util.global private @"__iree_flow_bert/encoder/layer_14/ffn_layer_1/output/dense/bias" = dense<0.1> : tensor<128xf32>
  util.global private @"__iree_flow_bert/encoder/layer_14/ffn_layer_1/output/dense/kernel" {noinline} = dense<0.0001> : tensor<512x128xf32>
  util.global private @"__iree_flow_bert/encoder/layer_14/ffn_layer_2/intermediate/dense/bias" = dense<0.1> : tensor<512xf32>
  util.global private @"__iree_flow_bert/encoder/layer_14/ffn_layer_2/intermediate/dense/kernel" {noinline} = dense<0.0001> : tensor<128x512xf32>
  util.global private @"__iree_flow_bert/encoder/layer_14/ffn_layer_2/output/FakeLayerNorm/beta" = dense<1.0> : tensor<128xf32>
  util.global private @"__iree_flow_bert/encoder/layer_14/ffn_layer_2/output/FakeLayerNorm/gamma" = dense<0.4> : tensor<128xf32>
  util.global private @"__iree_flow_bert/encoder/layer_14/ffn_layer_2/output/dense/bias" = dense<0.1> : tensor<128xf32>
  util.global private @"__iree_flow_bert/encoder/layer_14/ffn_layer_2/output/dense/kernel" {noinline} = dense<0.0001> : tensor<512x128xf32>
  util.global private @"__iree_flow_bert/encoder/layer_14/intermediate/dense/bias" = dense<0.1> : tensor<512xf32>
  util.global private @"__iree_flow_bert/encoder/layer_14/intermediate/dense/kernel" {noinline} = dense<0.0001> : tensor<128x512xf32>
  util.global private @"__iree_flow_bert/encoder/layer_14/output/FakeLayerNorm/beta" = dense<1.0> : tensor<128xf32>
  util.global private @"__iree_flow_bert/encoder/layer_14/output/FakeLayerNorm/gamma" = dense<0.4> : tensor<128xf32>
  util.global private @"__iree_flow_bert/encoder/layer_14/output/bottleneck/FakeLayerNorm/beta" = dense<1.0> : tensor<512xf32>
  util.global private @"__iree_flow_bert/encoder/layer_14/output/bottleneck/FakeLayerNorm/gamma" = dense<0.4> : tensor<512xf32>
  util.global private @"__iree_flow_bert/encoder/layer_14/output/bottleneck/dense/bias" = dense<0.1> : tensor<512xf32>
  util.global private @"__iree_flow_bert/encoder/layer_14/output/bottleneck/dense/kernel" {noinline} = dense<0.0001> : tensor<128x512xf32>
  util.global private @"__iree_flow_bert/encoder/layer_14/output/dense/bias" = dense<0.1> : tensor<128xf32>
  util.global private @"__iree_flow_bert/encoder/layer_14/output/dense/kernel" {noinline} = dense<0.0001> : tensor<512x128xf32>
  util.global private @"__iree_flow_bert/encoder/layer_15/attention/output/FakeLayerNorm/beta" = dense<1.0> : tensor<128xf32>
  util.global private @"__iree_flow_bert/encoder/layer_15/attention/output/FakeLayerNorm/gamma" = dense<0.4> : tensor<128xf32>
  util.global private @"__iree_flow_bert/encoder/layer_15/attention/output/dense/bias" = dense<0.1> : tensor<128xf32>
  util.global private @"__iree_flow_bert/encoder/layer_15/attention/output/dense/kernel" {noinline} = dense<0.0001> : tensor<128x128xf32>
  util.global private @"__iree_flow_bert/encoder/layer_15/attention/self/key/bias" = dense<0.1> : tensor<128xf32>
  util.global private @"__iree_flow_bert/encoder/layer_15/attention/self/key/kernel" {noinline} = dense<0.0001> : tensor<128x128xf32>
  util.global private @"__iree_flow_bert/encoder/layer_15/attention/self/query/bias" = dense<0.1> : tensor<128xf32>
  util.global private @"__iree_flow_bert/encoder/layer_15/attention/self/query/kernel" {noinline} = dense<0.0001> : tensor<128x128xf32>
  util.global private @"__iree_flow_bert/encoder/layer_15/attention/self/value/bias" = dense<0.1> : tensor<128xf32>
  util.global private @"__iree_flow_bert/encoder/layer_15/attention/self/value/kernel" {noinline} = dense<0.0001> : tensor<512x128xf32>
  util.global private @"__iree_flow_bert/encoder/layer_15/bottleneck/attention/FakeLayerNorm/beta" = dense<1.0> : tensor<128xf32>
  util.global private @"__iree_flow_bert/encoder/layer_15/bottleneck/attention/FakeLayerNorm/gamma" = dense<0.4> : tensor<128xf32>
  util.global private @"__iree_flow_bert/encoder/layer_15/bottleneck/attention/dense/bias" = dense<0.1> : tensor<128xf32>
  util.global private @"__iree_flow_bert/encoder/layer_15/bottleneck/attention/dense/kernel" {noinline} = dense<0.0001> : tensor<512x128xf32>
  util.global private @"__iree_flow_bert/encoder/layer_15/bottleneck/input/FakeLayerNorm/beta" = dense<1.0> : tensor<128xf32>
  util.global private @"__iree_flow_bert/encoder/layer_15/bottleneck/input/FakeLayerNorm/gamma" = dense<0.4> : tensor<128xf32>
  util.global private @"__iree_flow_bert/encoder/layer_15/bottleneck/input/dense/bias" = dense<0.1> : tensor<128xf32>
  util.global private @"__iree_flow_bert/encoder/layer_15/bottleneck/input/dense/kernel" {noinline} = dense<0.0001> : tensor<512x128xf32>
  util.global private @"__iree_flow_bert/encoder/layer_15/ffn_layer_0/intermediate/dense/bias" = dense<0.1> : tensor<512xf32>
  util.global private @"__iree_flow_bert/encoder/layer_15/ffn_layer_0/intermediate/dense/kernel" {noinline} = dense<0.0001> : tensor<128x512xf32>
  util.global private @"__iree_flow_bert/encoder/layer_15/ffn_layer_0/output/FakeLayerNorm/beta" = dense<1.0> : tensor<128xf32>
  util.global private @"__iree_flow_bert/encoder/layer_15/ffn_layer_0/output/FakeLayerNorm/gamma" = dense<0.4> : tensor<128xf32>
  util.global private @"__iree_flow_bert/encoder/layer_15/ffn_layer_0/output/dense/bias" = dense<0.1> : tensor<128xf32>
  util.global private @"__iree_flow_bert/encoder/layer_15/ffn_layer_0/output/dense/kernel" {noinline} = dense<0.0001> : tensor<512x128xf32>
  util.global private @"__iree_flow_bert/encoder/layer_15/ffn_layer_1/intermediate/dense/bias" = dense<0.1> : tensor<512xf32>
  util.global private @"__iree_flow_bert/encoder/layer_15/ffn_layer_1/intermediate/dense/kernel" {noinline} = dense<0.0001> : tensor<128x512xf32>
  util.global private @"__iree_flow_bert/encoder/layer_15/ffn_layer_1/output/FakeLayerNorm/beta" = dense<1.0> : tensor<128xf32>
  util.global private @"__iree_flow_bert/encoder/layer_15/ffn_layer_1/output/FakeLayerNorm/gamma" = dense<0.4> : tensor<128xf32>
  util.global private @"__iree_flow_bert/encoder/layer_15/ffn_layer_1/output/dense/bias" = dense<0.1> : tensor<128xf32>
  util.global private @"__iree_flow_bert/encoder/layer_15/ffn_layer_1/output/dense/kernel" {noinline} = dense<0.0001> : tensor<512x128xf32>
  util.global private @"__iree_flow_bert/encoder/layer_15/ffn_layer_2/intermediate/dense/bias" = dense<0.1> : tensor<512xf32>
  util.global private @"__iree_flow_bert/encoder/layer_15/ffn_layer_2/intermediate/dense/kernel" {noinline} = dense<0.0001> : tensor<128x512xf32>
  util.global private @"__iree_flow_bert/encoder/layer_15/ffn_layer_2/output/FakeLayerNorm/beta" = dense<1.0> : tensor<128xf32>
  util.global private @"__iree_flow_bert/encoder/layer_15/ffn_layer_2/output/FakeLayerNorm/gamma" = dense<0.4> : tensor<128xf32>
  util.global private @"__iree_flow_bert/encoder/layer_15/ffn_layer_2/output/dense/bias" = dense<0.1> : tensor<128xf32>
  util.global private @"__iree_flow_bert/encoder/layer_15/ffn_layer_2/output/dense/kernel" {noinline} = dense<0.0001> : tensor<512x128xf32>
  util.global private @"__iree_flow_bert/encoder/layer_15/intermediate/dense/bias" = dense<0.1> : tensor<512xf32>
  util.global private @"__iree_flow_bert/encoder/layer_15/intermediate/dense/kernel" {noinline} = dense<0.0001> : tensor<128x512xf32>
  util.global private @"__iree_flow_bert/encoder/layer_15/output/FakeLayerNorm/beta" = dense<1.0> : tensor<128xf32>
  util.global private @"__iree_flow_bert/encoder/layer_15/output/FakeLayerNorm/gamma" = dense<0.4> : tensor<128xf32>
  util.global private @"__iree_flow_bert/encoder/layer_15/output/bottleneck/FakeLayerNorm/beta" = dense<1.0> : tensor<512xf32>
  util.global private @"__iree_flow_bert/encoder/layer_15/output/bottleneck/FakeLayerNorm/gamma" = dense<0.4> : tensor<512xf32>
  util.global private @"__iree_flow_bert/encoder/layer_15/output/bottleneck/dense/bias" = dense<0.1> : tensor<512xf32>
  util.global private @"__iree_flow_bert/encoder/layer_15/output/bottleneck/dense/kernel" {noinline} = dense<0.0001> : tensor<128x512xf32>
  util.global private @"__iree_flow_bert/encoder/layer_15/output/dense/bias" = dense<0.1> : tensor<128xf32>
  util.global private @"__iree_flow_bert/encoder/layer_15/output/dense/kernel" {noinline} = dense<0.0001> : tensor<512x128xf32>
  util.global private @"__iree_flow_bert/encoder/layer_16/attention/output/FakeLayerNorm/beta" = dense<1.0> : tensor<128xf32>
  util.global private @"__iree_flow_bert/encoder/layer_16/attention/output/FakeLayerNorm/gamma" = dense<0.4> : tensor<128xf32>
  util.global private @"__iree_flow_bert/encoder/layer_16/attention/output/dense/bias" = dense<0.1> : tensor<128xf32>
  util.global private @"__iree_flow_bert/encoder/layer_16/attention/output/dense/kernel" {noinline} = dense<0.0001> : tensor<128x128xf32>
  util.global private @"__iree_flow_bert/encoder/layer_16/attention/self/key/bias" = dense<0.1> : tensor<128xf32>
  util.global private @"__iree_flow_bert/encoder/layer_16/attention/self/key/kernel" {noinline} = dense<0.0001> : tensor<128x128xf32>
  util.global private @"__iree_flow_bert/encoder/layer_16/attention/self/query/bias" = dense<0.1> : tensor<128xf32>
  util.global private @"__iree_flow_bert/encoder/layer_16/attention/self/query/kernel" {noinline} = dense<0.0001> : tensor<128x128xf32>
  util.global private @"__iree_flow_bert/encoder/layer_16/attention/self/value/bias" = dense<0.1> : tensor<128xf32>
  util.global private @"__iree_flow_bert/encoder/layer_16/attention/self/value/kernel" {noinline} = dense<0.0001> : tensor<512x128xf32>
  util.global private @"__iree_flow_bert/encoder/layer_16/bottleneck/attention/FakeLayerNorm/beta" = dense<1.0> : tensor<128xf32>
  util.global private @"__iree_flow_bert/encoder/layer_16/bottleneck/attention/FakeLayerNorm/gamma" = dense<0.4> : tensor<128xf32>
  util.global private @"__iree_flow_bert/encoder/layer_16/bottleneck/attention/dense/bias" = dense<0.1> : tensor<128xf32>
  util.global private @"__iree_flow_bert/encoder/layer_16/bottleneck/attention/dense/kernel" {noinline} = dense<0.0001> : tensor<512x128xf32>
  util.global private @"__iree_flow_bert/encoder/layer_16/bottleneck/input/FakeLayerNorm/beta" = dense<1.0> : tensor<128xf32>
  util.global private @"__iree_flow_bert/encoder/layer_16/bottleneck/input/FakeLayerNorm/gamma" = dense<0.4> : tensor<128xf32>
  util.global private @"__iree_flow_bert/encoder/layer_16/bottleneck/input/dense/bias" = dense<0.1> : tensor<128xf32>
  util.global private @"__iree_flow_bert/encoder/layer_16/bottleneck/input/dense/kernel" {noinline} = dense<0.0001> : tensor<512x128xf32>
  util.global private @"__iree_flow_bert/encoder/layer_16/ffn_layer_0/intermediate/dense/bias" = dense<0.1> : tensor<512xf32>
  util.global private @"__iree_flow_bert/encoder/layer_16/ffn_layer_0/intermediate/dense/kernel" {noinline} = dense<0.0001> : tensor<128x512xf32>
  util.global private @"__iree_flow_bert/encoder/layer_16/ffn_layer_0/output/FakeLayerNorm/beta" = dense<1.0> : tensor<128xf32>
  util.global private @"__iree_flow_bert/encoder/layer_16/ffn_layer_0/output/FakeLayerNorm/gamma" = dense<0.4> : tensor<128xf32>
  util.global private @"__iree_flow_bert/encoder/layer_16/ffn_layer_0/output/dense/bias" = dense<0.1> : tensor<128xf32>
  util.global private @"__iree_flow_bert/encoder/layer_16/ffn_layer_0/output/dense/kernel" {noinline} = dense<0.0001> : tensor<512x128xf32>
  util.global private @"__iree_flow_bert/encoder/layer_16/ffn_layer_1/intermediate/dense/bias" = dense<0.1> : tensor<512xf32>
  util.global private @"__iree_flow_bert/encoder/layer_16/ffn_layer_1/intermediate/dense/kernel" {noinline} = dense<0.0001> : tensor<128x512xf32>
  util.global private @"__iree_flow_bert/encoder/layer_16/ffn_layer_1/output/FakeLayerNorm/beta" = dense<1.0> : tensor<128xf32>
  util.global private @"__iree_flow_bert/encoder/layer_16/ffn_layer_1/output/FakeLayerNorm/gamma" = dense<0.4> : tensor<128xf32>
  util.global private @"__iree_flow_bert/encoder/layer_16/ffn_layer_1/output/dense/bias" = dense<0.1> : tensor<128xf32>
  util.global private @"__iree_flow_bert/encoder/layer_16/ffn_layer_1/output/dense/kernel" {noinline} = dense<0.0001> : tensor<512x128xf32>
  util.global private @"__iree_flow_bert/encoder/layer_16/ffn_layer_2/intermediate/dense/bias" = dense<0.1> : tensor<512xf32>
  util.global private @"__iree_flow_bert/encoder/layer_16/ffn_layer_2/intermediate/dense/kernel" {noinline} = dense<0.0001> : tensor<128x512xf32>
  util.global private @"__iree_flow_bert/encoder/layer_16/ffn_layer_2/output/FakeLayerNorm/beta" = dense<1.0> : tensor<128xf32>
  util.global private @"__iree_flow_bert/encoder/layer_16/ffn_layer_2/output/FakeLayerNorm/gamma" = dense<0.4> : tensor<128xf32>
  util.global private @"__iree_flow_bert/encoder/layer_16/ffn_layer_2/output/dense/bias" = dense<0.1> : tensor<128xf32>
  util.global private @"__iree_flow_bert/encoder/layer_16/ffn_layer_2/output/dense/kernel" {noinline} = dense<0.0001> : tensor<512x128xf32>
  util.global private @"__iree_flow_bert/encoder/layer_16/intermediate/dense/bias" = dense<0.1> : tensor<512xf32>
  util.global private @"__iree_flow_bert/encoder/layer_16/intermediate/dense/kernel" {noinline} = dense<0.0001> : tensor<128x512xf32>
  util.global private @"__iree_flow_bert/encoder/layer_16/output/FakeLayerNorm/beta" = dense<1.0> : tensor<128xf32>
  util.global private @"__iree_flow_bert/encoder/layer_16/output/FakeLayerNorm/gamma" = dense<0.4> : tensor<128xf32>
  util.global private @"__iree_flow_bert/encoder/layer_16/output/bottleneck/FakeLayerNorm/beta" = dense<1.0> : tensor<512xf32>
  util.global private @"__iree_flow_bert/encoder/layer_16/output/bottleneck/FakeLayerNorm/gamma" = dense<0.4> : tensor<512xf32>
  util.global private @"__iree_flow_bert/encoder/layer_16/output/bottleneck/dense/bias" = dense<0.1> : tensor<512xf32>
  util.global private @"__iree_flow_bert/encoder/layer_16/output/bottleneck/dense/kernel" {noinline} = dense<0.0001> : tensor<128x512xf32>
  util.global private @"__iree_flow_bert/encoder/layer_16/output/dense/bias" = dense<0.1> : tensor<128xf32>
  util.global private @"__iree_flow_bert/encoder/layer_16/output/dense/kernel" {noinline} = dense<0.0001> : tensor<512x128xf32>
  util.global private @"__iree_flow_bert/encoder/layer_17/attention/output/FakeLayerNorm/beta" = dense<1.0> : tensor<128xf32>
  util.global private @"__iree_flow_bert/encoder/layer_17/attention/output/FakeLayerNorm/gamma" = dense<0.4> : tensor<128xf32>
  util.global private @"__iree_flow_bert/encoder/layer_17/attention/output/dense/bias" = dense<0.1> : tensor<128xf32>
  util.global private @"__iree_flow_bert/encoder/layer_17/attention/output/dense/kernel" {noinline} = dense<0.0001> : tensor<128x128xf32>
  util.global private @"__iree_flow_bert/encoder/layer_17/attention/self/key/bias" = dense<0.1> : tensor<128xf32>
  util.global private @"__iree_flow_bert/encoder/layer_17/attention/self/key/kernel" {noinline} = dense<0.0001> : tensor<128x128xf32>
  util.global private @"__iree_flow_bert/encoder/layer_17/attention/self/query/bias" = dense<0.1> : tensor<128xf32>
  util.global private @"__iree_flow_bert/encoder/layer_17/attention/self/query/kernel" {noinline} = dense<0.0001> : tensor<128x128xf32>
  util.global private @"__iree_flow_bert/encoder/layer_17/attention/self/value/bias" = dense<0.1> : tensor<128xf32>
  util.global private @"__iree_flow_bert/encoder/layer_17/attention/self/value/kernel" {noinline} = dense<0.0001> : tensor<512x128xf32>
  util.global private @"__iree_flow_bert/encoder/layer_17/bottleneck/attention/FakeLayerNorm/beta" = dense<1.0> : tensor<128xf32>
  util.global private @"__iree_flow_bert/encoder/layer_17/bottleneck/attention/FakeLayerNorm/gamma" = dense<0.4> : tensor<128xf32>
  util.global private @"__iree_flow_bert/encoder/layer_17/bottleneck/attention/dense/bias" = dense<0.1> : tensor<128xf32>
  util.global private @"__iree_flow_bert/encoder/layer_17/bottleneck/attention/dense/kernel" {noinline} = dense<0.0001> : tensor<512x128xf32>
  util.global private @"__iree_flow_bert/encoder/layer_17/bottleneck/input/FakeLayerNorm/beta" = dense<1.0> : tensor<128xf32>
  util.global private @"__iree_flow_bert/encoder/layer_17/bottleneck/input/FakeLayerNorm/gamma" = dense<0.4> : tensor<128xf32>
  util.global private @"__iree_flow_bert/encoder/layer_17/bottleneck/input/dense/bias" = dense<0.1> : tensor<128xf32>
  util.global private @"__iree_flow_bert/encoder/layer_17/bottleneck/input/dense/kernel" {noinline} = dense<0.0001> : tensor<512x128xf32>
  util.global private @"__iree_flow_bert/encoder/layer_17/ffn_layer_0/intermediate/dense/bias" = dense<0.1> : tensor<512xf32>
  util.global private @"__iree_flow_bert/encoder/layer_17/ffn_layer_0/intermediate/dense/kernel" {noinline} = dense<0.0001> : tensor<128x512xf32>
  util.global private @"__iree_flow_bert/encoder/layer_17/ffn_layer_0/output/FakeLayerNorm/beta" = dense<1.0> : tensor<128xf32>
  util.global private @"__iree_flow_bert/encoder/layer_17/ffn_layer_0/output/FakeLayerNorm/gamma" = dense<0.4> : tensor<128xf32>
  util.global private @"__iree_flow_bert/encoder/layer_17/ffn_layer_0/output/dense/bias" = dense<0.1> : tensor<128xf32>
  util.global private @"__iree_flow_bert/encoder/layer_17/ffn_layer_0/output/dense/kernel" {noinline} = dense<0.0001> : tensor<512x128xf32>
  util.global private @"__iree_flow_bert/encoder/layer_17/ffn_layer_1/intermediate/dense/bias" = dense<0.1> : tensor<512xf32>
  util.global private @"__iree_flow_bert/encoder/layer_17/ffn_layer_1/intermediate/dense/kernel" {noinline} = dense<0.0001> : tensor<128x512xf32>
  util.global private @"__iree_flow_bert/encoder/layer_17/ffn_layer_1/output/FakeLayerNorm/beta" = dense<1.0> : tensor<128xf32>
  util.global private @"__iree_flow_bert/encoder/layer_17/ffn_layer_1/output/FakeLayerNorm/gamma" = dense<0.4> : tensor<128xf32>
  util.global private @"__iree_flow_bert/encoder/layer_17/ffn_layer_1/output/dense/bias" = dense<0.1> : tensor<128xf32>
  util.global private @"__iree_flow_bert/encoder/layer_17/ffn_layer_1/output/dense/kernel" {noinline} = dense<0.0001> : tensor<512x128xf32>
  util.global private @"__iree_flow_bert/encoder/layer_17/ffn_layer_2/intermediate/dense/bias" = dense<0.1> : tensor<512xf32>
  util.global private @"__iree_flow_bert/encoder/layer_17/ffn_layer_2/intermediate/dense/kernel" {noinline} = dense<0.0001> : tensor<128x512xf32>
  util.global private @"__iree_flow_bert/encoder/layer_17/ffn_layer_2/output/FakeLayerNorm/beta" = dense<1.0> : tensor<128xf32>
  util.global private @"__iree_flow_bert/encoder/layer_17/ffn_layer_2/output/FakeLayerNorm/gamma" = dense<0.4> : tensor<128xf32>
  util.global private @"__iree_flow_bert/encoder/layer_17/ffn_layer_2/output/dense/bias" = dense<0.1> : tensor<128xf32>
  util.global private @"__iree_flow_bert/encoder/layer_17/ffn_layer_2/output/dense/kernel" {noinline} = dense<0.0001> : tensor<512x128xf32>
  util.global private @"__iree_flow_bert/encoder/layer_17/intermediate/dense/bias" = dense<0.1> : tensor<512xf32>
  util.global private @"__iree_flow_bert/encoder/layer_17/intermediate/dense/kernel" {noinline} = dense<0.0001> : tensor<128x512xf32>
  util.global private @"__iree_flow_bert/encoder/layer_17/output/FakeLayerNorm/beta" = dense<1.0> : tensor<128xf32>
  util.global private @"__iree_flow_bert/encoder/layer_17/output/FakeLayerNorm/gamma" = dense<0.4> : tensor<128xf32>
  util.global private @"__iree_flow_bert/encoder/layer_17/output/bottleneck/FakeLayerNorm/beta" = dense<1.0> : tensor<512xf32>
  util.global private @"__iree_flow_bert/encoder/layer_17/output/bottleneck/FakeLayerNorm/gamma" = dense<0.4> : tensor<512xf32>
  util.global private @"__iree_flow_bert/encoder/layer_17/output/bottleneck/dense/bias" = dense<0.1> : tensor<512xf32>
  util.global private @"__iree_flow_bert/encoder/layer_17/output/bottleneck/dense/kernel" {noinline} = dense<0.0001> : tensor<128x512xf32>
  util.global private @"__iree_flow_bert/encoder/layer_17/output/dense/bias" = dense<0.1> : tensor<128xf32>
  util.global private @"__iree_flow_bert/encoder/layer_17/output/dense/kernel" {noinline} = dense<0.0001> : tensor<512x128xf32>
  util.global private @"__iree_flow_bert/encoder/layer_18/attention/output/FakeLayerNorm/beta" = dense<1.0> : tensor<128xf32>
  util.global private @"__iree_flow_bert/encoder/layer_18/attention/output/FakeLayerNorm/gamma" = dense<0.4> : tensor<128xf32>
  util.global private @"__iree_flow_bert/encoder/layer_18/attention/output/dense/bias" = dense<0.1> : tensor<128xf32>
  util.global private @"__iree_flow_bert/encoder/layer_18/attention/output/dense/kernel" {noinline} = dense<0.0001> : tensor<128x128xf32>
  util.global private @"__iree_flow_bert/encoder/layer_18/attention/self/key/bias" = dense<0.1> : tensor<128xf32>
  util.global private @"__iree_flow_bert/encoder/layer_18/attention/self/key/kernel" {noinline} = dense<0.0001> : tensor<128x128xf32>
  util.global private @"__iree_flow_bert/encoder/layer_18/attention/self/query/bias" = dense<0.1> : tensor<128xf32>
  util.global private @"__iree_flow_bert/encoder/layer_18/attention/self/query/kernel" {noinline} = dense<0.0001> : tensor<128x128xf32>
  util.global private @"__iree_flow_bert/encoder/layer_18/attention/self/value/bias" = dense<0.1> : tensor<128xf32>
  util.global private @"__iree_flow_bert/encoder/layer_18/attention/self/value/kernel" {noinline} = dense<0.0001> : tensor<512x128xf32>
  util.global private @"__iree_flow_bert/encoder/layer_18/bottleneck/attention/FakeLayerNorm/beta" = dense<1.0> : tensor<128xf32>
  util.global private @"__iree_flow_bert/encoder/layer_18/bottleneck/attention/FakeLayerNorm/gamma" = dense<0.4> : tensor<128xf32>
  util.global private @"__iree_flow_bert/encoder/layer_18/bottleneck/attention/dense/bias" = dense<0.1> : tensor<128xf32>
  util.global private @"__iree_flow_bert/encoder/layer_18/bottleneck/attention/dense/kernel" {noinline} = dense<0.0001> : tensor<512x128xf32>
  util.global private @"__iree_flow_bert/encoder/layer_18/bottleneck/input/FakeLayerNorm/beta" = dense<1.0> : tensor<128xf32>
  util.global private @"__iree_flow_bert/encoder/layer_18/bottleneck/input/FakeLayerNorm/gamma" = dense<0.4> : tensor<128xf32>
  util.global private @"__iree_flow_bert/encoder/layer_18/bottleneck/input/dense/bias" = dense<0.1> : tensor<128xf32>
  util.global private @"__iree_flow_bert/encoder/layer_18/bottleneck/input/dense/kernel" {noinline} = dense<0.0001> : tensor<512x128xf32>
  util.global private @"__iree_flow_bert/encoder/layer_18/ffn_layer_0/intermediate/dense/bias" = dense<0.1> : tensor<512xf32>
  util.global private @"__iree_flow_bert/encoder/layer_18/ffn_layer_0/intermediate/dense/kernel" {noinline} = dense<0.0001> : tensor<128x512xf32>
  util.global private @"__iree_flow_bert/encoder/layer_18/ffn_layer_0/output/FakeLayerNorm/beta" = dense<1.0> : tensor<128xf32>
  util.global private @"__iree_flow_bert/encoder/layer_18/ffn_layer_0/output/FakeLayerNorm/gamma" = dense<0.4> : tensor<128xf32>
  util.global private @"__iree_flow_bert/encoder/layer_18/ffn_layer_0/output/dense/bias" = dense<0.1> : tensor<128xf32>
  util.global private @"__iree_flow_bert/encoder/layer_18/ffn_layer_0/output/dense/kernel" {noinline} = dense<0.0001> : tensor<512x128xf32>
  util.global private @"__iree_flow_bert/encoder/layer_18/ffn_layer_1/intermediate/dense/bias" = dense<0.1> : tensor<512xf32>
  util.global private @"__iree_flow_bert/encoder/layer_18/ffn_layer_1/intermediate/dense/kernel" {noinline} = dense<0.0001> : tensor<128x512xf32>
  util.global private @"__iree_flow_bert/encoder/layer_18/ffn_layer_1/output/FakeLayerNorm/beta" = dense<1.0> : tensor<128xf32>
  util.global private @"__iree_flow_bert/encoder/layer_18/ffn_layer_1/output/FakeLayerNorm/gamma" = dense<0.4> : tensor<128xf32>
  util.global private @"__iree_flow_bert/encoder/layer_18/ffn_layer_1/output/dense/bias" = dense<0.1> : tensor<128xf32>
  util.global private @"__iree_flow_bert/encoder/layer_18/ffn_layer_1/output/dense/kernel" {noinline} = dense<0.0001> : tensor<512x128xf32>
  util.global private @"__iree_flow_bert/encoder/layer_18/ffn_layer_2/intermediate/dense/bias" = dense<0.1> : tensor<512xf32>
  util.global private @"__iree_flow_bert/encoder/layer_18/ffn_layer_2/intermediate/dense/kernel" {noinline} = dense<0.0001> : tensor<128x512xf32>
  util.global private @"__iree_flow_bert/encoder/layer_18/ffn_layer_2/output/FakeLayerNorm/beta" = dense<1.0> : tensor<128xf32>
  util.global private @"__iree_flow_bert/encoder/layer_18/ffn_layer_2/output/FakeLayerNorm/gamma" = dense<0.4> : tensor<128xf32>
  util.global private @"__iree_flow_bert/encoder/layer_18/ffn_layer_2/output/dense/bias" = dense<0.1> : tensor<128xf32>
  util.global private @"__iree_flow_bert/encoder/layer_18/ffn_layer_2/output/dense/kernel" {noinline} = dense<0.0001> : tensor<512x128xf32>
  util.global private @"__iree_flow_bert/encoder/layer_18/intermediate/dense/bias" = dense<0.1> : tensor<512xf32>
  util.global private @"__iree_flow_bert/encoder/layer_18/intermediate/dense/kernel" {noinline} = dense<0.0001> : tensor<128x512xf32>
  util.global private @"__iree_flow_bert/encoder/layer_18/output/FakeLayerNorm/beta" = dense<1.0> : tensor<128xf32>
  util.global private @"__iree_flow_bert/encoder/layer_18/output/FakeLayerNorm/gamma" = dense<0.4> : tensor<128xf32>
  util.global private @"__iree_flow_bert/encoder/layer_18/output/bottleneck/FakeLayerNorm/beta" = dense<1.0> : tensor<512xf32>
  util.global private @"__iree_flow_bert/encoder/layer_18/output/bottleneck/FakeLayerNorm/gamma" = dense<0.4> : tensor<512xf32>
  util.global private @"__iree_flow_bert/encoder/layer_18/output/bottleneck/dense/bias" = dense<0.1> : tensor<512xf32>
  util.global private @"__iree_flow_bert/encoder/layer_18/output/bottleneck/dense/kernel" {noinline} = dense<0.0001> : tensor<128x512xf32>
  util.global private @"__iree_flow_bert/encoder/layer_18/output/dense/bias" = dense<0.1> : tensor<128xf32>
  util.global private @"__iree_flow_bert/encoder/layer_18/output/dense/kernel" {noinline} = dense<0.0001> : tensor<512x128xf32>
  util.global private @"__iree_flow_bert/encoder/layer_19/attention/output/FakeLayerNorm/beta" = dense<1.0> : tensor<128xf32>
  util.global private @"__iree_flow_bert/encoder/layer_19/attention/output/FakeLayerNorm/gamma" = dense<0.4> : tensor<128xf32>
  util.global private @"__iree_flow_bert/encoder/layer_19/attention/output/dense/bias" = dense<0.1> : tensor<128xf32>
  util.global private @"__iree_flow_bert/encoder/layer_19/attention/output/dense/kernel" {noinline} = dense<0.0001> : tensor<128x128xf32>
  util.global private @"__iree_flow_bert/encoder/layer_19/attention/self/key/bias" = dense<0.1> : tensor<128xf32>
  util.global private @"__iree_flow_bert/encoder/layer_19/attention/self/key/kernel" {noinline} = dense<0.0001> : tensor<128x128xf32>
  util.global private @"__iree_flow_bert/encoder/layer_19/attention/self/query/bias" = dense<0.1> : tensor<128xf32>
  util.global private @"__iree_flow_bert/encoder/layer_19/attention/self/query/kernel" {noinline} = dense<0.0001> : tensor<128x128xf32>
  util.global private @"__iree_flow_bert/encoder/layer_19/attention/self/value/bias" = dense<0.1> : tensor<128xf32>
  util.global private @"__iree_flow_bert/encoder/layer_19/attention/self/value/kernel" {noinline} = dense<0.0001> : tensor<512x128xf32>
  util.global private @"__iree_flow_bert/encoder/layer_19/bottleneck/attention/FakeLayerNorm/beta" = dense<1.0> : tensor<128xf32>
  util.global private @"__iree_flow_bert/encoder/layer_19/bottleneck/attention/FakeLayerNorm/gamma" = dense<0.4> : tensor<128xf32>
  util.global private @"__iree_flow_bert/encoder/layer_19/bottleneck/attention/dense/bias" = dense<0.1> : tensor<128xf32>
  util.global private @"__iree_flow_bert/encoder/layer_19/bottleneck/attention/dense/kernel" {noinline} = dense<0.0001> : tensor<512x128xf32>
  util.global private @"__iree_flow_bert/encoder/layer_19/bottleneck/input/FakeLayerNorm/beta" = dense<1.0> : tensor<128xf32>
  util.global private @"__iree_flow_bert/encoder/layer_19/bottleneck/input/FakeLayerNorm/gamma" = dense<0.4> : tensor<128xf32>
  util.global private @"__iree_flow_bert/encoder/layer_19/bottleneck/input/dense/bias" = dense<0.1> : tensor<128xf32>
  util.global private @"__iree_flow_bert/encoder/layer_19/bottleneck/input/dense/kernel" {noinline} = dense<0.0001> : tensor<512x128xf32>
  util.global private @"__iree_flow_bert/encoder/layer_19/ffn_layer_0/intermediate/dense/bias" = dense<0.1> : tensor<512xf32>
  util.global private @"__iree_flow_bert/encoder/layer_19/ffn_layer_0/intermediate/dense/kernel" {noinline} = dense<0.0001> : tensor<128x512xf32>
  util.global private @"__iree_flow_bert/encoder/layer_19/ffn_layer_0/output/FakeLayerNorm/beta" = dense<1.0> : tensor<128xf32>
  util.global private @"__iree_flow_bert/encoder/layer_19/ffn_layer_0/output/FakeLayerNorm/gamma" = dense<0.4> : tensor<128xf32>
  util.global private @"__iree_flow_bert/encoder/layer_19/ffn_layer_0/output/dense/bias" = dense<0.1> : tensor<128xf32>
  util.global private @"__iree_flow_bert/encoder/layer_19/ffn_layer_0/output/dense/kernel" {noinline} = dense<0.0001> : tensor<512x128xf32>
  util.global private @"__iree_flow_bert/encoder/layer_19/ffn_layer_1/intermediate/dense/bias" = dense<0.1> : tensor<512xf32>
  util.global private @"__iree_flow_bert/encoder/layer_19/ffn_layer_1/intermediate/dense/kernel" {noinline} = dense<0.0001> : tensor<128x512xf32>
  util.global private @"__iree_flow_bert/encoder/layer_19/ffn_layer_1/output/FakeLayerNorm/beta" = dense<1.0> : tensor<128xf32>
  util.global private @"__iree_flow_bert/encoder/layer_19/ffn_layer_1/output/FakeLayerNorm/gamma" = dense<0.4> : tensor<128xf32>
  util.global private @"__iree_flow_bert/encoder/layer_19/ffn_layer_1/output/dense/bias" = dense<0.1> : tensor<128xf32>
  util.global private @"__iree_flow_bert/encoder/layer_19/ffn_layer_1/output/dense/kernel" {noinline} = dense<0.0001> : tensor<512x128xf32>
  util.global private @"__iree_flow_bert/encoder/layer_19/ffn_layer_2/intermediate/dense/bias" = dense<0.1> : tensor<512xf32>
  util.global private @"__iree_flow_bert/encoder/layer_19/ffn_layer_2/intermediate/dense/kernel" {noinline} = dense<0.0001> : tensor<128x512xf32>
  util.global private @"__iree_flow_bert/encoder/layer_19/ffn_layer_2/output/FakeLayerNorm/beta" = dense<1.0> : tensor<128xf32>
  util.global private @"__iree_flow_bert/encoder/layer_19/ffn_layer_2/output/FakeLayerNorm/gamma" = dense<0.4> : tensor<128xf32>
  util.global private @"__iree_flow_bert/encoder/layer_19/ffn_layer_2/output/dense/bias" = dense<0.1> : tensor<128xf32>
  util.global private @"__iree_flow_bert/encoder/layer_19/ffn_layer_2/output/dense/kernel" {noinline} = dense<0.0001> : tensor<512x128xf32>
  util.global private @"__iree_flow_bert/encoder/layer_19/intermediate/dense/bias" = dense<0.1> : tensor<512xf32>
  util.global private @"__iree_flow_bert/encoder/layer_19/intermediate/dense/kernel" {noinline} = dense<0.0001> : tensor<128x512xf32>
  util.global private @"__iree_flow_bert/encoder/layer_19/output/FakeLayerNorm/beta" = dense<1.0> : tensor<128xf32>
  util.global private @"__iree_flow_bert/encoder/layer_19/output/FakeLayerNorm/gamma" = dense<0.4> : tensor<128xf32>
  util.global private @"__iree_flow_bert/encoder/layer_19/output/bottleneck/FakeLayerNorm/beta" = dense<1.0> : tensor<512xf32>
  util.global private @"__iree_flow_bert/encoder/layer_19/output/bottleneck/FakeLayerNorm/gamma" = dense<0.4> : tensor<512xf32>
  util.global private @"__iree_flow_bert/encoder/layer_19/output/bottleneck/dense/bias" = dense<0.1> : tensor<512xf32>
  util.global private @"__iree_flow_bert/encoder/layer_19/output/bottleneck/dense/kernel" {noinline} = dense<0.0001> : tensor<128x512xf32>
  util.global private @"__iree_flow_bert/encoder/layer_19/output/dense/bias" = dense<0.1> : tensor<128xf32>
  util.global private @"__iree_flow_bert/encoder/layer_19/output/dense/kernel" {noinline} = dense<0.0001> : tensor<512x128xf32>
  util.global private @"__iree_flow_bert/encoder/layer_2/attention/output/FakeLayerNorm/beta" = dense<1.0> : tensor<128xf32>
  util.global private @"__iree_flow_bert/encoder/layer_2/attention/output/FakeLayerNorm/gamma" = dense<0.4> : tensor<128xf32>
  util.global private @"__iree_flow_bert/encoder/layer_2/attention/output/dense/bias" = dense<0.1> : tensor<128xf32>
  util.global private @"__iree_flow_bert/encoder/layer_2/attention/output/dense/kernel" {noinline} = dense<0.0001> : tensor<128x128xf32>
  util.global private @"__iree_flow_bert/encoder/layer_2/attention/self/key/bias" = dense<0.1> : tensor<128xf32>
  util.global private @"__iree_flow_bert/encoder/layer_2/attention/self/key/kernel" {noinline} = dense<0.0001> : tensor<128x128xf32>
  util.global private @"__iree_flow_bert/encoder/layer_2/attention/self/query/bias" = dense<0.1> : tensor<128xf32>
  util.global private @"__iree_flow_bert/encoder/layer_2/attention/self/query/kernel" {noinline} = dense<0.0001> : tensor<128x128xf32>
  util.global private @"__iree_flow_bert/encoder/layer_2/attention/self/value/bias" = dense<0.1> : tensor<128xf32>
  util.global private @"__iree_flow_bert/encoder/layer_2/attention/self/value/kernel" {noinline} = dense<0.0001> : tensor<512x128xf32>
  util.global private @"__iree_flow_bert/encoder/layer_2/bottleneck/attention/FakeLayerNorm/beta" = dense<1.0> : tensor<128xf32>
  util.global private @"__iree_flow_bert/encoder/layer_2/bottleneck/attention/FakeLayerNorm/gamma" = dense<0.4> : tensor<128xf32>
  util.global private @"__iree_flow_bert/encoder/layer_2/bottleneck/attention/dense/bias" = dense<0.1> : tensor<128xf32>
  util.global private @"__iree_flow_bert/encoder/layer_2/bottleneck/attention/dense/kernel" {noinline} = dense<0.0001> : tensor<512x128xf32>
  util.global private @"__iree_flow_bert/encoder/layer_2/bottleneck/input/FakeLayerNorm/beta" = dense<1.0> : tensor<128xf32>
  util.global private @"__iree_flow_bert/encoder/layer_2/bottleneck/input/FakeLayerNorm/gamma" = dense<0.4> : tensor<128xf32>
  util.global private @"__iree_flow_bert/encoder/layer_2/bottleneck/input/dense/bias" = dense<0.1> : tensor<128xf32>
  util.global private @"__iree_flow_bert/encoder/layer_2/bottleneck/input/dense/kernel" {noinline} = dense<0.0001> : tensor<512x128xf32>
  util.global private @"__iree_flow_bert/encoder/layer_2/ffn_layer_0/intermediate/dense/bias" = dense<0.1> : tensor<512xf32>
  util.global private @"__iree_flow_bert/encoder/layer_2/ffn_layer_0/intermediate/dense/kernel" {noinline} = dense<0.0001> : tensor<128x512xf32>
  util.global private @"__iree_flow_bert/encoder/layer_2/ffn_layer_0/output/FakeLayerNorm/beta" = dense<1.0> : tensor<128xf32>
  util.global private @"__iree_flow_bert/encoder/layer_2/ffn_layer_0/output/FakeLayerNorm/gamma" = dense<0.4> : tensor<128xf32>
  util.global private @"__iree_flow_bert/encoder/layer_2/ffn_layer_0/output/dense/bias" = dense<0.1> : tensor<128xf32>
  util.global private @"__iree_flow_bert/encoder/layer_2/ffn_layer_0/output/dense/kernel" {noinline} = dense<0.0001> : tensor<512x128xf32>
  util.global private @"__iree_flow_bert/encoder/layer_2/ffn_layer_1/intermediate/dense/bias" = dense<0.1> : tensor<512xf32>
  util.global private @"__iree_flow_bert/encoder/layer_2/ffn_layer_1/intermediate/dense/kernel" {noinline} = dense<0.0001> : tensor<128x512xf32>
  util.global private @"__iree_flow_bert/encoder/layer_2/ffn_layer_1/output/FakeLayerNorm/beta" = dense<1.0> : tensor<128xf32>
  util.global private @"__iree_flow_bert/encoder/layer_2/ffn_layer_1/output/FakeLayerNorm/gamma" = dense<0.4> : tensor<128xf32>
  util.global private @"__iree_flow_bert/encoder/layer_2/ffn_layer_1/output/dense/bias" = dense<0.1> : tensor<128xf32>
  util.global private @"__iree_flow_bert/encoder/layer_2/ffn_layer_1/output/dense/kernel" {noinline} = dense<0.0001> : tensor<512x128xf32>
  util.global private @"__iree_flow_bert/encoder/layer_2/ffn_layer_2/intermediate/dense/bias" = dense<0.1> : tensor<512xf32>
  util.global private @"__iree_flow_bert/encoder/layer_2/ffn_layer_2/intermediate/dense/kernel" {noinline} = dense<0.0001> : tensor<128x512xf32>
  util.global private @"__iree_flow_bert/encoder/layer_2/ffn_layer_2/output/FakeLayerNorm/beta" = dense<1.0> : tensor<128xf32>
  util.global private @"__iree_flow_bert/encoder/layer_2/ffn_layer_2/output/FakeLayerNorm/gamma" = dense<0.4> : tensor<128xf32>
  util.global private @"__iree_flow_bert/encoder/layer_2/ffn_layer_2/output/dense/bias" = dense<0.1> : tensor<128xf32>
  util.global private @"__iree_flow_bert/encoder/layer_2/ffn_layer_2/output/dense/kernel" {noinline} = dense<0.0001> : tensor<512x128xf32>
  util.global private @"__iree_flow_bert/encoder/layer_2/intermediate/dense/bias" = dense<0.1> : tensor<512xf32>
  util.global private @"__iree_flow_bert/encoder/layer_2/intermediate/dense/kernel" {noinline} = dense<0.0001> : tensor<128x512xf32>
  util.global private @"__iree_flow_bert/encoder/layer_2/output/FakeLayerNorm/beta" = dense<1.0> : tensor<128xf32>
  util.global private @"__iree_flow_bert/encoder/layer_2/output/FakeLayerNorm/gamma" = dense<0.4> : tensor<128xf32>
  util.global private @"__iree_flow_bert/encoder/layer_2/output/bottleneck/FakeLayerNorm/beta" = dense<1.0> : tensor<512xf32>
  util.global private @"__iree_flow_bert/encoder/layer_2/output/bottleneck/FakeLayerNorm/gamma" = dense<0.4> : tensor<512xf32>
  util.global private @"__iree_flow_bert/encoder/layer_2/output/bottleneck/dense/bias" = dense<0.1> : tensor<512xf32>
  util.global private @"__iree_flow_bert/encoder/layer_2/output/bottleneck/dense/kernel" {noinline} = dense<0.0001> : tensor<128x512xf32>
  util.global private @"__iree_flow_bert/encoder/layer_2/output/dense/bias" = dense<0.1> : tensor<128xf32>
  util.global private @"__iree_flow_bert/encoder/layer_2/output/dense/kernel" {noinline} = dense<0.0001> : tensor<512x128xf32>
  util.global private @"__iree_flow_bert/encoder/layer_20/attention/output/FakeLayerNorm/beta" = dense<1.0> : tensor<128xf32>
  util.global private @"__iree_flow_bert/encoder/layer_20/attention/output/FakeLayerNorm/gamma" = dense<0.4> : tensor<128xf32>
  util.global private @"__iree_flow_bert/encoder/layer_20/attention/output/dense/bias" = dense<0.1> : tensor<128xf32>
  util.global private @"__iree_flow_bert/encoder/layer_20/attention/output/dense/kernel" {noinline} = dense<0.0001> : tensor<128x128xf32>
  util.global private @"__iree_flow_bert/encoder/layer_20/attention/self/key/bias" = dense<0.1> : tensor<128xf32>
  util.global private @"__iree_flow_bert/encoder/layer_20/attention/self/key/kernel" {noinline} = dense<0.0001> : tensor<128x128xf32>
  util.global private @"__iree_flow_bert/encoder/layer_20/attention/self/query/bias" = dense<0.1> : tensor<128xf32>
  util.global private @"__iree_flow_bert/encoder/layer_20/attention/self/query/kernel" {noinline} = dense<0.0001> : tensor<128x128xf32>
  util.global private @"__iree_flow_bert/encoder/layer_20/attention/self/value/bias" = dense<0.1> : tensor<128xf32>
  util.global private @"__iree_flow_bert/encoder/layer_20/attention/self/value/kernel" {noinline} = dense<0.0001> : tensor<512x128xf32>
  util.global private @"__iree_flow_bert/encoder/layer_20/bottleneck/attention/FakeLayerNorm/beta" = dense<1.0> : tensor<128xf32>
  util.global private @"__iree_flow_bert/encoder/layer_20/bottleneck/attention/FakeLayerNorm/gamma" = dense<0.4> : tensor<128xf32>
  util.global private @"__iree_flow_bert/encoder/layer_20/bottleneck/attention/dense/bias" = dense<0.1> : tensor<128xf32>
  util.global private @"__iree_flow_bert/encoder/layer_20/bottleneck/attention/dense/kernel" {noinline} = dense<0.0001> : tensor<512x128xf32>
  util.global private @"__iree_flow_bert/encoder/layer_20/bottleneck/input/FakeLayerNorm/beta" = dense<1.0> : tensor<128xf32>
  util.global private @"__iree_flow_bert/encoder/layer_20/bottleneck/input/FakeLayerNorm/gamma" = dense<0.4> : tensor<128xf32>
  util.global private @"__iree_flow_bert/encoder/layer_20/bottleneck/input/dense/bias" = dense<0.1> : tensor<128xf32>
  util.global private @"__iree_flow_bert/encoder/layer_20/bottleneck/input/dense/kernel" {noinline} = dense<0.0001> : tensor<512x128xf32>
  util.global private @"__iree_flow_bert/encoder/layer_20/ffn_layer_0/intermediate/dense/bias" = dense<0.1> : tensor<512xf32>
  util.global private @"__iree_flow_bert/encoder/layer_20/ffn_layer_0/intermediate/dense/kernel" {noinline} = dense<0.0001> : tensor<128x512xf32>
  util.global private @"__iree_flow_bert/encoder/layer_20/ffn_layer_0/output/FakeLayerNorm/beta" = dense<1.0> : tensor<128xf32>
  util.global private @"__iree_flow_bert/encoder/layer_20/ffn_layer_0/output/FakeLayerNorm/gamma" = dense<0.4> : tensor<128xf32>
  util.global private @"__iree_flow_bert/encoder/layer_20/ffn_layer_0/output/dense/bias" = dense<0.1> : tensor<128xf32>
  util.global private @"__iree_flow_bert/encoder/layer_20/ffn_layer_0/output/dense/kernel" {noinline} = dense<0.0001> : tensor<512x128xf32>
  util.global private @"__iree_flow_bert/encoder/layer_20/ffn_layer_1/intermediate/dense/bias" = dense<0.1> : tensor<512xf32>
  util.global private @"__iree_flow_bert/encoder/layer_20/ffn_layer_1/intermediate/dense/kernel" {noinline} = dense<0.0001> : tensor<128x512xf32>
  util.global private @"__iree_flow_bert/encoder/layer_20/ffn_layer_1/output/FakeLayerNorm/beta" = dense<1.0> : tensor<128xf32>
  util.global private @"__iree_flow_bert/encoder/layer_20/ffn_layer_1/output/FakeLayerNorm/gamma" = dense<0.4> : tensor<128xf32>
  util.global private @"__iree_flow_bert/encoder/layer_20/ffn_layer_1/output/dense/bias" = dense<0.1> : tensor<128xf32>
  util.global private @"__iree_flow_bert/encoder/layer_20/ffn_layer_1/output/dense/kernel" {noinline} = dense<0.0001> : tensor<512x128xf32>
  util.global private @"__iree_flow_bert/encoder/layer_20/ffn_layer_2/intermediate/dense/bias" = dense<0.1> : tensor<512xf32>
  util.global private @"__iree_flow_bert/encoder/layer_20/ffn_layer_2/intermediate/dense/kernel" {noinline} = dense<0.0001> : tensor<128x512xf32>
  util.global private @"__iree_flow_bert/encoder/layer_20/ffn_layer_2/output/FakeLayerNorm/beta" = dense<1.0> : tensor<128xf32>
  util.global private @"__iree_flow_bert/encoder/layer_20/ffn_layer_2/output/FakeLayerNorm/gamma" = dense<0.4> : tensor<128xf32>
  util.global private @"__iree_flow_bert/encoder/layer_20/ffn_layer_2/output/dense/bias" = dense<0.1> : tensor<128xf32>
  util.global private @"__iree_flow_bert/encoder/layer_20/ffn_layer_2/output/dense/kernel" {noinline} = dense<0.0001> : tensor<512x128xf32>
  util.global private @"__iree_flow_bert/encoder/layer_20/intermediate/dense/bias" = dense<0.1> : tensor<512xf32>
  util.global private @"__iree_flow_bert/encoder/layer_20/intermediate/dense/kernel" {noinline} = dense<0.0001> : tensor<128x512xf32>
  util.global private @"__iree_flow_bert/encoder/layer_20/output/FakeLayerNorm/beta" = dense<1.0> : tensor<128xf32>
  util.global private @"__iree_flow_bert/encoder/layer_20/output/FakeLayerNorm/gamma" = dense<0.4> : tensor<128xf32>
  util.global private @"__iree_flow_bert/encoder/layer_20/output/bottleneck/FakeLayerNorm/beta" = dense<1.0> : tensor<512xf32>
  util.global private @"__iree_flow_bert/encoder/layer_20/output/bottleneck/FakeLayerNorm/gamma" = dense<0.4> : tensor<512xf32>
  util.global private @"__iree_flow_bert/encoder/layer_20/output/bottleneck/dense/bias" = dense<0.1> : tensor<512xf32>
  util.global private @"__iree_flow_bert/encoder/layer_20/output/bottleneck/dense/kernel" {noinline} = dense<0.0001> : tensor<128x512xf32>
  util.global private @"__iree_flow_bert/encoder/layer_20/output/dense/bias" = dense<0.1> : tensor<128xf32>
  util.global private @"__iree_flow_bert/encoder/layer_20/output/dense/kernel" {noinline} = dense<0.0001> : tensor<512x128xf32>
  util.global private @"__iree_flow_bert/encoder/layer_21/attention/output/FakeLayerNorm/beta" = dense<1.0> : tensor<128xf32>
  util.global private @"__iree_flow_bert/encoder/layer_21/attention/output/FakeLayerNorm/gamma" = dense<0.4> : tensor<128xf32>
  util.global private @"__iree_flow_bert/encoder/layer_21/attention/output/dense/bias" = dense<0.1> : tensor<128xf32>
  util.global private @"__iree_flow_bert/encoder/layer_21/attention/output/dense/kernel" {noinline} = dense<0.0001> : tensor<128x128xf32>
  util.global private @"__iree_flow_bert/encoder/layer_21/attention/self/key/bias" = dense<0.1> : tensor<128xf32>
  util.global private @"__iree_flow_bert/encoder/layer_21/attention/self/key/kernel" {noinline} = dense<0.0001> : tensor<128x128xf32>
  util.global private @"__iree_flow_bert/encoder/layer_21/attention/self/query/bias" = dense<0.1> : tensor<128xf32>
  util.global private @"__iree_flow_bert/encoder/layer_21/attention/self/query/kernel" {noinline} = dense<0.0001> : tensor<128x128xf32>
  util.global private @"__iree_flow_bert/encoder/layer_21/attention/self/value/bias" = dense<0.1> : tensor<128xf32>
  util.global private @"__iree_flow_bert/encoder/layer_21/attention/self/value/kernel" {noinline} = dense<0.0001> : tensor<512x128xf32>
  util.global private @"__iree_flow_bert/encoder/layer_21/bottleneck/attention/FakeLayerNorm/beta" = dense<1.0> : tensor<128xf32>
  util.global private @"__iree_flow_bert/encoder/layer_21/bottleneck/attention/FakeLayerNorm/gamma" = dense<0.4> : tensor<128xf32>
  util.global private @"__iree_flow_bert/encoder/layer_21/bottleneck/attention/dense/bias" = dense<0.1> : tensor<128xf32>
  util.global private @"__iree_flow_bert/encoder/layer_21/bottleneck/attention/dense/kernel" {noinline} = dense<0.0001> : tensor<512x128xf32>
  util.global private @"__iree_flow_bert/encoder/layer_21/bottleneck/input/FakeLayerNorm/beta" = dense<1.0> : tensor<128xf32>
  util.global private @"__iree_flow_bert/encoder/layer_21/bottleneck/input/FakeLayerNorm/gamma" = dense<0.4> : tensor<128xf32>
  util.global private @"__iree_flow_bert/encoder/layer_21/bottleneck/input/dense/bias" = dense<0.1> : tensor<128xf32>
  util.global private @"__iree_flow_bert/encoder/layer_21/bottleneck/input/dense/kernel" {noinline} = dense<0.0001> : tensor<512x128xf32>
  util.global private @"__iree_flow_bert/encoder/layer_21/ffn_layer_0/intermediate/dense/bias" = dense<0.1> : tensor<512xf32>
  util.global private @"__iree_flow_bert/encoder/layer_21/ffn_layer_0/intermediate/dense/kernel" {noinline} = dense<0.0001> : tensor<128x512xf32>
  util.global private @"__iree_flow_bert/encoder/layer_21/ffn_layer_0/output/FakeLayerNorm/beta" = dense<1.0> : tensor<128xf32>
  util.global private @"__iree_flow_bert/encoder/layer_21/ffn_layer_0/output/FakeLayerNorm/gamma" = dense<0.4> : tensor<128xf32>
  util.global private @"__iree_flow_bert/encoder/layer_21/ffn_layer_0/output/dense/bias" = dense<0.1> : tensor<128xf32>
  util.global private @"__iree_flow_bert/encoder/layer_21/ffn_layer_0/output/dense/kernel" {noinline} = dense<0.0001> : tensor<512x128xf32>
  util.global private @"__iree_flow_bert/encoder/layer_21/ffn_layer_1/intermediate/dense/bias" = dense<0.1> : tensor<512xf32>
  util.global private @"__iree_flow_bert/encoder/layer_21/ffn_layer_1/intermediate/dense/kernel" {noinline} = dense<0.0001> : tensor<128x512xf32>
  util.global private @"__iree_flow_bert/encoder/layer_21/ffn_layer_1/output/FakeLayerNorm/beta" = dense<1.0> : tensor<128xf32>
  util.global private @"__iree_flow_bert/encoder/layer_21/ffn_layer_1/output/FakeLayerNorm/gamma" = dense<0.4> : tensor<128xf32>
  util.global private @"__iree_flow_bert/encoder/layer_21/ffn_layer_1/output/dense/bias" = dense<0.1> : tensor<128xf32>
  util.global private @"__iree_flow_bert/encoder/layer_21/ffn_layer_1/output/dense/kernel" {noinline} = dense<0.0001> : tensor<512x128xf32>
  util.global private @"__iree_flow_bert/encoder/layer_21/ffn_layer_2/intermediate/dense/bias" = dense<0.1> : tensor<512xf32>
  util.global private @"__iree_flow_bert/encoder/layer_21/ffn_layer_2/intermediate/dense/kernel" {noinline} = dense<0.0001> : tensor<128x512xf32>
  util.global private @"__iree_flow_bert/encoder/layer_21/ffn_layer_2/output/FakeLayerNorm/beta" = dense<1.0> : tensor<128xf32>
  util.global private @"__iree_flow_bert/encoder/layer_21/ffn_layer_2/output/FakeLayerNorm/gamma" = dense<0.4> : tensor<128xf32>
  util.global private @"__iree_flow_bert/encoder/layer_21/ffn_layer_2/output/dense/bias" = dense<0.1> : tensor<128xf32>
  util.global private @"__iree_flow_bert/encoder/layer_21/ffn_layer_2/output/dense/kernel" {noinline} = dense<0.0001> : tensor<512x128xf32>
  util.global private @"__iree_flow_bert/encoder/layer_21/intermediate/dense/bias" = dense<0.1> : tensor<512xf32>
  util.global private @"__iree_flow_bert/encoder/layer_21/intermediate/dense/kernel" {noinline} = dense<0.0001> : tensor<128x512xf32>
  util.global private @"__iree_flow_bert/encoder/layer_21/output/FakeLayerNorm/beta" = dense<1.0> : tensor<128xf32>
  util.global private @"__iree_flow_bert/encoder/layer_21/output/FakeLayerNorm/gamma" = dense<0.4> : tensor<128xf32>
  util.global private @"__iree_flow_bert/encoder/layer_21/output/bottleneck/FakeLayerNorm/beta" = dense<1.0> : tensor<512xf32>
  util.global private @"__iree_flow_bert/encoder/layer_21/output/bottleneck/FakeLayerNorm/gamma" = dense<0.4> : tensor<512xf32>
  util.global private @"__iree_flow_bert/encoder/layer_21/output/bottleneck/dense/bias" = dense<0.1> : tensor<512xf32>
  util.global private @"__iree_flow_bert/encoder/layer_21/output/bottleneck/dense/kernel" {noinline} = dense<0.0001> : tensor<128x512xf32>
  util.global private @"__iree_flow_bert/encoder/layer_21/output/dense/bias" = dense<0.1> : tensor<128xf32>
  util.global private @"__iree_flow_bert/encoder/layer_21/output/dense/kernel" {noinline} = dense<0.0001> : tensor<512x128xf32>
  util.global private @"__iree_flow_bert/encoder/layer_22/attention/output/FakeLayerNorm/beta" = dense<1.0> : tensor<128xf32>
  util.global private @"__iree_flow_bert/encoder/layer_22/attention/output/FakeLayerNorm/gamma" = dense<0.4> : tensor<128xf32>
  util.global private @"__iree_flow_bert/encoder/layer_22/attention/output/dense/bias" = dense<0.1> : tensor<128xf32>
  util.global private @"__iree_flow_bert/encoder/layer_22/attention/output/dense/kernel" {noinline} = dense<0.0001> : tensor<128x128xf32>
  util.global private @"__iree_flow_bert/encoder/layer_22/attention/self/key/bias" = dense<0.1> : tensor<128xf32>
  util.global private @"__iree_flow_bert/encoder/layer_22/attention/self/key/kernel" {noinline} = dense<0.0001> : tensor<128x128xf32>
  util.global private @"__iree_flow_bert/encoder/layer_22/attention/self/query/bias" = dense<0.1> : tensor<128xf32>
  util.global private @"__iree_flow_bert/encoder/layer_22/attention/self/query/kernel" {noinline} = dense<0.0001> : tensor<128x128xf32>
  util.global private @"__iree_flow_bert/encoder/layer_22/attention/self/value/bias" = dense<0.1> : tensor<128xf32>
  util.global private @"__iree_flow_bert/encoder/layer_22/attention/self/value/kernel" {noinline} = dense<0.0001> : tensor<512x128xf32>
  util.global private @"__iree_flow_bert/encoder/layer_22/bottleneck/attention/FakeLayerNorm/beta" = dense<1.0> : tensor<128xf32>
  util.global private @"__iree_flow_bert/encoder/layer_22/bottleneck/attention/FakeLayerNorm/gamma" = dense<0.4> : tensor<128xf32>
  util.global private @"__iree_flow_bert/encoder/layer_22/bottleneck/attention/dense/bias" = dense<0.1> : tensor<128xf32>
  util.global private @"__iree_flow_bert/encoder/layer_22/bottleneck/attention/dense/kernel" {noinline} = dense<0.0001> : tensor<512x128xf32>
  util.global private @"__iree_flow_bert/encoder/layer_22/bottleneck/input/FakeLayerNorm/beta" = dense<1.0> : tensor<128xf32>
  util.global private @"__iree_flow_bert/encoder/layer_22/bottleneck/input/FakeLayerNorm/gamma" = dense<0.4> : tensor<128xf32>
  util.global private @"__iree_flow_bert/encoder/layer_22/bottleneck/input/dense/bias" = dense<0.1> : tensor<128xf32>
  util.global private @"__iree_flow_bert/encoder/layer_22/bottleneck/input/dense/kernel" {noinline} = dense<0.0001> : tensor<512x128xf32>
  util.global private @"__iree_flow_bert/encoder/layer_22/ffn_layer_0/intermediate/dense/bias" = dense<0.1> : tensor<512xf32>
  util.global private @"__iree_flow_bert/encoder/layer_22/ffn_layer_0/intermediate/dense/kernel" {noinline} = dense<0.0001> : tensor<128x512xf32>
  util.global private @"__iree_flow_bert/encoder/layer_22/ffn_layer_0/output/FakeLayerNorm/beta" = dense<1.0> : tensor<128xf32>
  util.global private @"__iree_flow_bert/encoder/layer_22/ffn_layer_0/output/FakeLayerNorm/gamma" = dense<0.4> : tensor<128xf32>
  util.global private @"__iree_flow_bert/encoder/layer_22/ffn_layer_0/output/dense/bias" = dense<0.1> : tensor<128xf32>
  util.global private @"__iree_flow_bert/encoder/layer_22/ffn_layer_0/output/dense/kernel" {noinline} = dense<0.0001> : tensor<512x128xf32>
  util.global private @"__iree_flow_bert/encoder/layer_22/ffn_layer_1/intermediate/dense/bias" = dense<0.1> : tensor<512xf32>
  util.global private @"__iree_flow_bert/encoder/layer_22/ffn_layer_1/intermediate/dense/kernel" {noinline} = dense<0.0001> : tensor<128x512xf32>
  util.global private @"__iree_flow_bert/encoder/layer_22/ffn_layer_1/output/FakeLayerNorm/beta" = dense<1.0> : tensor<128xf32>
  util.global private @"__iree_flow_bert/encoder/layer_22/ffn_layer_1/output/FakeLayerNorm/gamma" = dense<0.4> : tensor<128xf32>
  util.global private @"__iree_flow_bert/encoder/layer_22/ffn_layer_1/output/dense/bias" = dense<0.1> : tensor<128xf32>
  util.global private @"__iree_flow_bert/encoder/layer_22/ffn_layer_1/output/dense/kernel" {noinline} = dense<0.0001> : tensor<512x128xf32>
  util.global private @"__iree_flow_bert/encoder/layer_22/ffn_layer_2/intermediate/dense/bias" = dense<0.1> : tensor<512xf32>
  util.global private @"__iree_flow_bert/encoder/layer_22/ffn_layer_2/intermediate/dense/kernel" {noinline} = dense<0.0001> : tensor<128x512xf32>
  util.global private @"__iree_flow_bert/encoder/layer_22/ffn_layer_2/output/FakeLayerNorm/beta" = dense<1.0> : tensor<128xf32>
  util.global private @"__iree_flow_bert/encoder/layer_22/ffn_layer_2/output/FakeLayerNorm/gamma" = dense<0.4> : tensor<128xf32>
  util.global private @"__iree_flow_bert/encoder/layer_22/ffn_layer_2/output/dense/bias" = dense<0.1> : tensor<128xf32>
  util.global private @"__iree_flow_bert/encoder/layer_22/ffn_layer_2/output/dense/kernel" {noinline} = dense<0.0001> : tensor<512x128xf32>
  util.global private @"__iree_flow_bert/encoder/layer_22/intermediate/dense/bias" = dense<0.1> : tensor<512xf32>
  util.global private @"__iree_flow_bert/encoder/layer_22/intermediate/dense/kernel" {noinline} = dense<0.0001> : tensor<128x512xf32>
  util.global private @"__iree_flow_bert/encoder/layer_22/output/FakeLayerNorm/beta" = dense<1.0> : tensor<128xf32>
  util.global private @"__iree_flow_bert/encoder/layer_22/output/FakeLayerNorm/gamma" = dense<0.4> : tensor<128xf32>
  util.global private @"__iree_flow_bert/encoder/layer_22/output/bottleneck/FakeLayerNorm/beta" = dense<1.0> : tensor<512xf32>
  util.global private @"__iree_flow_bert/encoder/layer_22/output/bottleneck/FakeLayerNorm/gamma" = dense<0.4> : tensor<512xf32>
  util.global private @"__iree_flow_bert/encoder/layer_22/output/bottleneck/dense/bias" = dense<0.1> : tensor<512xf32>
  util.global private @"__iree_flow_bert/encoder/layer_22/output/bottleneck/dense/kernel" {noinline} = dense<0.0001> : tensor<128x512xf32>
  util.global private @"__iree_flow_bert/encoder/layer_22/output/dense/bias" = dense<0.1> : tensor<128xf32>
  util.global private @"__iree_flow_bert/encoder/layer_22/output/dense/kernel" {noinline} = dense<0.0001> : tensor<512x128xf32>
  util.global private @"__iree_flow_bert/encoder/layer_23/attention/output/FakeLayerNorm/beta" = dense<1.0> : tensor<128xf32>
  util.global private @"__iree_flow_bert/encoder/layer_23/attention/output/FakeLayerNorm/gamma" = dense<0.4> : tensor<128xf32>
  util.global private @"__iree_flow_bert/encoder/layer_23/attention/output/dense/bias" = dense<0.1> : tensor<128xf32>
  util.global private @"__iree_flow_bert/encoder/layer_23/attention/output/dense/kernel" {noinline} = dense<0.0001> : tensor<128x128xf32>
  util.global private @"__iree_flow_bert/encoder/layer_23/attention/self/key/bias" = dense<0.1> : tensor<128xf32>
  util.global private @"__iree_flow_bert/encoder/layer_23/attention/self/key/kernel" {noinline} = dense<0.0001> : tensor<128x128xf32>
  util.global private @"__iree_flow_bert/encoder/layer_23/attention/self/query/bias" = dense<0.1> : tensor<128xf32>
  util.global private @"__iree_flow_bert/encoder/layer_23/attention/self/query/kernel" {noinline} = dense<0.0001> : tensor<128x128xf32>
  util.global private @"__iree_flow_bert/encoder/layer_23/attention/self/value/bias" = dense<0.1> : tensor<128xf32>
  util.global private @"__iree_flow_bert/encoder/layer_23/attention/self/value/kernel" {noinline} = dense<0.0001> : tensor<512x128xf32>
  util.global private @"__iree_flow_bert/encoder/layer_23/bottleneck/attention/FakeLayerNorm/beta" = dense<1.0> : tensor<128xf32>
  util.global private @"__iree_flow_bert/encoder/layer_23/bottleneck/attention/FakeLayerNorm/gamma" = dense<0.4> : tensor<128xf32>
  util.global private @"__iree_flow_bert/encoder/layer_23/bottleneck/attention/dense/bias" = dense<0.1> : tensor<128xf32>
  util.global private @"__iree_flow_bert/encoder/layer_23/bottleneck/attention/dense/kernel" {noinline} = dense<0.0001> : tensor<512x128xf32>
  util.global private @"__iree_flow_bert/encoder/layer_23/bottleneck/input/FakeLayerNorm/beta" = dense<1.0> : tensor<128xf32>
  util.global private @"__iree_flow_bert/encoder/layer_23/bottleneck/input/FakeLayerNorm/gamma" = dense<0.4> : tensor<128xf32>
  util.global private @"__iree_flow_bert/encoder/layer_23/bottleneck/input/dense/bias" = dense<0.1> : tensor<128xf32>
  util.global private @"__iree_flow_bert/encoder/layer_23/bottleneck/input/dense/kernel" {noinline} = dense<0.0001> : tensor<512x128xf32>
  util.global private @"__iree_flow_bert/encoder/layer_23/ffn_layer_0/intermediate/dense/bias" = dense<0.1> : tensor<512xf32>
  util.global private @"__iree_flow_bert/encoder/layer_23/ffn_layer_0/intermediate/dense/kernel" {noinline} = dense<0.0001> : tensor<128x512xf32>
  util.global private @"__iree_flow_bert/encoder/layer_23/ffn_layer_0/output/FakeLayerNorm/beta" = dense<1.0> : tensor<128xf32>
  util.global private @"__iree_flow_bert/encoder/layer_23/ffn_layer_0/output/FakeLayerNorm/gamma" = dense<0.4> : tensor<128xf32>
  util.global private @"__iree_flow_bert/encoder/layer_23/ffn_layer_0/output/dense/bias" = dense<0.1> : tensor<128xf32>
  util.global private @"__iree_flow_bert/encoder/layer_23/ffn_layer_0/output/dense/kernel" {noinline} = dense<0.0001> : tensor<512x128xf32>
  util.global private @"__iree_flow_bert/encoder/layer_23/ffn_layer_1/intermediate/dense/bias" = dense<0.1> : tensor<512xf32>
  util.global private @"__iree_flow_bert/encoder/layer_23/ffn_layer_1/intermediate/dense/kernel" {noinline} = dense<0.0001> : tensor<128x512xf32>
  util.global private @"__iree_flow_bert/encoder/layer_23/ffn_layer_1/output/FakeLayerNorm/beta" = dense<1.0> : tensor<128xf32>
  util.global private @"__iree_flow_bert/encoder/layer_23/ffn_layer_1/output/FakeLayerNorm/gamma" = dense<0.4> : tensor<128xf32>
  util.global private @"__iree_flow_bert/encoder/layer_23/ffn_layer_1/output/dense/bias" = dense<0.1> : tensor<128xf32>
  util.global private @"__iree_flow_bert/encoder/layer_23/ffn_layer_1/output/dense/kernel" {noinline} = dense<0.0001> : tensor<512x128xf32>
  util.global private @"__iree_flow_bert/encoder/layer_23/ffn_layer_2/intermediate/dense/bias" = dense<0.1> : tensor<512xf32>
  util.global private @"__iree_flow_bert/encoder/layer_23/ffn_layer_2/intermediate/dense/kernel" {noinline} = dense<0.0001> : tensor<128x512xf32>
  util.global private @"__iree_flow_bert/encoder/layer_23/ffn_layer_2/output/FakeLayerNorm/beta" = dense<1.0> : tensor<128xf32>
  util.global private @"__iree_flow_bert/encoder/layer_23/ffn_layer_2/output/FakeLayerNorm/gamma" = dense<0.4> : tensor<128xf32>
  util.global private @"__iree_flow_bert/encoder/layer_23/ffn_layer_2/output/dense/bias" = dense<0.1> : tensor<128xf32>
  util.global private @"__iree_flow_bert/encoder/layer_23/ffn_layer_2/output/dense/kernel" {noinline} = dense<0.0001> : tensor<512x128xf32>
  util.global private @"__iree_flow_bert/encoder/layer_23/intermediate/dense/bias" = dense<0.1> : tensor<512xf32>
  util.global private @"__iree_flow_bert/encoder/layer_23/intermediate/dense/kernel" {noinline} = dense<0.0001> : tensor<128x512xf32>
  util.global private @"__iree_flow_bert/encoder/layer_23/output/FakeLayerNorm/beta" = dense<1.0> : tensor<128xf32>
  util.global private @"__iree_flow_bert/encoder/layer_23/output/FakeLayerNorm/gamma" = dense<0.4> : tensor<128xf32>
  util.global private @"__iree_flow_bert/encoder/layer_23/output/bottleneck/FakeLayerNorm/beta" = dense<1.0> : tensor<512xf32>
  util.global private @"__iree_flow_bert/encoder/layer_23/output/bottleneck/FakeLayerNorm/gamma" = dense<0.4> : tensor<512xf32>
  util.global private @"__iree_flow_bert/encoder/layer_23/output/bottleneck/dense/bias" = dense<0.1> : tensor<512xf32>
  util.global private @"__iree_flow_bert/encoder/layer_23/output/bottleneck/dense/kernel" {noinline} = dense<0.0001> : tensor<128x512xf32>
  util.global private @"__iree_flow_bert/encoder/layer_23/output/dense/bias" = dense<0.1> : tensor<128xf32>
  util.global private @"__iree_flow_bert/encoder/layer_23/output/dense/kernel" {noinline} = dense<0.0001> : tensor<512x128xf32>
  util.global private @"__iree_flow_bert/encoder/layer_3/attention/output/FakeLayerNorm/beta" = dense<1.0> : tensor<128xf32>
  util.global private @"__iree_flow_bert/encoder/layer_3/attention/output/FakeLayerNorm/gamma" = dense<0.4> : tensor<128xf32>
  util.global private @"__iree_flow_bert/encoder/layer_3/attention/output/dense/bias" = dense<0.1> : tensor<128xf32>
  util.global private @"__iree_flow_bert/encoder/layer_3/attention/output/dense/kernel" {noinline} = dense<0.0001> : tensor<128x128xf32>
  util.global private @"__iree_flow_bert/encoder/layer_3/attention/self/key/bias" = dense<0.1> : tensor<128xf32>
  util.global private @"__iree_flow_bert/encoder/layer_3/attention/self/key/kernel" {noinline} = dense<0.0001> : tensor<128x128xf32>
  util.global private @"__iree_flow_bert/encoder/layer_3/attention/self/query/bias" = dense<0.1> : tensor<128xf32>
  util.global private @"__iree_flow_bert/encoder/layer_3/attention/self/query/kernel" {noinline} = dense<0.0001> : tensor<128x128xf32>
  util.global private @"__iree_flow_bert/encoder/layer_3/attention/self/value/bias" = dense<0.1> : tensor<128xf32>
  util.global private @"__iree_flow_bert/encoder/layer_3/attention/self/value/kernel" {noinline} = dense<0.0001> : tensor<512x128xf32>
  util.global private @"__iree_flow_bert/encoder/layer_3/bottleneck/attention/FakeLayerNorm/beta" = dense<1.0> : tensor<128xf32>
  util.global private @"__iree_flow_bert/encoder/layer_3/bottleneck/attention/FakeLayerNorm/gamma" = dense<0.4> : tensor<128xf32>
  util.global private @"__iree_flow_bert/encoder/layer_3/bottleneck/attention/dense/bias" = dense<0.1> : tensor<128xf32>
  util.global private @"__iree_flow_bert/encoder/layer_3/bottleneck/attention/dense/kernel" {noinline} = dense<0.0001> : tensor<512x128xf32>
  util.global private @"__iree_flow_bert/encoder/layer_3/bottleneck/input/FakeLayerNorm/beta" = dense<1.0> : tensor<128xf32>
  util.global private @"__iree_flow_bert/encoder/layer_3/bottleneck/input/FakeLayerNorm/gamma" = dense<0.4> : tensor<128xf32>
  util.global private @"__iree_flow_bert/encoder/layer_3/bottleneck/input/dense/bias" = dense<0.1> : tensor<128xf32>
  util.global private @"__iree_flow_bert/encoder/layer_3/bottleneck/input/dense/kernel" {noinline} = dense<0.0001> : tensor<512x128xf32>
  util.global private @"__iree_flow_bert/encoder/layer_3/ffn_layer_0/intermediate/dense/bias" = dense<0.1> : tensor<512xf32>
  util.global private @"__iree_flow_bert/encoder/layer_3/ffn_layer_0/intermediate/dense/kernel" {noinline} = dense<0.0001> : tensor<128x512xf32>
  util.global private @"__iree_flow_bert/encoder/layer_3/ffn_layer_0/output/FakeLayerNorm/beta" = dense<1.0> : tensor<128xf32>
  util.global private @"__iree_flow_bert/encoder/layer_3/ffn_layer_0/output/FakeLayerNorm/gamma" = dense<0.4> : tensor<128xf32>
  util.global private @"__iree_flow_bert/encoder/layer_3/ffn_layer_0/output/dense/bias" = dense<0.1> : tensor<128xf32>
  util.global private @"__iree_flow_bert/encoder/layer_3/ffn_layer_0/output/dense/kernel" {noinline} = dense<0.0001> : tensor<512x128xf32>
  util.global private @"__iree_flow_bert/encoder/layer_3/ffn_layer_1/intermediate/dense/bias" = dense<0.1> : tensor<512xf32>
  util.global private @"__iree_flow_bert/encoder/layer_3/ffn_layer_1/intermediate/dense/kernel" {noinline} = dense<0.0001> : tensor<128x512xf32>
  util.global private @"__iree_flow_bert/encoder/layer_3/ffn_layer_1/output/FakeLayerNorm/beta" = dense<1.0> : tensor<128xf32>
  util.global private @"__iree_flow_bert/encoder/layer_3/ffn_layer_1/output/FakeLayerNorm/gamma" = dense<0.4> : tensor<128xf32>
  util.global private @"__iree_flow_bert/encoder/layer_3/ffn_layer_1/output/dense/bias" = dense<0.1> : tensor<128xf32>
  util.global private @"__iree_flow_bert/encoder/layer_3/ffn_layer_1/output/dense/kernel" {noinline} = dense<0.0001> : tensor<512x128xf32>
  util.global private @"__iree_flow_bert/encoder/layer_3/ffn_layer_2/intermediate/dense/bias" = dense<0.1> : tensor<512xf32>
  util.global private @"__iree_flow_bert/encoder/layer_3/ffn_layer_2/intermediate/dense/kernel" {noinline} = dense<0.0001> : tensor<128x512xf32>
  util.global private @"__iree_flow_bert/encoder/layer_3/ffn_layer_2/output/FakeLayerNorm/beta" = dense<1.0> : tensor<128xf32>
  util.global private @"__iree_flow_bert/encoder/layer_3/ffn_layer_2/output/FakeLayerNorm/gamma" = dense<0.4> : tensor<128xf32>
  util.global private @"__iree_flow_bert/encoder/layer_3/ffn_layer_2/output/dense/bias" = dense<0.1> : tensor<128xf32>
  util.global private @"__iree_flow_bert/encoder/layer_3/ffn_layer_2/output/dense/kernel" {noinline} = dense<0.0001> : tensor<512x128xf32>
  util.global private @"__iree_flow_bert/encoder/layer_3/intermediate/dense/bias" = dense<0.1> : tensor<512xf32>
  util.global private @"__iree_flow_bert/encoder/layer_3/intermediate/dense/kernel" {noinline} = dense<0.0001> : tensor<128x512xf32>
  util.global private @"__iree_flow_bert/encoder/layer_3/output/FakeLayerNorm/beta" = dense<1.0> : tensor<128xf32>
  util.global private @"__iree_flow_bert/encoder/layer_3/output/FakeLayerNorm/gamma" = dense<0.4> : tensor<128xf32>
  util.global private @"__iree_flow_bert/encoder/layer_3/output/bottleneck/FakeLayerNorm/beta" = dense<1.0> : tensor<512xf32>
  util.global private @"__iree_flow_bert/encoder/layer_3/output/bottleneck/FakeLayerNorm/gamma" = dense<0.4> : tensor<512xf32>
  util.global private @"__iree_flow_bert/encoder/layer_3/output/bottleneck/dense/bias" = dense<0.1> : tensor<512xf32>
  util.global private @"__iree_flow_bert/encoder/layer_3/output/bottleneck/dense/kernel" {noinline} = dense<0.0001> : tensor<128x512xf32>
  util.global private @"__iree_flow_bert/encoder/layer_3/output/dense/bias" = dense<0.1> : tensor<128xf32>
  util.global private @"__iree_flow_bert/encoder/layer_3/output/dense/kernel" {noinline} = dense<0.0001> : tensor<512x128xf32>
  util.global private @"__iree_flow_bert/encoder/layer_4/attention/output/FakeLayerNorm/beta" = dense<1.0> : tensor<128xf32>
  util.global private @"__iree_flow_bert/encoder/layer_4/attention/output/FakeLayerNorm/gamma" = dense<0.4> : tensor<128xf32>
  util.global private @"__iree_flow_bert/encoder/layer_4/attention/output/dense/bias" = dense<0.1> : tensor<128xf32>
  util.global private @"__iree_flow_bert/encoder/layer_4/attention/output/dense/kernel" {noinline} = dense<0.0001> : tensor<128x128xf32>
  util.global private @"__iree_flow_bert/encoder/layer_4/attention/self/key/bias" = dense<0.1> : tensor<128xf32>
  util.global private @"__iree_flow_bert/encoder/layer_4/attention/self/key/kernel" {noinline} = dense<0.0001> : tensor<128x128xf32>
  util.global private @"__iree_flow_bert/encoder/layer_4/attention/self/query/bias" = dense<0.1> : tensor<128xf32>
  util.global private @"__iree_flow_bert/encoder/layer_4/attention/self/query/kernel" {noinline} = dense<0.0001> : tensor<128x128xf32>
  util.global private @"__iree_flow_bert/encoder/layer_4/attention/self/value/bias" = dense<0.1> : tensor<128xf32>
  util.global private @"__iree_flow_bert/encoder/layer_4/attention/self/value/kernel" {noinline} = dense<0.0001> : tensor<512x128xf32>
  util.global private @"__iree_flow_bert/encoder/layer_4/bottleneck/attention/FakeLayerNorm/beta" = dense<1.0> : tensor<128xf32>
  util.global private @"__iree_flow_bert/encoder/layer_4/bottleneck/attention/FakeLayerNorm/gamma" = dense<0.4> : tensor<128xf32>
  util.global private @"__iree_flow_bert/encoder/layer_4/bottleneck/attention/dense/bias" = dense<0.1> : tensor<128xf32>
  util.global private @"__iree_flow_bert/encoder/layer_4/bottleneck/attention/dense/kernel" {noinline} = dense<0.0001> : tensor<512x128xf32>
  util.global private @"__iree_flow_bert/encoder/layer_4/bottleneck/input/FakeLayerNorm/beta" = dense<1.0> : tensor<128xf32>
  util.global private @"__iree_flow_bert/encoder/layer_4/bottleneck/input/FakeLayerNorm/gamma" = dense<0.4> : tensor<128xf32>
  util.global private @"__iree_flow_bert/encoder/layer_4/bottleneck/input/dense/bias" = dense<0.1> : tensor<128xf32>
  util.global private @"__iree_flow_bert/encoder/layer_4/bottleneck/input/dense/kernel" {noinline} = dense<0.0001> : tensor<512x128xf32>
  util.global private @"__iree_flow_bert/encoder/layer_4/ffn_layer_0/intermediate/dense/bias" = dense<0.1> : tensor<512xf32>
  util.global private @"__iree_flow_bert/encoder/layer_4/ffn_layer_0/intermediate/dense/kernel" {noinline} = dense<0.0001> : tensor<128x512xf32>
  util.global private @"__iree_flow_bert/encoder/layer_4/ffn_layer_0/output/FakeLayerNorm/beta" = dense<1.0> : tensor<128xf32>
  util.global private @"__iree_flow_bert/encoder/layer_4/ffn_layer_0/output/FakeLayerNorm/gamma" = dense<0.4> : tensor<128xf32>
  util.global private @"__iree_flow_bert/encoder/layer_4/ffn_layer_0/output/dense/bias" = dense<0.1> : tensor<128xf32>
  util.global private @"__iree_flow_bert/encoder/layer_4/ffn_layer_0/output/dense/kernel" {noinline} = dense<0.0001> : tensor<512x128xf32>
  util.global private @"__iree_flow_bert/encoder/layer_4/ffn_layer_1/intermediate/dense/bias" = dense<0.1> : tensor<512xf32>
  util.global private @"__iree_flow_bert/encoder/layer_4/ffn_layer_1/intermediate/dense/kernel" {noinline} = dense<0.0001> : tensor<128x512xf32>
  util.global private @"__iree_flow_bert/encoder/layer_4/ffn_layer_1/output/FakeLayerNorm/beta" = dense<1.0> : tensor<128xf32>
  util.global private @"__iree_flow_bert/encoder/layer_4/ffn_layer_1/output/FakeLayerNorm/gamma" = dense<0.4> : tensor<128xf32>
  util.global private @"__iree_flow_bert/encoder/layer_4/ffn_layer_1/output/dense/bias" = dense<0.1> : tensor<128xf32>
  util.global private @"__iree_flow_bert/encoder/layer_4/ffn_layer_1/output/dense/kernel" {noinline} = dense<0.0001> : tensor<512x128xf32>
  util.global private @"__iree_flow_bert/encoder/layer_4/ffn_layer_2/intermediate/dense/bias" = dense<0.1> : tensor<512xf32>
  util.global private @"__iree_flow_bert/encoder/layer_4/ffn_layer_2/intermediate/dense/kernel" {noinline} = dense<0.0001> : tensor<128x512xf32>
  util.global private @"__iree_flow_bert/encoder/layer_4/ffn_layer_2/output/FakeLayerNorm/beta" = dense<1.0> : tensor<128xf32>
  util.global private @"__iree_flow_bert/encoder/layer_4/ffn_layer_2/output/FakeLayerNorm/gamma" = dense<0.4> : tensor<128xf32>
  util.global private @"__iree_flow_bert/encoder/layer_4/ffn_layer_2/output/dense/bias" = dense<0.1> : tensor<128xf32>
  util.global private @"__iree_flow_bert/encoder/layer_4/ffn_layer_2/output/dense/kernel" {noinline} = dense<0.0001> : tensor<512x128xf32>
  util.global private @"__iree_flow_bert/encoder/layer_4/intermediate/dense/bias" = dense<0.1> : tensor<512xf32>
  util.global private @"__iree_flow_bert/encoder/layer_4/intermediate/dense/kernel" {noinline} = dense<0.0001> : tensor<128x512xf32>
  util.global private @"__iree_flow_bert/encoder/layer_4/output/FakeLayerNorm/beta" = dense<1.0> : tensor<128xf32>
  util.global private @"__iree_flow_bert/encoder/layer_4/output/FakeLayerNorm/gamma" = dense<0.4> : tensor<128xf32>
  util.global private @"__iree_flow_bert/encoder/layer_4/output/bottleneck/FakeLayerNorm/beta" = dense<1.0> : tensor<512xf32>
  util.global private @"__iree_flow_bert/encoder/layer_4/output/bottleneck/FakeLayerNorm/gamma" = dense<0.4> : tensor<512xf32>
  util.global private @"__iree_flow_bert/encoder/layer_4/output/bottleneck/dense/bias" = dense<0.1> : tensor<512xf32>
  util.global private @"__iree_flow_bert/encoder/layer_4/output/bottleneck/dense/kernel" {noinline} = dense<0.0001> : tensor<128x512xf32>
  util.global private @"__iree_flow_bert/encoder/layer_4/output/dense/bias" = dense<0.1> : tensor<128xf32>
  util.global private @"__iree_flow_bert/encoder/layer_4/output/dense/kernel" {noinline} = dense<0.0001> : tensor<512x128xf32>
  util.global private @"__iree_flow_bert/encoder/layer_5/attention/output/FakeLayerNorm/beta" = dense<1.0> : tensor<128xf32>
  util.global private @"__iree_flow_bert/encoder/layer_5/attention/output/FakeLayerNorm/gamma" = dense<0.4> : tensor<128xf32>
  util.global private @"__iree_flow_bert/encoder/layer_5/attention/output/dense/bias" = dense<0.1> : tensor<128xf32>
  util.global private @"__iree_flow_bert/encoder/layer_5/attention/output/dense/kernel" {noinline} = dense<0.0001> : tensor<128x128xf32>
  util.global private @"__iree_flow_bert/encoder/layer_5/attention/self/key/bias" = dense<0.1> : tensor<128xf32>
  util.global private @"__iree_flow_bert/encoder/layer_5/attention/self/key/kernel" {noinline} = dense<0.0001> : tensor<128x128xf32>
  util.global private @"__iree_flow_bert/encoder/layer_5/attention/self/query/bias" = dense<0.1> : tensor<128xf32>
  util.global private @"__iree_flow_bert/encoder/layer_5/attention/self/query/kernel" {noinline} = dense<0.0001> : tensor<128x128xf32>
  util.global private @"__iree_flow_bert/encoder/layer_5/attention/self/value/bias" = dense<0.1> : tensor<128xf32>
  util.global private @"__iree_flow_bert/encoder/layer_5/attention/self/value/kernel" {noinline} = dense<0.0001> : tensor<512x128xf32>
  util.global private @"__iree_flow_bert/encoder/layer_5/bottleneck/attention/FakeLayerNorm/beta" = dense<1.0> : tensor<128xf32>
  util.global private @"__iree_flow_bert/encoder/layer_5/bottleneck/attention/FakeLayerNorm/gamma" = dense<0.4> : tensor<128xf32>
  util.global private @"__iree_flow_bert/encoder/layer_5/bottleneck/attention/dense/bias" = dense<0.1> : tensor<128xf32>
  util.global private @"__iree_flow_bert/encoder/layer_5/bottleneck/attention/dense/kernel" {noinline} = dense<0.0001> : tensor<512x128xf32>
  util.global private @"__iree_flow_bert/encoder/layer_5/bottleneck/input/FakeLayerNorm/beta" = dense<1.0> : tensor<128xf32>
  util.global private @"__iree_flow_bert/encoder/layer_5/bottleneck/input/FakeLayerNorm/gamma" = dense<0.4> : tensor<128xf32>
  util.global private @"__iree_flow_bert/encoder/layer_5/bottleneck/input/dense/bias" = dense<0.1> : tensor<128xf32>
  util.global private @"__iree_flow_bert/encoder/layer_5/bottleneck/input/dense/kernel" {noinline} = dense<0.0001> : tensor<512x128xf32>
  util.global private @"__iree_flow_bert/encoder/layer_5/ffn_layer_0/intermediate/dense/bias" = dense<0.1> : tensor<512xf32>
  util.global private @"__iree_flow_bert/encoder/layer_5/ffn_layer_0/intermediate/dense/kernel" {noinline} = dense<0.0001> : tensor<128x512xf32>
  util.global private @"__iree_flow_bert/encoder/layer_5/ffn_layer_0/output/FakeLayerNorm/beta" = dense<1.0> : tensor<128xf32>
  util.global private @"__iree_flow_bert/encoder/layer_5/ffn_layer_0/output/FakeLayerNorm/gamma" = dense<0.4> : tensor<128xf32>
  util.global private @"__iree_flow_bert/encoder/layer_5/ffn_layer_0/output/dense/bias" = dense<0.1> : tensor<128xf32>
  util.global private @"__iree_flow_bert/encoder/layer_5/ffn_layer_0/output/dense/kernel" {noinline} = dense<0.0001> : tensor<512x128xf32>
  util.global private @"__iree_flow_bert/encoder/layer_5/ffn_layer_1/intermediate/dense/bias" = dense<0.1> : tensor<512xf32>
  util.global private @"__iree_flow_bert/encoder/layer_5/ffn_layer_1/intermediate/dense/kernel" {noinline} = dense<0.0001> : tensor<128x512xf32>
  util.global private @"__iree_flow_bert/encoder/layer_5/ffn_layer_1/output/FakeLayerNorm/beta" = dense<1.0> : tensor<128xf32>
  util.global private @"__iree_flow_bert/encoder/layer_5/ffn_layer_1/output/FakeLayerNorm/gamma" = dense<0.4> : tensor<128xf32>
  util.global private @"__iree_flow_bert/encoder/layer_5/ffn_layer_1/output/dense/bias" = dense<0.1> : tensor<128xf32>
  util.global private @"__iree_flow_bert/encoder/layer_5/ffn_layer_1/output/dense/kernel" {noinline} = dense<0.0001> : tensor<512x128xf32>
  util.global private @"__iree_flow_bert/encoder/layer_5/ffn_layer_2/intermediate/dense/bias" = dense<0.1> : tensor<512xf32>
  util.global private @"__iree_flow_bert/encoder/layer_5/ffn_layer_2/intermediate/dense/kernel" {noinline} = dense<0.0001> : tensor<128x512xf32>
  util.global private @"__iree_flow_bert/encoder/layer_5/ffn_layer_2/output/FakeLayerNorm/beta" = dense<1.0> : tensor<128xf32>
  util.global private @"__iree_flow_bert/encoder/layer_5/ffn_layer_2/output/FakeLayerNorm/gamma" = dense<0.4> : tensor<128xf32>
  util.global private @"__iree_flow_bert/encoder/layer_5/ffn_layer_2/output/dense/bias" = dense<0.1> : tensor<128xf32>
  util.global private @"__iree_flow_bert/encoder/layer_5/ffn_layer_2/output/dense/kernel" {noinline} = dense<0.0001> : tensor<512x128xf32>
  util.global private @"__iree_flow_bert/encoder/layer_5/intermediate/dense/bias" = dense<0.1> : tensor<512xf32>
  util.global private @"__iree_flow_bert/encoder/layer_5/intermediate/dense/kernel" {noinline} = dense<0.0001> : tensor<128x512xf32>
  util.global private @"__iree_flow_bert/encoder/layer_5/output/FakeLayerNorm/beta" = dense<1.0> : tensor<128xf32>
  util.global private @"__iree_flow_bert/encoder/layer_5/output/FakeLayerNorm/gamma" = dense<0.4> : tensor<128xf32>
  util.global private @"__iree_flow_bert/encoder/layer_5/output/bottleneck/FakeLayerNorm/beta" = dense<1.0> : tensor<512xf32>
  util.global private @"__iree_flow_bert/encoder/layer_5/output/bottleneck/FakeLayerNorm/gamma" = dense<0.4> : tensor<512xf32>
  util.global private @"__iree_flow_bert/encoder/layer_5/output/bottleneck/dense/bias" = dense<0.1> : tensor<512xf32>
  util.global private @"__iree_flow_bert/encoder/layer_5/output/bottleneck/dense/kernel" {noinline} = dense<0.0001> : tensor<128x512xf32>
  util.global private @"__iree_flow_bert/encoder/layer_5/output/dense/bias" = dense<0.1> : tensor<128xf32>
  util.global private @"__iree_flow_bert/encoder/layer_5/output/dense/kernel" {noinline} = dense<0.0001> : tensor<512x128xf32>
  util.global private @"__iree_flow_bert/encoder/layer_6/attention/output/FakeLayerNorm/beta" = dense<1.0> : tensor<128xf32>
  util.global private @"__iree_flow_bert/encoder/layer_6/attention/output/FakeLayerNorm/gamma" = dense<0.4> : tensor<128xf32>
  util.global private @"__iree_flow_bert/encoder/layer_6/attention/output/dense/bias" = dense<0.1> : tensor<128xf32>
  util.global private @"__iree_flow_bert/encoder/layer_6/attention/output/dense/kernel" {noinline} = dense<0.0001> : tensor<128x128xf32>
  util.global private @"__iree_flow_bert/encoder/layer_6/attention/self/key/bias" = dense<0.1> : tensor<128xf32>
  util.global private @"__iree_flow_bert/encoder/layer_6/attention/self/key/kernel" {noinline} = dense<0.0001> : tensor<128x128xf32>
  util.global private @"__iree_flow_bert/encoder/layer_6/attention/self/query/bias" = dense<0.1> : tensor<128xf32>
  util.global private @"__iree_flow_bert/encoder/layer_6/attention/self/query/kernel" {noinline} = dense<0.0001> : tensor<128x128xf32>
  util.global private @"__iree_flow_bert/encoder/layer_6/attention/self/value/bias" = dense<0.1> : tensor<128xf32>
  util.global private @"__iree_flow_bert/encoder/layer_6/attention/self/value/kernel" {noinline} = dense<0.0001> : tensor<512x128xf32>
  util.global private @"__iree_flow_bert/encoder/layer_6/bottleneck/attention/FakeLayerNorm/beta" = dense<1.0> : tensor<128xf32>
  util.global private @"__iree_flow_bert/encoder/layer_6/bottleneck/attention/FakeLayerNorm/gamma" = dense<0.4> : tensor<128xf32>
  util.global private @"__iree_flow_bert/encoder/layer_6/bottleneck/attention/dense/bias" = dense<0.1> : tensor<128xf32>
  util.global private @"__iree_flow_bert/encoder/layer_6/bottleneck/attention/dense/kernel" {noinline} = dense<0.0001> : tensor<512x128xf32>
  util.global private @"__iree_flow_bert/encoder/layer_6/bottleneck/input/FakeLayerNorm/beta" = dense<1.0> : tensor<128xf32>
  util.global private @"__iree_flow_bert/encoder/layer_6/bottleneck/input/FakeLayerNorm/gamma" = dense<0.4> : tensor<128xf32>
  util.global private @"__iree_flow_bert/encoder/layer_6/bottleneck/input/dense/bias" = dense<0.1> : tensor<128xf32>
  util.global private @"__iree_flow_bert/encoder/layer_6/bottleneck/input/dense/kernel" {noinline} = dense<0.0001> : tensor<512x128xf32>
  util.global private @"__iree_flow_bert/encoder/layer_6/ffn_layer_0/intermediate/dense/bias" = dense<0.1> : tensor<512xf32>
  util.global private @"__iree_flow_bert/encoder/layer_6/ffn_layer_0/intermediate/dense/kernel" {noinline} = dense<0.0001> : tensor<128x512xf32>
  util.global private @"__iree_flow_bert/encoder/layer_6/ffn_layer_0/output/FakeLayerNorm/beta" = dense<1.0> : tensor<128xf32>
  util.global private @"__iree_flow_bert/encoder/layer_6/ffn_layer_0/output/FakeLayerNorm/gamma" = dense<0.4> : tensor<128xf32>
  util.global private @"__iree_flow_bert/encoder/layer_6/ffn_layer_0/output/dense/bias" = dense<0.1> : tensor<128xf32>
  util.global private @"__iree_flow_bert/encoder/layer_6/ffn_layer_0/output/dense/kernel" {noinline} = dense<0.0001> : tensor<512x128xf32>
  util.global private @"__iree_flow_bert/encoder/layer_6/ffn_layer_1/intermediate/dense/bias" = dense<0.1> : tensor<512xf32>
  util.global private @"__iree_flow_bert/encoder/layer_6/ffn_layer_1/intermediate/dense/kernel" {noinline} = dense<0.0001> : tensor<128x512xf32>
  util.global private @"__iree_flow_bert/encoder/layer_6/ffn_layer_1/output/FakeLayerNorm/beta" = dense<1.0> : tensor<128xf32>
  util.global private @"__iree_flow_bert/encoder/layer_6/ffn_layer_1/output/FakeLayerNorm/gamma" = dense<0.4> : tensor<128xf32>
  util.global private @"__iree_flow_bert/encoder/layer_6/ffn_layer_1/output/dense/bias" = dense<0.1> : tensor<128xf32>
  util.global private @"__iree_flow_bert/encoder/layer_6/ffn_layer_1/output/dense/kernel" {noinline} = dense<0.0001> : tensor<512x128xf32>
  util.global private @"__iree_flow_bert/encoder/layer_6/ffn_layer_2/intermediate/dense/bias" = dense<0.1> : tensor<512xf32>
  util.global private @"__iree_flow_bert/encoder/layer_6/ffn_layer_2/intermediate/dense/kernel" {noinline} = dense<0.0001> : tensor<128x512xf32>
  util.global private @"__iree_flow_bert/encoder/layer_6/ffn_layer_2/output/FakeLayerNorm/beta" = dense<1.0> : tensor<128xf32>
  util.global private @"__iree_flow_bert/encoder/layer_6/ffn_layer_2/output/FakeLayerNorm/gamma" = dense<0.4> : tensor<128xf32>
  util.global private @"__iree_flow_bert/encoder/layer_6/ffn_layer_2/output/dense/bias" = dense<0.1> : tensor<128xf32>
  util.global private @"__iree_flow_bert/encoder/layer_6/ffn_layer_2/output/dense/kernel" {noinline} = dense<0.0001> : tensor<512x128xf32>
  util.global private @"__iree_flow_bert/encoder/layer_6/intermediate/dense/bias" = dense<0.1> : tensor<512xf32>
  util.global private @"__iree_flow_bert/encoder/layer_6/intermediate/dense/kernel" {noinline} = dense<0.0001> : tensor<128x512xf32>
  util.global private @"__iree_flow_bert/encoder/layer_6/output/FakeLayerNorm/beta" = dense<1.0> : tensor<128xf32>
  util.global private @"__iree_flow_bert/encoder/layer_6/output/FakeLayerNorm/gamma" = dense<0.4> : tensor<128xf32>
  util.global private @"__iree_flow_bert/encoder/layer_6/output/bottleneck/FakeLayerNorm/beta" = dense<1.0> : tensor<512xf32>
  util.global private @"__iree_flow_bert/encoder/layer_6/output/bottleneck/FakeLayerNorm/gamma" = dense<0.4> : tensor<512xf32>
  util.global private @"__iree_flow_bert/encoder/layer_6/output/bottleneck/dense/bias" = dense<0.1> : tensor<512xf32>
  util.global private @"__iree_flow_bert/encoder/layer_6/output/bottleneck/dense/kernel" {noinline} = dense<0.0001> : tensor<128x512xf32>
  util.global private @"__iree_flow_bert/encoder/layer_6/output/dense/bias" = dense<0.1> : tensor<128xf32>
  util.global private @"__iree_flow_bert/encoder/layer_6/output/dense/kernel" {noinline} = dense<0.0001> : tensor<512x128xf32>
  util.global private @"__iree_flow_bert/encoder/layer_7/attention/output/FakeLayerNorm/beta" = dense<1.0> : tensor<128xf32>
  util.global private @"__iree_flow_bert/encoder/layer_7/attention/output/FakeLayerNorm/gamma" = dense<0.4> : tensor<128xf32>
  util.global private @"__iree_flow_bert/encoder/layer_7/attention/output/dense/bias" = dense<0.1> : tensor<128xf32>
  util.global private @"__iree_flow_bert/encoder/layer_7/attention/output/dense/kernel" {noinline} = dense<0.0001> : tensor<128x128xf32>
  util.global private @"__iree_flow_bert/encoder/layer_7/attention/self/key/bias" = dense<0.1> : tensor<128xf32>
  util.global private @"__iree_flow_bert/encoder/layer_7/attention/self/key/kernel" {noinline} = dense<0.0001> : tensor<128x128xf32>
  util.global private @"__iree_flow_bert/encoder/layer_7/attention/self/query/bias" = dense<0.1> : tensor<128xf32>
  util.global private @"__iree_flow_bert/encoder/layer_7/attention/self/query/kernel" {noinline} = dense<0.0001> : tensor<128x128xf32>
  util.global private @"__iree_flow_bert/encoder/layer_7/attention/self/value/bias" = dense<0.1> : tensor<128xf32>
  util.global private @"__iree_flow_bert/encoder/layer_7/attention/self/value/kernel" {noinline} = dense<0.0001> : tensor<512x128xf32>
  util.global private @"__iree_flow_bert/encoder/layer_7/bottleneck/attention/FakeLayerNorm/beta" = dense<1.0> : tensor<128xf32>
  util.global private @"__iree_flow_bert/encoder/layer_7/bottleneck/attention/FakeLayerNorm/gamma" = dense<0.4> : tensor<128xf32>
  util.global private @"__iree_flow_bert/encoder/layer_7/bottleneck/attention/dense/bias" = dense<0.1> : tensor<128xf32>
  util.global private @"__iree_flow_bert/encoder/layer_7/bottleneck/attention/dense/kernel" {noinline} = dense<0.0001> : tensor<512x128xf32>
  util.global private @"__iree_flow_bert/encoder/layer_7/bottleneck/input/FakeLayerNorm/beta" = dense<1.0> : tensor<128xf32>
  util.global private @"__iree_flow_bert/encoder/layer_7/bottleneck/input/FakeLayerNorm/gamma" = dense<0.4> : tensor<128xf32>
  util.global private @"__iree_flow_bert/encoder/layer_7/bottleneck/input/dense/bias" = dense<0.1> : tensor<128xf32>
  util.global private @"__iree_flow_bert/encoder/layer_7/bottleneck/input/dense/kernel" {noinline} = dense<0.0001> : tensor<512x128xf32>
  util.global private @"__iree_flow_bert/encoder/layer_7/ffn_layer_0/intermediate/dense/bias" = dense<0.1> : tensor<512xf32>
  util.global private @"__iree_flow_bert/encoder/layer_7/ffn_layer_0/intermediate/dense/kernel" {noinline} = dense<0.0001> : tensor<128x512xf32>
  util.global private @"__iree_flow_bert/encoder/layer_7/ffn_layer_0/output/FakeLayerNorm/beta" = dense<1.0> : tensor<128xf32>
  util.global private @"__iree_flow_bert/encoder/layer_7/ffn_layer_0/output/FakeLayerNorm/gamma" = dense<0.4> : tensor<128xf32>
  util.global private @"__iree_flow_bert/encoder/layer_7/ffn_layer_0/output/dense/bias" = dense<0.1> : tensor<128xf32>
  util.global private @"__iree_flow_bert/encoder/layer_7/ffn_layer_0/output/dense/kernel" {noinline} = dense<0.0001> : tensor<512x128xf32>
  util.global private @"__iree_flow_bert/encoder/layer_7/ffn_layer_1/intermediate/dense/bias" = dense<0.1> : tensor<512xf32>
  util.global private @"__iree_flow_bert/encoder/layer_7/ffn_layer_1/intermediate/dense/kernel" {noinline} = dense<0.0001> : tensor<128x512xf32>
  util.global private @"__iree_flow_bert/encoder/layer_7/ffn_layer_1/output/FakeLayerNorm/beta" = dense<1.0> : tensor<128xf32>
  util.global private @"__iree_flow_bert/encoder/layer_7/ffn_layer_1/output/FakeLayerNorm/gamma" = dense<0.4> : tensor<128xf32>
  util.global private @"__iree_flow_bert/encoder/layer_7/ffn_layer_1/output/dense/bias" = dense<0.1> : tensor<128xf32>
  util.global private @"__iree_flow_bert/encoder/layer_7/ffn_layer_1/output/dense/kernel" {noinline} = dense<0.0001> : tensor<512x128xf32>
  util.global private @"__iree_flow_bert/encoder/layer_7/ffn_layer_2/intermediate/dense/bias" = dense<0.1> : tensor<512xf32>
  util.global private @"__iree_flow_bert/encoder/layer_7/ffn_layer_2/intermediate/dense/kernel" {noinline} = dense<0.0001> : tensor<128x512xf32>
  util.global private @"__iree_flow_bert/encoder/layer_7/ffn_layer_2/output/FakeLayerNorm/beta" = dense<1.0> : tensor<128xf32>
  util.global private @"__iree_flow_bert/encoder/layer_7/ffn_layer_2/output/FakeLayerNorm/gamma" = dense<0.4> : tensor<128xf32>
  util.global private @"__iree_flow_bert/encoder/layer_7/ffn_layer_2/output/dense/bias" = dense<0.1> : tensor<128xf32>
  util.global private @"__iree_flow_bert/encoder/layer_7/ffn_layer_2/output/dense/kernel" {noinline} = dense<0.0001> : tensor<512x128xf32>
  util.global private @"__iree_flow_bert/encoder/layer_7/intermediate/dense/bias" = dense<0.1> : tensor<512xf32>
  util.global private @"__iree_flow_bert/encoder/layer_7/intermediate/dense/kernel" {noinline} = dense<0.0001> : tensor<128x512xf32>
  util.global private @"__iree_flow_bert/encoder/layer_7/output/FakeLayerNorm/beta" = dense<1.0> : tensor<128xf32>
  util.global private @"__iree_flow_bert/encoder/layer_7/output/FakeLayerNorm/gamma" = dense<0.4> : tensor<128xf32>
  util.global private @"__iree_flow_bert/encoder/layer_7/output/bottleneck/FakeLayerNorm/beta" = dense<1.0> : tensor<512xf32>
  util.global private @"__iree_flow_bert/encoder/layer_7/output/bottleneck/FakeLayerNorm/gamma" = dense<0.4> : tensor<512xf32>
  util.global private @"__iree_flow_bert/encoder/layer_7/output/bottleneck/dense/bias" = dense<0.1> : tensor<512xf32>
  util.global private @"__iree_flow_bert/encoder/layer_7/output/bottleneck/dense/kernel" {noinline} = dense<0.0001> : tensor<128x512xf32>
  util.global private @"__iree_flow_bert/encoder/layer_7/output/dense/bias" = dense<0.1> : tensor<128xf32>
  util.global private @"__iree_flow_bert/encoder/layer_7/output/dense/kernel" {noinline} = dense<0.0001> : tensor<512x128xf32>
  util.global private @"__iree_flow_bert/encoder/layer_8/attention/output/FakeLayerNorm/beta" = dense<1.0> : tensor<128xf32>
  util.global private @"__iree_flow_bert/encoder/layer_8/attention/output/FakeLayerNorm/gamma" = dense<0.4> : tensor<128xf32>
  util.global private @"__iree_flow_bert/encoder/layer_8/attention/output/dense/bias" = dense<0.1> : tensor<128xf32>
  util.global private @"__iree_flow_bert/encoder/layer_8/attention/output/dense/kernel" {noinline} = dense<0.0001> : tensor<128x128xf32>
  util.global private @"__iree_flow_bert/encoder/layer_8/attention/self/key/bias" = dense<0.1> : tensor<128xf32>
  util.global private @"__iree_flow_bert/encoder/layer_8/attention/self/key/kernel" {noinline} = dense<0.0001> : tensor<128x128xf32>
  util.global private @"__iree_flow_bert/encoder/layer_8/attention/self/query/bias" = dense<0.1> : tensor<128xf32>
  util.global private @"__iree_flow_bert/encoder/layer_8/attention/self/query/kernel" {noinline} = dense<0.0001> : tensor<128x128xf32>
  util.global private @"__iree_flow_bert/encoder/layer_8/attention/self/value/bias" = dense<0.1> : tensor<128xf32>
  util.global private @"__iree_flow_bert/encoder/layer_8/attention/self/value/kernel" {noinline} = dense<0.0001> : tensor<512x128xf32>
  util.global private @"__iree_flow_bert/encoder/layer_8/bottleneck/attention/FakeLayerNorm/beta" = dense<1.0> : tensor<128xf32>
  util.global private @"__iree_flow_bert/encoder/layer_8/bottleneck/attention/FakeLayerNorm/gamma" = dense<0.4> : tensor<128xf32>
  util.global private @"__iree_flow_bert/encoder/layer_8/bottleneck/attention/dense/bias" = dense<0.1> : tensor<128xf32>
  util.global private @"__iree_flow_bert/encoder/layer_8/bottleneck/attention/dense/kernel" {noinline} = dense<0.0001> : tensor<512x128xf32>
  util.global private @"__iree_flow_bert/encoder/layer_8/bottleneck/input/FakeLayerNorm/beta" = dense<1.0> : tensor<128xf32>
  util.global private @"__iree_flow_bert/encoder/layer_8/bottleneck/input/FakeLayerNorm/gamma" = dense<0.4> : tensor<128xf32>
  util.global private @"__iree_flow_bert/encoder/layer_8/bottleneck/input/dense/bias" = dense<0.1> : tensor<128xf32>
  util.global private @"__iree_flow_bert/encoder/layer_8/bottleneck/input/dense/kernel" {noinline} = dense<0.0001> : tensor<512x128xf32>
  util.global private @"__iree_flow_bert/encoder/layer_8/ffn_layer_0/intermediate/dense/bias" = dense<0.1> : tensor<512xf32>
  util.global private @"__iree_flow_bert/encoder/layer_8/ffn_layer_0/intermediate/dense/kernel" {noinline} = dense<0.0001> : tensor<128x512xf32>
  util.global private @"__iree_flow_bert/encoder/layer_8/ffn_layer_0/output/FakeLayerNorm/beta" = dense<1.0> : tensor<128xf32>
  util.global private @"__iree_flow_bert/encoder/layer_8/ffn_layer_0/output/FakeLayerNorm/gamma" = dense<0.4> : tensor<128xf32>
  util.global private @"__iree_flow_bert/encoder/layer_8/ffn_layer_0/output/dense/bias" = dense<0.1> : tensor<128xf32>
  util.global private @"__iree_flow_bert/encoder/layer_8/ffn_layer_0/output/dense/kernel" {noinline} = dense<0.0001> : tensor<512x128xf32>
  util.global private @"__iree_flow_bert/encoder/layer_8/ffn_layer_1/intermediate/dense/bias" = dense<0.1> : tensor<512xf32>
  util.global private @"__iree_flow_bert/encoder/layer_8/ffn_layer_1/intermediate/dense/kernel" {noinline} = dense<0.0001> : tensor<128x512xf32>
  util.global private @"__iree_flow_bert/encoder/layer_8/ffn_layer_1/output/FakeLayerNorm/beta" = dense<1.0> : tensor<128xf32>
  util.global private @"__iree_flow_bert/encoder/layer_8/ffn_layer_1/output/FakeLayerNorm/gamma" = dense<0.4> : tensor<128xf32>
  util.global private @"__iree_flow_bert/encoder/layer_8/ffn_layer_1/output/dense/bias" = dense<0.1> : tensor<128xf32>
  util.global private @"__iree_flow_bert/encoder/layer_8/ffn_layer_1/output/dense/kernel" {noinline} = dense<0.0001> : tensor<512x128xf32>
  util.global private @"__iree_flow_bert/encoder/layer_8/ffn_layer_2/intermediate/dense/bias" = dense<0.1> : tensor<512xf32>
  util.global private @"__iree_flow_bert/encoder/layer_8/ffn_layer_2/intermediate/dense/kernel" {noinline} = dense<0.0001> : tensor<128x512xf32>
  util.global private @"__iree_flow_bert/encoder/layer_8/ffn_layer_2/output/FakeLayerNorm/beta" = dense<1.0> : tensor<128xf32>
  util.global private @"__iree_flow_bert/encoder/layer_8/ffn_layer_2/output/FakeLayerNorm/gamma" = dense<0.4> : tensor<128xf32>
  util.global private @"__iree_flow_bert/encoder/layer_8/ffn_layer_2/output/dense/bias" = dense<0.1> : tensor<128xf32>
  util.global private @"__iree_flow_bert/encoder/layer_8/ffn_layer_2/output/dense/kernel" {noinline} = dense<0.0001> : tensor<512x128xf32>
  util.global private @"__iree_flow_bert/encoder/layer_8/intermediate/dense/bias" = dense<0.1> : tensor<512xf32>
  util.global private @"__iree_flow_bert/encoder/layer_8/intermediate/dense/kernel" {noinline} = dense<0.0001> : tensor<128x512xf32>
  util.global private @"__iree_flow_bert/encoder/layer_8/output/FakeLayerNorm/beta" = dense<1.0> : tensor<128xf32>
  util.global private @"__iree_flow_bert/encoder/layer_8/output/FakeLayerNorm/gamma" = dense<0.4> : tensor<128xf32>
  util.global private @"__iree_flow_bert/encoder/layer_8/output/bottleneck/FakeLayerNorm/beta" = dense<1.0> : tensor<512xf32>
  util.global private @"__iree_flow_bert/encoder/layer_8/output/bottleneck/FakeLayerNorm/gamma" = dense<0.4> : tensor<512xf32>
  util.global private @"__iree_flow_bert/encoder/layer_8/output/bottleneck/dense/bias" = dense<0.1> : tensor<512xf32>
  util.global private @"__iree_flow_bert/encoder/layer_8/output/bottleneck/dense/kernel" {noinline} = dense<0.0001> : tensor<128x512xf32>
  util.global private @"__iree_flow_bert/encoder/layer_8/output/dense/bias" = dense<0.1> : tensor<128xf32>
  util.global private @"__iree_flow_bert/encoder/layer_8/output/dense/kernel" {noinline} = dense<0.0001> : tensor<512x128xf32>
  util.global private @"__iree_flow_bert/encoder/layer_9/attention/output/FakeLayerNorm/beta" = dense<1.0> : tensor<128xf32>
  util.global private @"__iree_flow_bert/encoder/layer_9/attention/output/FakeLayerNorm/gamma" = dense<0.4> : tensor<128xf32>
  util.global private @"__iree_flow_bert/encoder/layer_9/attention/output/dense/bias" = dense<0.1> : tensor<128xf32>
  util.global private @"__iree_flow_bert/encoder/layer_9/attention/output/dense/kernel" {noinline} = dense<0.0001> : tensor<128x128xf32>
  util.global private @"__iree_flow_bert/encoder/layer_9/attention/self/key/bias" = dense<0.1> : tensor<128xf32>
  util.global private @"__iree_flow_bert/encoder/layer_9/attention/self/key/kernel" {noinline} = dense<0.0001> : tensor<128x128xf32>
  util.global private @"__iree_flow_bert/encoder/layer_9/attention/self/query/bias" = dense<0.1> : tensor<128xf32>
  util.global private @"__iree_flow_bert/encoder/layer_9/attention/self/query/kernel" {noinline} = dense<0.0001> : tensor<128x128xf32>
  util.global private @"__iree_flow_bert/encoder/layer_9/attention/self/value/bias" = dense<0.1> : tensor<128xf32>
  util.global private @"__iree_flow_bert/encoder/layer_9/attention/self/value/kernel" {noinline} = dense<0.0001> : tensor<512x128xf32>
  util.global private @"__iree_flow_bert/encoder/layer_9/bottleneck/attention/FakeLayerNorm/beta" = dense<1.0> : tensor<128xf32>
  util.global private @"__iree_flow_bert/encoder/layer_9/bottleneck/attention/FakeLayerNorm/gamma" = dense<0.4> : tensor<128xf32>
  util.global private @"__iree_flow_bert/encoder/layer_9/bottleneck/attention/dense/bias" = dense<0.1> : tensor<128xf32>
  util.global private @"__iree_flow_bert/encoder/layer_9/bottleneck/attention/dense/kernel" {noinline} = dense<0.0001> : tensor<512x128xf32>
  util.global private @"__iree_flow_bert/encoder/layer_9/bottleneck/input/FakeLayerNorm/beta" = dense<1.0> : tensor<128xf32>
  util.global private @"__iree_flow_bert/encoder/layer_9/bottleneck/input/FakeLayerNorm/gamma" = dense<0.4> : tensor<128xf32>
  util.global private @"__iree_flow_bert/encoder/layer_9/bottleneck/input/dense/bias" = dense<0.1> : tensor<128xf32>
  util.global private @"__iree_flow_bert/encoder/layer_9/bottleneck/input/dense/kernel" {noinline} = dense<0.0001> : tensor<512x128xf32>
  util.global private @"__iree_flow_bert/encoder/layer_9/ffn_layer_0/intermediate/dense/bias" = dense<0.1> : tensor<512xf32>
  util.global private @"__iree_flow_bert/encoder/layer_9/ffn_layer_0/intermediate/dense/kernel" {noinline} = dense<0.0001> : tensor<128x512xf32>
  util.global private @"__iree_flow_bert/encoder/layer_9/ffn_layer_0/output/FakeLayerNorm/beta" = dense<1.0> : tensor<128xf32>
  util.global private @"__iree_flow_bert/encoder/layer_9/ffn_layer_0/output/FakeLayerNorm/gamma" = dense<0.4> : tensor<128xf32>
  util.global private @"__iree_flow_bert/encoder/layer_9/ffn_layer_0/output/dense/bias" = dense<0.1> : tensor<128xf32>
  util.global private @"__iree_flow_bert/encoder/layer_9/ffn_layer_0/output/dense/kernel" {noinline} = dense<0.0001> : tensor<512x128xf32>
  util.global private @"__iree_flow_bert/encoder/layer_9/ffn_layer_1/intermediate/dense/bias" = dense<0.1> : tensor<512xf32>
  util.global private @"__iree_flow_bert/encoder/layer_9/ffn_layer_1/intermediate/dense/kernel" {noinline} = dense<0.0001> : tensor<128x512xf32>
  util.global private @"__iree_flow_bert/encoder/layer_9/ffn_layer_1/output/FakeLayerNorm/beta" = dense<1.0> : tensor<128xf32>
  util.global private @"__iree_flow_bert/encoder/layer_9/ffn_layer_1/output/FakeLayerNorm/gamma" = dense<0.4> : tensor<128xf32>
  util.global private @"__iree_flow_bert/encoder/layer_9/ffn_layer_1/output/dense/bias" = dense<0.1> : tensor<128xf32>
  util.global private @"__iree_flow_bert/encoder/layer_9/ffn_layer_1/output/dense/kernel" {noinline} = dense<0.0001> : tensor<512x128xf32>
  util.global private @"__iree_flow_bert/encoder/layer_9/ffn_layer_2/intermediate/dense/bias" = dense<0.1> : tensor<512xf32>
  util.global private @"__iree_flow_bert/encoder/layer_9/ffn_layer_2/intermediate/dense/kernel" {noinline} = dense<0.0001> : tensor<128x512xf32>
  util.global private @"__iree_flow_bert/encoder/layer_9/ffn_layer_2/output/FakeLayerNorm/beta" = dense<1.0> : tensor<128xf32>
  util.global private @"__iree_flow_bert/encoder/layer_9/ffn_layer_2/output/FakeLayerNorm/gamma" = dense<0.4> : tensor<128xf32>
  util.global private @"__iree_flow_bert/encoder/layer_9/ffn_layer_2/output/dense/bias" = dense<0.1> : tensor<128xf32>
  util.global private @"__iree_flow_bert/encoder/layer_9/ffn_layer_2/output/dense/kernel" {noinline} = dense<0.0001> : tensor<512x128xf32>
  util.global private @"__iree_flow_bert/encoder/layer_9/intermediate/dense/bias" = dense<0.1> : tensor<512xf32>
  util.global private @"__iree_flow_bert/encoder/layer_9/intermediate/dense/kernel" {noinline} = dense<0.0001> : tensor<128x512xf32>
  util.global private @"__iree_flow_bert/encoder/layer_9/output/FakeLayerNorm/beta" = dense<1.0> : tensor<128xf32>
  util.global private @"__iree_flow_bert/encoder/layer_9/output/FakeLayerNorm/gamma" = dense<0.4> : tensor<128xf32>
  util.global private @"__iree_flow_bert/encoder/layer_9/output/bottleneck/FakeLayerNorm/beta" = dense<1.0> : tensor<512xf32>
  util.global private @"__iree_flow_bert/encoder/layer_9/output/bottleneck/FakeLayerNorm/gamma" = dense<0.4> : tensor<512xf32>
  util.global private @"__iree_flow_bert/encoder/layer_9/output/bottleneck/dense/bias" = dense<0.1> : tensor<512xf32>
  util.global private @"__iree_flow_bert/encoder/layer_9/output/bottleneck/dense/kernel" {noinline} = dense<0.0001> : tensor<128x512xf32>
  util.global private @"__iree_flow_bert/encoder/layer_9/output/dense/bias" = dense<0.1> : tensor<128xf32>
  util.global private @"__iree_flow_bert/encoder/layer_9/output/dense/kernel" {noinline} = dense<0.0001> : tensor<512x128xf32>
  util.global private @"__iree_flow_cls/squad/output_bias" = dense<0.1> : tensor<2xf32>
  util.global private @"__iree_flow_cls/squad/output_weights" = dense<1.0> : tensor<2x512xf32>
  func.func @serving_default() attributes { iree.module.export} {
    %arg0 = util.unfoldable_constant dense<0> : tensor<1x384xi32>
    %arg1 = util.unfoldable_constant dense<0> : tensor<1x384xi32>
    %arg2 = util.unfoldable_constant dense<0> : tensor<1x384xi32>
    %0 = util.global.address @"__iree_flow_bert/embeddings/FakeLayerNorm/beta" : !util.ptr<tensor<512xf32>>
    %1 = util.global.address @"__iree_flow_bert/embeddings/FakeLayerNorm/gamma" : !util.ptr<tensor<512xf32>>
    %2 = util.global.address @"__iree_flow_bert/embeddings/embedding_transformation/bias" : !util.ptr<tensor<512xf32>>
    %3 = util.global.address @"__iree_flow_bert/embeddings/embedding_transformation/kernel" : !util.ptr<tensor<384x512xf32>>
    %4 = util.global.address @"__iree_flow_bert/embeddings/position_embeddings" : !util.ptr<tensor<512x512xf32>>
    %5 = util.global.address @"__iree_flow_bert/embeddings/token_type_embeddings" : !util.ptr<tensor<2x512xf32>>
    %6 = util.global.address @"__iree_flow_bert/embeddings/word_embeddings" : !util.ptr<tensor<30522x128xf32>>
    %7 = util.global.address @"__iree_flow_bert/encoder/layer_0/attention/output/FakeLayerNorm/beta" : !util.ptr<tensor<128xf32>>
    %8 = util.global.address @"__iree_flow_bert/encoder/layer_0/attention/output/FakeLayerNorm/gamma" : !util.ptr<tensor<128xf32>>
    %9 = util.global.address @"__iree_flow_bert/encoder/layer_0/attention/output/dense/bias" : !util.ptr<tensor<128xf32>>
    %10 = util.global.address @"__iree_flow_bert/encoder/layer_0/attention/output/dense/kernel" : !util.ptr<tensor<128x128xf32>>
    %11 = util.global.address @"__iree_flow_bert/encoder/layer_0/attention/self/key/bias" : !util.ptr<tensor<128xf32>>
    %12 = util.global.address @"__iree_flow_bert/encoder/layer_0/attention/self/key/kernel" : !util.ptr<tensor<128x128xf32>>
    %13 = util.global.address @"__iree_flow_bert/encoder/layer_0/attention/self/query/bias" : !util.ptr<tensor<128xf32>>
    %14 = util.global.address @"__iree_flow_bert/encoder/layer_0/attention/self/query/kernel" : !util.ptr<tensor<128x128xf32>>
    %15 = util.global.address @"__iree_flow_bert/encoder/layer_0/attention/self/value/bias" : !util.ptr<tensor<128xf32>>
    %16 = util.global.address @"__iree_flow_bert/encoder/layer_0/attention/self/value/kernel" : !util.ptr<tensor<512x128xf32>>
    %17 = util.global.address @"__iree_flow_bert/encoder/layer_0/bottleneck/attention/FakeLayerNorm/beta" : !util.ptr<tensor<128xf32>>
    %18 = util.global.address @"__iree_flow_bert/encoder/layer_0/bottleneck/attention/FakeLayerNorm/gamma" : !util.ptr<tensor<128xf32>>
    %19 = util.global.address @"__iree_flow_bert/encoder/layer_0/bottleneck/attention/dense/bias" : !util.ptr<tensor<128xf32>>
    %20 = util.global.address @"__iree_flow_bert/encoder/layer_0/bottleneck/attention/dense/kernel" : !util.ptr<tensor<512x128xf32>>
    %21 = util.global.address @"__iree_flow_bert/encoder/layer_0/bottleneck/input/FakeLayerNorm/beta" : !util.ptr<tensor<128xf32>>
    %22 = util.global.address @"__iree_flow_bert/encoder/layer_0/bottleneck/input/FakeLayerNorm/gamma" : !util.ptr<tensor<128xf32>>
    %23 = util.global.address @"__iree_flow_bert/encoder/layer_0/bottleneck/input/dense/bias" : !util.ptr<tensor<128xf32>>
    %24 = util.global.address @"__iree_flow_bert/encoder/layer_0/bottleneck/input/dense/kernel" : !util.ptr<tensor<512x128xf32>>
    %25 = util.global.address @"__iree_flow_bert/encoder/layer_0/ffn_layer_0/intermediate/dense/bias" : !util.ptr<tensor<512xf32>>
    %26 = util.global.address @"__iree_flow_bert/encoder/layer_0/ffn_layer_0/intermediate/dense/kernel" : !util.ptr<tensor<128x512xf32>>
    %27 = util.global.address @"__iree_flow_bert/encoder/layer_0/ffn_layer_0/output/FakeLayerNorm/beta" : !util.ptr<tensor<128xf32>>
    %28 = util.global.address @"__iree_flow_bert/encoder/layer_0/ffn_layer_0/output/FakeLayerNorm/gamma" : !util.ptr<tensor<128xf32>>
    %29 = util.global.address @"__iree_flow_bert/encoder/layer_0/ffn_layer_0/output/dense/bias" : !util.ptr<tensor<128xf32>>
    %30 = util.global.address @"__iree_flow_bert/encoder/layer_0/ffn_layer_0/output/dense/kernel" : !util.ptr<tensor<512x128xf32>>
    %31 = util.global.address @"__iree_flow_bert/encoder/layer_0/ffn_layer_1/intermediate/dense/bias" : !util.ptr<tensor<512xf32>>
    %32 = util.global.address @"__iree_flow_bert/encoder/layer_0/ffn_layer_1/intermediate/dense/kernel" : !util.ptr<tensor<128x512xf32>>
    %33 = util.global.address @"__iree_flow_bert/encoder/layer_0/ffn_layer_1/output/FakeLayerNorm/beta" : !util.ptr<tensor<128xf32>>
    %34 = util.global.address @"__iree_flow_bert/encoder/layer_0/ffn_layer_1/output/FakeLayerNorm/gamma" : !util.ptr<tensor<128xf32>>
    %35 = util.global.address @"__iree_flow_bert/encoder/layer_0/ffn_layer_1/output/dense/bias" : !util.ptr<tensor<128xf32>>
    %36 = util.global.address @"__iree_flow_bert/encoder/layer_0/ffn_layer_1/output/dense/kernel" : !util.ptr<tensor<512x128xf32>>
    %37 = util.global.address @"__iree_flow_bert/encoder/layer_0/ffn_layer_2/intermediate/dense/bias" : !util.ptr<tensor<512xf32>>
    %38 = util.global.address @"__iree_flow_bert/encoder/layer_0/ffn_layer_2/intermediate/dense/kernel" : !util.ptr<tensor<128x512xf32>>
    %39 = util.global.address @"__iree_flow_bert/encoder/layer_0/ffn_layer_2/output/FakeLayerNorm/beta" : !util.ptr<tensor<128xf32>>
    %40 = util.global.address @"__iree_flow_bert/encoder/layer_0/ffn_layer_2/output/FakeLayerNorm/gamma" : !util.ptr<tensor<128xf32>>
    %41 = util.global.address @"__iree_flow_bert/encoder/layer_0/ffn_layer_2/output/dense/bias" : !util.ptr<tensor<128xf32>>
    %42 = util.global.address @"__iree_flow_bert/encoder/layer_0/ffn_layer_2/output/dense/kernel" : !util.ptr<tensor<512x128xf32>>
    %43 = util.global.address @"__iree_flow_bert/encoder/layer_0/intermediate/dense/bias" : !util.ptr<tensor<512xf32>>
    %44 = util.global.address @"__iree_flow_bert/encoder/layer_0/intermediate/dense/kernel" : !util.ptr<tensor<128x512xf32>>
    %45 = util.global.address @"__iree_flow_bert/encoder/layer_0/output/FakeLayerNorm/beta" : !util.ptr<tensor<128xf32>>
    %46 = util.global.address @"__iree_flow_bert/encoder/layer_0/output/FakeLayerNorm/gamma" : !util.ptr<tensor<128xf32>>
    %47 = util.global.address @"__iree_flow_bert/encoder/layer_0/output/bottleneck/FakeLayerNorm/beta" : !util.ptr<tensor<512xf32>>
    %48 = util.global.address @"__iree_flow_bert/encoder/layer_0/output/bottleneck/FakeLayerNorm/gamma" : !util.ptr<tensor<512xf32>>
    %49 = util.global.address @"__iree_flow_bert/encoder/layer_0/output/bottleneck/dense/bias" : !util.ptr<tensor<512xf32>>
    %50 = util.global.address @"__iree_flow_bert/encoder/layer_0/output/bottleneck/dense/kernel" : !util.ptr<tensor<128x512xf32>>
    %51 = util.global.address @"__iree_flow_bert/encoder/layer_0/output/dense/bias" : !util.ptr<tensor<128xf32>>
    %52 = util.global.address @"__iree_flow_bert/encoder/layer_0/output/dense/kernel" : !util.ptr<tensor<512x128xf32>>
    %53 = util.global.address @"__iree_flow_bert/encoder/layer_1/attention/output/FakeLayerNorm/beta" : !util.ptr<tensor<128xf32>>
    %54 = util.global.address @"__iree_flow_bert/encoder/layer_1/attention/output/FakeLayerNorm/gamma" : !util.ptr<tensor<128xf32>>
    %55 = util.global.address @"__iree_flow_bert/encoder/layer_1/attention/output/dense/bias" : !util.ptr<tensor<128xf32>>
    %56 = util.global.address @"__iree_flow_bert/encoder/layer_1/attention/output/dense/kernel" : !util.ptr<tensor<128x128xf32>>
    %57 = util.global.address @"__iree_flow_bert/encoder/layer_1/attention/self/key/bias" : !util.ptr<tensor<128xf32>>
    %58 = util.global.address @"__iree_flow_bert/encoder/layer_1/attention/self/key/kernel" : !util.ptr<tensor<128x128xf32>>
    %59 = util.global.address @"__iree_flow_bert/encoder/layer_1/attention/self/query/bias" : !util.ptr<tensor<128xf32>>
    %60 = util.global.address @"__iree_flow_bert/encoder/layer_1/attention/self/query/kernel" : !util.ptr<tensor<128x128xf32>>
…
      %5393 = mhlo.add %arg3, %arg4 : tensor<f32>
      "mhlo.return"(%5393) : (tensor<f32>) -> ()
    }) {dimensions = dense<3> : tensor<1xi64>} : (tensor<1x4x384x384xf32>, tensor<f32>) -> tensor<1x4x384xf32>
    %4896 = "mhlo.broadcast_in_dim"(%4895) {broadcast_dimensions = dense<[0, 1, 2]> : tensor<3xi64>} : (tensor<1x4x384xf32>) -> tensor<1x4x384x384xf32>
    %4897 = mhlo.divide %4894, %4896 : tensor<1x4x384x384xf32>
    %4898 = "mhlo.dot_general"(%4897, %4867) {dot_dimension_numbers = #mhlo.dot<lhs_batching_dimensions = [0, 1], lhs_contracting_dimensions = [3], rhs_batching_dimensions = [0, 1], rhs_contracting_dimensions = [2]>} : (tensor<1x4x384x384xf32>, tensor<1x4x384x32xf32>) -> tensor<1x4x384x32xf32>
    %4899 = "mhlo.transpose"(%4898) {permutation = dense<[0, 2, 1, 3]> : tensor<4xi64>} : (tensor<1x4x384x32xf32>) -> tensor<1x384x4x32xf32>
    %4900 = "mhlo.reshape"(%4899) : (tensor<1x384x4x32xf32>) -> tensor<384x128xf32>
    %4901 = "mhlo.dot"(%4900, %1730) : (tensor<384x128xf32>, tensor<128x128xf32>) -> tensor<384x128xf32>
    %4902 = "mhlo.broadcast_in_dim"(%1729) {broadcast_dimensions = dense<1> : tensor<1xi64>} : (tensor<128xf32>) -> tensor<384x128xf32>
    %4903 = mhlo.add %4901, %4902 : tensor<384x128xf32>
    %4904 = "mhlo.reshape"(%4903) : (tensor<384x128xf32>) -> tensor<1x384x128xf32>
    %4905 = "mhlo.dot"(%4862, %1744) : (tensor<384x512xf32>, tensor<512x128xf32>) -> tensor<384x128xf32>
    %4906 = "mhlo.broadcast_in_dim"(%1743) {broadcast_dimensions = dense<1> : tensor<1xi64>} : (tensor<128xf32>) -> tensor<384x128xf32>
    %4907 = mhlo.add %4905, %4906 : tensor<384x128xf32>
    %4908 = "mhlo.reshape"(%4907) : (tensor<384x128xf32>) -> tensor<1x384x128xf32>
    %4909 = "mhlo.broadcast_in_dim"(%1742) {broadcast_dimensions = dense<2> : tensor<1xi64>} : (tensor<128xf32>) -> tensor<1x384x128xf32>
    %4910 = mhlo.multiply %4908, %4909 : tensor<1x384x128xf32>
    %4911 = "mhlo.broadcast_in_dim"(%1741) {broadcast_dimensions = dense<2> : tensor<1xi64>} : (tensor<128xf32>) -> tensor<1x384x128xf32>
    %4912 = mhlo.add %4910, %4911 : tensor<1x384x128xf32>
    %4913 = mhlo.add %4904, %4912 : tensor<1x384x128xf32>
    %4914 = "mhlo.broadcast_in_dim"(%1728) {broadcast_dimensions = dense<2> : tensor<1xi64>} : (tensor<128xf32>) -> tensor<1x384x128xf32>
    %4915 = mhlo.multiply %4913, %4914 : tensor<1x384x128xf32>
    %4916 = "mhlo.broadcast_in_dim"(%1727) {broadcast_dimensions = dense<2> : tensor<1xi64>} : (tensor<128xf32>) -> tensor<1x384x128xf32>
    %4917 = mhlo.add %4915, %4916 : tensor<1x384x128xf32>
    %4918 = "mhlo.reshape"(%4917) : (tensor<1x384x128xf32>) -> tensor<384x128xf32>
    %4919 = "mhlo.dot"(%4918, %1746) : (tensor<384x128xf32>, tensor<128x512xf32>) -> tensor<384x512xf32>
    %4920 = "mhlo.broadcast_in_dim"(%1745) {broadcast_dimensions = dense<1> : tensor<1xi64>} : (tensor<512xf32>) -> tensor<384x512xf32>
    %4921 = mhlo.add %4919, %4920 : tensor<384x512xf32>
    %4922 = "mhlo.reshape"(%4921) : (tensor<384x512xf32>) -> tensor<1x384x512xf32>
    %4923 = mhlo.maximum %4922, %1119 : tensor<1x384x512xf32>
    %4924 = "mhlo.reshape"(%4923) : (tensor<1x384x512xf32>) -> tensor<384x512xf32>
    %4925 = "mhlo.dot"(%4924, %1750) : (tensor<384x512xf32>, tensor<512x128xf32>) -> tensor<384x128xf32>
    %4926 = "mhlo.broadcast_in_dim"(%1749) {broadcast_dimensions = dense<1> : tensor<1xi64>} : (tensor<128xf32>) -> tensor<384x128xf32>
    %4927 = mhlo.add %4925, %4926 : tensor<384x128xf32>
    %4928 = "mhlo.reshape"(%4927) : (tensor<384x128xf32>) -> tensor<1x384x128xf32>
    %4929 = mhlo.add %4928, %4917 : tensor<1x384x128xf32>
    %4930 = "mhlo.broadcast_in_dim"(%1748) {broadcast_dimensions = dense<2> : tensor<1xi64>} : (tensor<128xf32>) -> tensor<1x384x128xf32>
    %4931 = mhlo.multiply %4929, %4930 : tensor<1x384x128xf32>
    %4932 = "mhlo.broadcast_in_dim"(%1747) {broadcast_dimensions = dense<2> : tensor<1xi64>} : (tensor<128xf32>) -> tensor<1x384x128xf32>
    %4933 = mhlo.add %4931, %4932 : tensor<1x384x128xf32>
    %4934 = "mhlo.reshape"(%4933) : (tensor<1x384x128xf32>) -> tensor<384x128xf32>
    %4935 = "mhlo.dot"(%4934, %1752) : (tensor<384x128xf32>, tensor<128x512xf32>) -> tensor<384x512xf32>
    %4936 = "mhlo.broadcast_in_dim"(%1751) {broadcast_dimensions = dense<1> : tensor<1xi64>} : (tensor<512xf32>) -> tensor<384x512xf32>
    %4937 = mhlo.add %4935, %4936 : tensor<384x512xf32>
    %4938 = "mhlo.reshape"(%4937) : (tensor<384x512xf32>) -> tensor<1x384x512xf32>
    %4939 = mhlo.maximum %4938, %1119 : tensor<1x384x512xf32>
    %4940 = "mhlo.reshape"(%4939) : (tensor<1x384x512xf32>) -> tensor<384x512xf32>
    %4941 = "mhlo.dot"(%4940, %1756) : (tensor<384x512xf32>, tensor<512x128xf32>) -> tensor<384x128xf32>
    %4942 = "mhlo.broadcast_in_dim"(%1755) {broadcast_dimensions = dense<1> : tensor<1xi64>} : (tensor<128xf32>) -> tensor<384x128xf32>
    %4943 = mhlo.add %4941, %4942 : tensor<384x128xf32>
    %4944 = "mhlo.reshape"(%4943) : (tensor<384x128xf32>) -> tensor<1x384x128xf32>
    %4945 = mhlo.add %4944, %4933 : tensor<1x384x128xf32>
    %4946 = "mhlo.broadcast_in_dim"(%1754) {broadcast_dimensions = dense<2> : tensor<1xi64>} : (tensor<128xf32>) -> tensor<1x384x128xf32>
    %4947 = mhlo.multiply %4945, %4946 : tensor<1x384x128xf32>
    %4948 = "mhlo.broadcast_in_dim"(%1753) {broadcast_dimensions = dense<2> : tensor<1xi64>} : (tensor<128xf32>) -> tensor<1x384x128xf32>
    %4949 = mhlo.add %4947, %4948 : tensor<1x384x128xf32>
    %4950 = "mhlo.reshape"(%4949) : (tensor<1x384x128xf32>) -> tensor<384x128xf32>
    %4951 = "mhlo.dot"(%4950, %1758) : (tensor<384x128xf32>, tensor<128x512xf32>) -> tensor<384x512xf32>
    %4952 = "mhlo.broadcast_in_dim"(%1757) {broadcast_dimensions = dense<1> : tensor<1xi64>} : (tensor<512xf32>) -> tensor<384x512xf32>
    %4953 = mhlo.add %4951, %4952 : tensor<384x512xf32>
    %4954 = "mhlo.reshape"(%4953) : (tensor<384x512xf32>) -> tensor<1x384x512xf32>
    %4955 = mhlo.maximum %4954, %1119 : tensor<1x384x512xf32>
    %4956 = "mhlo.reshape"(%4955) : (tensor<1x384x512xf32>) -> tensor<384x512xf32>
    %4957 = "mhlo.dot"(%4956, %1762) : (tensor<384x512xf32>, tensor<512x128xf32>) -> tensor<384x128xf32>
    %4958 = "mhlo.broadcast_in_dim"(%1761) {broadcast_dimensions = dense<1> : tensor<1xi64>} : (tensor<128xf32>) -> tensor<384x128xf32>
    %4959 = mhlo.add %4957, %4958 : tensor<384x128xf32>
    %4960 = "mhlo.reshape"(%4959) : (tensor<384x128xf32>) -> tensor<1x384x128xf32>
    %4961 = mhlo.add %4960, %4949 : tensor<1x384x128xf32>
    %4962 = "mhlo.broadcast_in_dim"(%1760) {broadcast_dimensions = dense<2> : tensor<1xi64>} : (tensor<128xf32>) -> tensor<1x384x128xf32>
    %4963 = mhlo.multiply %4961, %4962 : tensor<1x384x128xf32>
    %4964 = "mhlo.broadcast_in_dim"(%1759) {broadcast_dimensions = dense<2> : tensor<1xi64>} : (tensor<128xf32>) -> tensor<1x384x128xf32>
    %4965 = mhlo.add %4963, %4964 : tensor<1x384x128xf32>
    %4966 = "mhlo.reshape"(%4965) : (tensor<1x384x128xf32>) -> tensor<384x128xf32>
    %4967 = "mhlo.dot"(%4966, %1764) : (tensor<384x128xf32>, tensor<128x512xf32>) -> tensor<384x512xf32>
    %4968 = "mhlo.broadcast_in_dim"(%1763) {broadcast_dimensions = dense<1> : tensor<1xi64>} : (tensor<512xf32>) -> tensor<384x512xf32>
    %4969 = mhlo.add %4967, %4968 : tensor<384x512xf32>
    %4970 = "mhlo.reshape"(%4969) : (tensor<384x512xf32>) -> tensor<1x384x512xf32>
    %4971 = mhlo.maximum %4970, %1119 : tensor<1x384x512xf32>
    %4972 = "mhlo.reshape"(%4971) : (tensor<1x384x512xf32>) -> tensor<384x512xf32>
    %4973 = "mhlo.dot"(%4972, %1772) : (tensor<384x512xf32>, tensor<512x128xf32>) -> tensor<384x128xf32>
    %4974 = "mhlo.broadcast_in_dim"(%1771) {broadcast_dimensions = dense<1> : tensor<1xi64>} : (tensor<128xf32>) -> tensor<384x128xf32>
    %4975 = mhlo.add %4973, %4974 : tensor<384x128xf32>
    %4976 = "mhlo.reshape"(%4975) : (tensor<384x128xf32>) -> tensor<1x384x128xf32>
    %4977 = mhlo.add %4976, %4965 : tensor<1x384x128xf32>
    %4978 = "mhlo.broadcast_in_dim"(%1766) {broadcast_dimensions = dense<2> : tensor<1xi64>} : (tensor<128xf32>) -> tensor<1x384x128xf32>
    %4979 = mhlo.multiply %4977, %4978 : tensor<1x384x128xf32>
    %4980 = "mhlo.broadcast_in_dim"(%1765) {broadcast_dimensions = dense<2> : tensor<1xi64>} : (tensor<128xf32>) -> tensor<1x384x128xf32>
    %4981 = mhlo.add %4979, %4980 : tensor<1x384x128xf32>
    %4982 = "mhlo.reshape"(%4981) : (tensor<1x384x128xf32>) -> tensor<384x128xf32>
    %4983 = "mhlo.dot"(%4982, %1770) : (tensor<384x128xf32>, tensor<128x512xf32>) -> tensor<384x512xf32>
    %4984 = "mhlo.broadcast_in_dim"(%1769) {broadcast_dimensions = dense<1> : tensor<1xi64>} : (tensor<512xf32>) -> tensor<384x512xf32>
    %4985 = mhlo.add %4983, %4984 : tensor<384x512xf32>
    %4986 = "mhlo.reshape"(%4985) : (tensor<384x512xf32>) -> tensor<1x384x512xf32>
    %4987 = mhlo.add %4986, %4861 : tensor<1x384x512xf32>
    %4988 = "mhlo.broadcast_in_dim"(%1768) {broadcast_dimensions = dense<2> : tensor<1xi64>} : (tensor<512xf32>) -> tensor<1x384x512xf32>
    %4989 = mhlo.multiply %4987, %4988 : tensor<1x384x512xf32>
    %4990 = "mhlo.broadcast_in_dim"(%1767) {broadcast_dimensions = dense<2> : tensor<1xi64>} : (tensor<512xf32>) -> tensor<1x384x512xf32>
    %4991 = mhlo.add %4989, %4990 : tensor<1x384x512xf32>
    %4992 = "mhlo.reshape"(%4991) : (tensor<1x384x512xf32>) -> tensor<384x512xf32>
    %4993 = "mhlo.dot"(%4992, %1782) : (tensor<384x512xf32>, tensor<512x128xf32>) -> tensor<384x128xf32>
    %4994 = "mhlo.broadcast_in_dim"(%1781) {broadcast_dimensions = dense<1> : tensor<1xi64>} : (tensor<128xf32>) -> tensor<384x128xf32>
    %4995 = mhlo.add %4993, %4994 : tensor<384x128xf32>
    %4996 = "mhlo.reshape"(%4995) : (tensor<384x128xf32>) -> tensor<1x384x4x32xf32>
    %4997 = "mhlo.transpose"(%4996) {permutation = dense<[0, 2, 1, 3]> : tensor<4xi64>} : (tensor<1x384x4x32xf32>) -> tensor<1x4x384x32xf32>
    %4998 = "mhlo.dot"(%4992, %1786) : (tensor<384x512xf32>, tensor<512x128xf32>) -> tensor<384x128xf32>
    %4999 = "mhlo.reshape"(%4998) : (tensor<384x128xf32>) -> tensor<1x384x128xf32>
    %5000 = "mhlo.broadcast_in_dim"(%1785) {broadcast_dimensions = dense<2> : tensor<1xi64>} : (tensor<128xf32>) -> tensor<1x384x128xf32>
    %5001 = mhlo.add %4999, %5000 : tensor<1x384x128xf32>
    %5002 = "mhlo.broadcast_in_dim"(%1784) {broadcast_dimensions = dense<2> : tensor<1xi64>} : (tensor<128xf32>) -> tensor<1x384x128xf32>
    %5003 = mhlo.multiply %5001, %5002 : tensor<1x384x128xf32>
    %5004 = "mhlo.broadcast_in_dim"(%1783) {broadcast_dimensions = dense<2> : tensor<1xi64>} : (tensor<128xf32>) -> tensor<1x384x128xf32>
    %5005 = mhlo.add %5003, %5004 : tensor<1x384x128xf32>
    %5006 = "mhlo.reshape"(%5005) : (tensor<1x384x128xf32>) -> tensor<384x128xf32>
    %5007 = "mhlo.dot"(%5006, %1778) : (tensor<384x128xf32>, tensor<128x128xf32>) -> tensor<384x128xf32>
    %5008 = "mhlo.broadcast_in_dim"(%1777) {broadcast_dimensions = dense<1> : tensor<1xi64>} : (tensor<128xf32>) -> tensor<384x128xf32>
    %5009 = mhlo.add %5007, %5008 : tensor<384x128xf32>
    %5010 = "mhlo.reshape"(%5009) : (tensor<384x128xf32>) -> tensor<1x384x4x32xf32>
    %5011 = "mhlo.transpose"(%5010) {permutation = dense<[0, 2, 1, 3]> : tensor<4xi64>} : (tensor<1x384x4x32xf32>) -> tensor<1x4x384x32xf32>
    %5012 = "mhlo.dot"(%5006, %1780) : (tensor<384x128xf32>, tensor<128x128xf32>) -> tensor<384x128xf32>
    %5013 = "mhlo.broadcast_in_dim"(%1779) {broadcast_dimensions = dense<1> : tensor<1xi64>} : (tensor<128xf32>) -> tensor<384x128xf32>
    %5014 = mhlo.add %5012, %5013 : tensor<384x128xf32>
    %5015 = "mhlo.reshape"(%5014) : (tensor<384x128xf32>) -> tensor<1x384x4x32xf32>
    %5016 = "mhlo.transpose"(%5015) {permutation = dense<[0, 2, 1, 3]> : tensor<4xi64>} : (tensor<1x384x4x32xf32>) -> tensor<1x4x384x32xf32>
    %5017 = "mhlo.dot_general"(%5016, %5011) {dot_dimension_numbers = #mhlo.dot<lhs_batching_dimensions = [0, 1], lhs_contracting_dimensions = [3], rhs_batching_dimensions = [0, 1], rhs_contracting_dimensions = [3]>} : (tensor<1x4x384x32xf32>, tensor<1x4x384x32xf32>) -> tensor<1x4x384x384xf32>
    %5018 = mhlo.multiply %5017, %1114 : tensor<1x4x384x384xf32>
    %5019 = "mhlo.broadcast_in_dim"(%2254) {broadcast_dimensions = dense<[0, 1, 2, 3]> : tensor<4xi64>} : (tensor<1x1x384x384xf32>) -> tensor<1x4x384x384xf32>
    %5020 = mhlo.add %5018, %5019 : tensor<1x4x384x384xf32>
    %5021 = "mhlo.reduce"(%5020, %1117) ( {
    ^bb0(%arg3: tensor<f32>, %arg4: tensor<f32>):  // no predecessors
      %5393 = mhlo.maximum %arg3, %arg4 : tensor<f32>
      "mhlo.return"(%5393) : (tensor<f32>) -> ()
    }) {dimensions = dense<3> : tensor<1xi64>} : (tensor<1x4x384x384xf32>, tensor<f32>) -> tensor<1x4x384xf32>
    %5022 = "mhlo.broadcast_in_dim"(%5021) {broadcast_dimensions = dense<[0, 1, 2]> : tensor<3xi64>} : (tensor<1x4x384xf32>) -> tensor<1x4x384x384xf32>
    %5023 = mhlo.subtract %5020, %5022 : tensor<1x4x384x384xf32>
    %5024 = "mhlo.exponential"(%5023) : (tensor<1x4x384x384xf32>) -> tensor<1x4x384x384xf32>
    %5025 = "mhlo.reduce"(%5024, %1118) ( {
    ^bb0(%arg3: tensor<f32>, %arg4: tensor<f32>):  // no predecessors
      %5393 = mhlo.add %arg3, %arg4 : tensor<f32>
      "mhlo.return"(%5393) : (tensor<f32>) -> ()
    }) {dimensions = dense<3> : tensor<1xi64>} : (tensor<1x4x384x384xf32>, tensor<f32>) -> tensor<1x4x384xf32>
    %5026 = "mhlo.broadcast_in_dim"(%5025) {broadcast_dimensions = dense<[0, 1, 2]> : tensor<3xi64>} : (tensor<1x4x384xf32>) -> tensor<1x4x384x384xf32>
    %5027 = mhlo.divide %5024, %5026 : tensor<1x4x384x384xf32>
    %5028 = "mhlo.dot_general"(%5027, %4997) {dot_dimension_numbers = #mhlo.dot<lhs_batching_dimensions = [0, 1], lhs_contracting_dimensions = [3], rhs_batching_dimensions = [0, 1], rhs_contracting_dimensions = [2]>} : (tensor<1x4x384x384xf32>, tensor<1x4x384x32xf32>) -> tensor<1x4x384x32xf32>
    %5029 = "mhlo.transpose"(%5028) {permutation = dense<[0, 2, 1, 3]> : tensor<4xi64>} : (tensor<1x4x384x32xf32>) -> tensor<1x384x4x32xf32>
    %5030 = "mhlo.reshape"(%5029) : (tensor<1x384x4x32xf32>) -> tensor<384x128xf32>
    %5031 = "mhlo.dot"(%5030, %1776) : (tensor<384x128xf32>, tensor<128x128xf32>) -> tensor<384x128xf32>
    %5032 = "mhlo.broadcast_in_dim"(%1775) {broadcast_dimensions = dense<1> : tensor<1xi64>} : (tensor<128xf32>) -> tensor<384x128xf32>
    %5033 = mhlo.add %5031, %5032 : tensor<384x128xf32>
    %5034 = "mhlo.reshape"(%5033) : (tensor<384x128xf32>) -> tensor<1x384x128xf32>
    %5035 = "mhlo.dot"(%4992, %1790) : (tensor<384x512xf32>, tensor<512x128xf32>) -> tensor<384x128xf32>
    %5036 = "mhlo.broadcast_in_dim"(%1789) {broadcast_dimensions = dense<1> : tensor<1xi64>} : (tensor<128xf32>) -> tensor<384x128xf32>
    %5037 = mhlo.add %5035, %5036 : tensor<384x128xf32>
    %5038 = "mhlo.reshape"(%5037) : (tensor<384x128xf32>) -> tensor<1x384x128xf32>
    %5039 = "mhlo.broadcast_in_dim"(%1788) {broadcast_dimensions = dense<2> : tensor<1xi64>} : (tensor<128xf32>) -> tensor<1x384x128xf32>
    %5040 = mhlo.multiply %5038, %5039 : tensor<1x384x128xf32>
    %5041 = "mhlo.broadcast_in_dim"(%1787) {broadcast_dimensions = dense<2> : tensor<1xi64>} : (tensor<128xf32>) -> tensor<1x384x128xf32>
    %5042 = mhlo.add %5040, %5041 : tensor<1x384x128xf32>
    %5043 = mhlo.add %5034, %5042 : tensor<1x384x128xf32>
    %5044 = "mhlo.broadcast_in_dim"(%1774) {broadcast_dimensions = dense<2> : tensor<1xi64>} : (tensor<128xf32>) -> tensor<1x384x128xf32>
    %5045 = mhlo.multiply %5043, %5044 : tensor<1x384x128xf32>
    %5046 = "mhlo.broadcast_in_dim"(%1773) {broadcast_dimensions = dense<2> : tensor<1xi64>} : (tensor<128xf32>) -> tensor<1x384x128xf32>
    %5047 = mhlo.add %5045, %5046 : tensor<1x384x128xf32>
    %5048 = "mhlo.reshape"(%5047) : (tensor<1x384x128xf32>) -> tensor<384x128xf32>
    %5049 = "mhlo.dot"(%5048, %1792) : (tensor<384x128xf32>, tensor<128x512xf32>) -> tensor<384x512xf32>
    %5050 = "mhlo.broadcast_in_dim"(%1791) {broadcast_dimensions = dense<1> : tensor<1xi64>} : (tensor<512xf32>) -> tensor<384x512xf32>
    %5051 = mhlo.add %5049, %5050 : tensor<384x512xf32>
    %5052 = "mhlo.reshape"(%5051) : (tensor<384x512xf32>) -> tensor<1x384x512xf32>
    %5053 = mhlo.maximum %5052, %1119 : tensor<1x384x512xf32>
    %5054 = "mhlo.reshape"(%5053) : (tensor<1x384x512xf32>) -> tensor<384x512xf32>
    %5055 = "mhlo.dot"(%5054, %1796) : (tensor<384x512xf32>, tensor<512x128xf32>) -> tensor<384x128xf32>
    %5056 = "mhlo.broadcast_in_dim"(%1795) {broadcast_dimensions = dense<1> : tensor<1xi64>} : (tensor<128xf32>) -> tensor<384x128xf32>
    %5057 = mhlo.add %5055, %5056 : tensor<384x128xf32>
    %5058 = "mhlo.reshape"(%5057) : (tensor<384x128xf32>) -> tensor<1x384x128xf32>
    %5059 = mhlo.add %5058, %5047 : tensor<1x384x128xf32>
    %5060 = "mhlo.broadcast_in_dim"(%1794) {broadcast_dimensions = dense<2> : tensor<1xi64>} : (tensor<128xf32>) -> tensor<1x384x128xf32>
    %5061 = mhlo.multiply %5059, %5060 : tensor<1x384x128xf32>
    %5062 = "mhlo.broadcast_in_dim"(%1793) {broadcast_dimensions = dense<2> : tensor<1xi64>} : (tensor<128xf32>) -> tensor<1x384x128xf32>
    %5063 = mhlo.add %5061, %5062 : tensor<1x384x128xf32>
    %5064 = "mhlo.reshape"(%5063) : (tensor<1x384x128xf32>) -> tensor<384x128xf32>
    %5065 = "mhlo.dot"(%5064, %1798) : (tensor<384x128xf32>, tensor<128x512xf32>) -> tensor<384x512xf32>
    %5066 = "mhlo.broadcast_in_dim"(%1797) {broadcast_dimensions = dense<1> : tensor<1xi64>} : (tensor<512xf32>) -> tensor<384x512xf32>
    %5067 = mhlo.add %5065, %5066 : tensor<384x512xf32>
    %5068 = "mhlo.reshape"(%5067) : (tensor<384x512xf32>) -> tensor<1x384x512xf32>
    %5069 = mhlo.maximum %5068, %1119 : tensor<1x384x512xf32>
    %5070 = "mhlo.reshape"(%5069) : (tensor<1x384x512xf32>) -> tensor<384x512xf32>
    %5071 = "mhlo.dot"(%5070, %1802) : (tensor<384x512xf32>, tensor<512x128xf32>) -> tensor<384x128xf32>
    %5072 = "mhlo.broadcast_in_dim"(%1801) {broadcast_dimensions = dense<1> : tensor<1xi64>} : (tensor<128xf32>) -> tensor<384x128xf32>
    %5073 = mhlo.add %5071, %5072 : tensor<384x128xf32>
    %5074 = "mhlo.reshape"(%5073) : (tensor<384x128xf32>) -> tensor<1x384x128xf32>
    %5075 = mhlo.add %5074, %5063 : tensor<1x384x128xf32>
    %5076 = "mhlo.broadcast_in_dim"(%1800) {broadcast_dimensions = dense<2> : tensor<1xi64>} : (tensor<128xf32>) -> tensor<1x384x128xf32>
    %5077 = mhlo.multiply %5075, %5076 : tensor<1x384x128xf32>
    %5078 = "mhlo.broadcast_in_dim"(%1799) {broadcast_dimensions = dense<2> : tensor<1xi64>} : (tensor<128xf32>) -> tensor<1x384x128xf32>
    %5079 = mhlo.add %5077, %5078 : tensor<1x384x128xf32>
    %5080 = "mhlo.reshape"(%5079) : (tensor<1x384x128xf32>) -> tensor<384x128xf32>
    %5081 = "mhlo.dot"(%5080, %1804) : (tensor<384x128xf32>, tensor<128x512xf32>) -> tensor<384x512xf32>
    %5082 = "mhlo.broadcast_in_dim"(%1803) {broadcast_dimensions = dense<1> : tensor<1xi64>} : (tensor<512xf32>) -> tensor<384x512xf32>
    %5083 = mhlo.add %5081, %5082 : tensor<384x512xf32>
    %5084 = "mhlo.reshape"(%5083) : (tensor<384x512xf32>) -> tensor<1x384x512xf32>
    %5085 = mhlo.maximum %5084, %1119 : tensor<1x384x512xf32>
    %5086 = "mhlo.reshape"(%5085) : (tensor<1x384x512xf32>) -> tensor<384x512xf32>
    %5087 = "mhlo.dot"(%5086, %1808) : (tensor<384x512xf32>, tensor<512x128xf32>) -> tensor<384x128xf32>
    %5088 = "mhlo.broadcast_in_dim"(%1807) {broadcast_dimensions = dense<1> : tensor<1xi64>} : (tensor<128xf32>) -> tensor<384x128xf32>
    %5089 = mhlo.add %5087, %5088 : tensor<384x128xf32>
    %5090 = "mhlo.reshape"(%5089) : (tensor<384x128xf32>) -> tensor<1x384x128xf32>
    %5091 = mhlo.add %5090, %5079 : tensor<1x384x128xf32>
    %5092 = "mhlo.broadcast_in_dim"(%1806) {broadcast_dimensions = dense<2> : tensor<1xi64>} : (tensor<128xf32>) -> tensor<1x384x128xf32>
    %5093 = mhlo.multiply %5091, %5092 : tensor<1x384x128xf32>
    %5094 = "mhlo.broadcast_in_dim"(%1805) {broadcast_dimensions = dense<2> : tensor<1xi64>} : (tensor<128xf32>) -> tensor<1x384x128xf32>
    %5095 = mhlo.add %5093, %5094 : tensor<1x384x128xf32>
    %5096 = "mhlo.reshape"(%5095) : (tensor<1x384x128xf32>) -> tensor<384x128xf32>
    %5097 = "mhlo.dot"(%5096, %1810) : (tensor<384x128xf32>, tensor<128x512xf32>) -> tensor<384x512xf32>
    %5098 = "mhlo.broadcast_in_dim"(%1809) {broadcast_dimensions = dense<1> : tensor<1xi64>} : (tensor<512xf32>) -> tensor<384x512xf32>
    %5099 = mhlo.add %5097, %5098 : tensor<384x512xf32>
    %5100 = "mhlo.reshape"(%5099) : (tensor<384x512xf32>) -> tensor<1x384x512xf32>
    %5101 = mhlo.maximum %5100, %1119 : tensor<1x384x512xf32>
    %5102 = "mhlo.reshape"(%5101) : (tensor<1x384x512xf32>) -> tensor<384x512xf32>
    %5103 = "mhlo.dot"(%5102, %1818) : (tensor<384x512xf32>, tensor<512x128xf32>) -> tensor<384x128xf32>
    %5104 = "mhlo.broadcast_in_dim"(%1817) {broadcast_dimensions = dense<1> : tensor<1xi64>} : (tensor<128xf32>) -> tensor<384x128xf32>
    %5105 = mhlo.add %5103, %5104 : tensor<384x128xf32>
    %5106 = "mhlo.reshape"(%5105) : (tensor<384x128xf32>) -> tensor<1x384x128xf32>
    %5107 = mhlo.add %5106, %5095 : tensor<1x384x128xf32>
    %5108 = "mhlo.broadcast_in_dim"(%1812) {broadcast_dimensions = dense<2> : tensor<1xi64>} : (tensor<128xf32>) -> tensor<1x384x128xf32>
    %5109 = mhlo.multiply %5107, %5108 : tensor<1x384x128xf32>
    %5110 = "mhlo.broadcast_in_dim"(%1811) {broadcast_dimensions = dense<2> : tensor<1xi64>} : (tensor<128xf32>) -> tensor<1x384x128xf32>
    %5111 = mhlo.add %5109, %5110 : tensor<1x384x128xf32>
    %5112 = "mhlo.reshape"(%5111) : (tensor<1x384x128xf32>) -> tensor<384x128xf32>
    %5113 = "mhlo.dot"(%5112, %1816) : (tensor<384x128xf32>, tensor<128x512xf32>) -> tensor<384x512xf32>
    %5114 = "mhlo.broadcast_in_dim"(%1815) {broadcast_dimensions = dense<1> : tensor<1xi64>} : (tensor<512xf32>) -> tensor<384x512xf32>
    %5115 = mhlo.add %5113, %5114 : tensor<384x512xf32>
    %5116 = "mhlo.reshape"(%5115) : (tensor<384x512xf32>) -> tensor<1x384x512xf32>
    %5117 = mhlo.add %5116, %4991 : tensor<1x384x512xf32>
    %5118 = "mhlo.broadcast_in_dim"(%1814) {broadcast_dimensions = dense<2> : tensor<1xi64>} : (tensor<512xf32>) -> tensor<1x384x512xf32>
    %5119 = mhlo.multiply %5117, %5118 : tensor<1x384x512xf32>
    %5120 = "mhlo.broadcast_in_dim"(%1813) {broadcast_dimensions = dense<2> : tensor<1xi64>} : (tensor<512xf32>) -> tensor<1x384x512xf32>
    %5121 = mhlo.add %5119, %5120 : tensor<1x384x512xf32>
    %5122 = "mhlo.reshape"(%5121) : (tensor<1x384x512xf32>) -> tensor<384x512xf32>
    %5123 = "mhlo.dot"(%5122, %1828) : (tensor<384x512xf32>, tensor<512x128xf32>) -> tensor<384x128xf32>
    %5124 = "mhlo.broadcast_in_dim"(%1827) {broadcast_dimensions = dense<1> : tensor<1xi64>} : (tensor<128xf32>) -> tensor<384x128xf32>
    %5125 = mhlo.add %5123, %5124 : tensor<384x128xf32>
    %5126 = "mhlo.reshape"(%5125) : (tensor<384x128xf32>) -> tensor<1x384x4x32xf32>
    %5127 = "mhlo.transpose"(%5126) {permutation = dense<[0, 2, 1, 3]> : tensor<4xi64>} : (tensor<1x384x4x32xf32>) -> tensor<1x4x384x32xf32>
    %5128 = "mhlo.dot"(%5122, %1832) : (tensor<384x512xf32>, tensor<512x128xf32>) -> tensor<384x128xf32>
    %5129 = "mhlo.reshape"(%5128) : (tensor<384x128xf32>) -> tensor<1x384x128xf32>
    %5130 = "mhlo.broadcast_in_dim"(%1831) {broadcast_dimensions = dense<2> : tensor<1xi64>} : (tensor<128xf32>) -> tensor<1x384x128xf32>
    %5131 = mhlo.add %5129, %5130 : tensor<1x384x128xf32>
    %5132 = "mhlo.broadcast_in_dim"(%1830) {broadcast_dimensions = dense<2> : tensor<1xi64>} : (tensor<128xf32>) -> tensor<1x384x128xf32>
    %5133 = mhlo.multiply %5131, %5132 : tensor<1x384x128xf32>
    %5134 = "mhlo.broadcast_in_dim"(%1829) {broadcast_dimensions = dense<2> : tensor<1xi64>} : (tensor<128xf32>) -> tensor<1x384x128xf32>
    %5135 = mhlo.add %5133, %5134 : tensor<1x384x128xf32>
    %5136 = "mhlo.reshape"(%5135) : (tensor<1x384x128xf32>) -> tensor<384x128xf32>
    %5137 = "mhlo.dot"(%5136, %1824) : (tensor<384x128xf32>, tensor<128x128xf32>) -> tensor<384x128xf32>
    %5138 = "mhlo.broadcast_in_dim"(%1823) {broadcast_dimensions = dense<1> : tensor<1xi64>} : (tensor<128xf32>) -> tensor<384x128xf32>
    %5139 = mhlo.add %5137, %5138 : tensor<384x128xf32>
    %5140 = "mhlo.reshape"(%5139) : (tensor<384x128xf32>) -> tensor<1x384x4x32xf32>
    %5141 = "mhlo.transpose"(%5140) {permutation = dense<[0, 2, 1, 3]> : tensor<4xi64>} : (tensor<1x384x4x32xf32>) -> tensor<1x4x384x32xf32>
    %5142 = "mhlo.dot"(%5136, %1826) : (tensor<384x128xf32>, tensor<128x128xf32>) -> tensor<384x128xf32>
    %5143 = "mhlo.broadcast_in_dim"(%1825) {broadcast_dimensions = dense<1> : tensor<1xi64>} : (tensor<128xf32>) -> tensor<384x128xf32>
    %5144 = mhlo.add %5142, %5143 : tensor<384x128xf32>
    %5145 = "mhlo.reshape"(%5144) : (tensor<384x128xf32>) -> tensor<1x384x4x32xf32>
    %5146 = "mhlo.transpose"(%5145) {permutation = dense<[0, 2, 1, 3]> : tensor<4xi64>} : (tensor<1x384x4x32xf32>) -> tensor<1x4x384x32xf32>
    %5147 = "mhlo.dot_general"(%5146, %5141) {dot_dimension_numbers = #mhlo.dot<lhs_batching_dimensions = [0, 1], lhs_contracting_dimensions = [3], rhs_batching_dimensions = [0, 1], rhs_contracting_dimensions = [3]>} : (tensor<1x4x384x32xf32>, tensor<1x4x384x32xf32>) -> tensor<1x4x384x384xf32>
    %5148 = mhlo.multiply %5147, %1114 : tensor<1x4x384x384xf32>
    %5149 = "mhlo.broadcast_in_dim"(%2254) {broadcast_dimensions = dense<[0, 1, 2, 3]> : tensor<4xi64>} : (tensor<1x1x384x384xf32>) -> tensor<1x4x384x384xf32>
    %5150 = mhlo.add %5148, %5149 : tensor<1x4x384x384xf32>
    %5151 = "mhlo.reduce"(%5150, %1117) ( {
    ^bb0(%arg3: tensor<f32>, %arg4: tensor<f32>):  // no predecessors
      %5393 = mhlo.maximum %arg3, %arg4 : tensor<f32>
      "mhlo.return"(%5393) : (tensor<f32>) -> ()
    }) {dimensions = dense<3> : tensor<1xi64>} : (tensor<1x4x384x384xf32>, tensor<f32>) -> tensor<1x4x384xf32>
    %5152 = "mhlo.broadcast_in_dim"(%5151) {broadcast_dimensions = dense<[0, 1, 2]> : tensor<3xi64>} : (tensor<1x4x384xf32>) -> tensor<1x4x384x384xf32>
    %5153 = mhlo.subtract %5150, %5152 : tensor<1x4x384x384xf32>
    %5154 = "mhlo.exponential"(%5153) : (tensor<1x4x384x384xf32>) -> tensor<1x4x384x384xf32>
    %5155 = "mhlo.reduce"(%5154, %1118) ( {
    ^bb0(%arg3: tensor<f32>, %arg4: tensor<f32>):  // no predecessors
      %5393 = mhlo.add %arg3, %arg4 : tensor<f32>
      "mhlo.return"(%5393) : (tensor<f32>) -> ()
    }) {dimensions = dense<3> : tensor<1xi64>} : (tensor<1x4x384x384xf32>, tensor<f32>) -> tensor<1x4x384xf32>
    %5156 = "mhlo.broadcast_in_dim"(%5155) {broadcast_dimensions = dense<[0, 1, 2]> : tensor<3xi64>} : (tensor<1x4x384xf32>) -> tensor<1x4x384x384xf32>
    %5157 = mhlo.divide %5154, %5156 : tensor<1x4x384x384xf32>
    %5158 = "mhlo.dot_general"(%5157, %5127) {dot_dimension_numbers = #mhlo.dot<lhs_batching_dimensions = [0, 1], lhs_contracting_dimensions = [3], rhs_batching_dimensions = [0, 1], rhs_contracting_dimensions = [2]>} : (tensor<1x4x384x384xf32>, tensor<1x4x384x32xf32>) -> tensor<1x4x384x32xf32>
    %5159 = "mhlo.transpose"(%5158) {permutation = dense<[0, 2, 1, 3]> : tensor<4xi64>} : (tensor<1x4x384x32xf32>) -> tensor<1x384x4x32xf32>
    %5160 = "mhlo.reshape"(%5159) : (tensor<1x384x4x32xf32>) -> tensor<384x128xf32>
    %5161 = "mhlo.dot"(%5160, %1822) : (tensor<384x128xf32>, tensor<128x128xf32>) -> tensor<384x128xf32>
    %5162 = "mhlo.broadcast_in_dim"(%1821) {broadcast_dimensions = dense<1> : tensor<1xi64>} : (tensor<128xf32>) -> tensor<384x128xf32>
    %5163 = mhlo.add %5161, %5162 : tensor<384x128xf32>
    %5164 = "mhlo.reshape"(%5163) : (tensor<384x128xf32>) -> tensor<1x384x128xf32>
    %5165 = "mhlo.dot"(%5122, %1836) : (tensor<384x512xf32>, tensor<512x128xf32>) -> tensor<384x128xf32>
    %5166 = "mhlo.broadcast_in_dim"(%1835) {broadcast_dimensions = dense<1> : tensor<1xi64>} : (tensor<128xf32>) -> tensor<384x128xf32>
    %5167 = mhlo.add %5165, %5166 : tensor<384x128xf32>
    %5168 = "mhlo.reshape"(%5167) : (tensor<384x128xf32>) -> tensor<1x384x128xf32>
    %5169 = "mhlo.broadcast_in_dim"(%1834) {broadcast_dimensions = dense<2> : tensor<1xi64>} : (tensor<128xf32>) -> tensor<1x384x128xf32>
    %5170 = mhlo.multiply %5168, %5169 : tensor<1x384x128xf32>
    %5171 = "mhlo.broadcast_in_dim"(%1833) {broadcast_dimensions = dense<2> : tensor<1xi64>} : (tensor<128xf32>) -> tensor<1x384x128xf32>
    %5172 = mhlo.add %5170, %5171 : tensor<1x384x128xf32>
    %5173 = mhlo.add %5164, %5172 : tensor<1x384x128xf32>
    %5174 = "mhlo.broadcast_in_dim"(%1820) {broadcast_dimensions = dense<2> : tensor<1xi64>} : (tensor<128xf32>) -> tensor<1x384x128xf32>
    %5175 = mhlo.multiply %5173, %5174 : tensor<1x384x128xf32>
    %5176 = "mhlo.broadcast_in_dim"(%1819) {broadcast_dimensions = dense<2> : tensor<1xi64>} : (tensor<128xf32>) -> tensor<1x384x128xf32>
    %5177 = mhlo.add %5175, %5176 : tensor<1x384x128xf32>
    %5178 = "mhlo.reshape"(%5177) : (tensor<1x384x128xf32>) -> tensor<384x128xf32>
    %5179 = "mhlo.dot"(%5178, %1838) : (tensor<384x128xf32>, tensor<128x512xf32>) -> tensor<384x512xf32>
    %5180 = "mhlo.broadcast_in_dim"(%1837) {broadcast_dimensions = dense<1> : tensor<1xi64>} : (tensor<512xf32>) -> tensor<384x512xf32>
    %5181 = mhlo.add %5179, %5180 : tensor<384x512xf32>
    %5182 = "mhlo.reshape"(%5181) : (tensor<384x512xf32>) -> tensor<1x384x512xf32>
    %5183 = mhlo.maximum %5182, %1119 : tensor<1x384x512xf32>
    %5184 = "mhlo.reshape"(%5183) : (tensor<1x384x512xf32>) -> tensor<384x512xf32>
    %5185 = "mhlo.dot"(%5184, %1842) : (tensor<384x512xf32>, tensor<512x128xf32>) -> tensor<384x128xf32>
    %5186 = "mhlo.broadcast_in_dim"(%1841) {broadcast_dimensions = dense<1> : tensor<1xi64>} : (tensor<128xf32>) -> tensor<384x128xf32>
    %5187 = mhlo.add %5185, %5186 : tensor<384x128xf32>
    %5188 = "mhlo.reshape"(%5187) : (tensor<384x128xf32>) -> tensor<1x384x128xf32>
    %5189 = mhlo.add %5188, %5177 : tensor<1x384x128xf32>
    %5190 = "mhlo.broadcast_in_dim"(%1840) {broadcast_dimensions = dense<2> : tensor<1xi64>} : (tensor<128xf32>) -> tensor<1x384x128xf32>
    %5191 = mhlo.multiply %5189, %5190 : tensor<1x384x128xf32>
    %5192 = "mhlo.broadcast_in_dim"(%1839) {broadcast_dimensions = dense<2> : tensor<1xi64>} : (tensor<128xf32>) -> tensor<1x384x128xf32>
    %5193 = mhlo.add %5191, %5192 : tensor<1x384x128xf32>
    %5194 = "mhlo.reshape"(%5193) : (tensor<1x384x128xf32>) -> tensor<384x128xf32>
    %5195 = "mhlo.dot"(%5194, %1844) : (tensor<384x128xf32>, tensor<128x512xf32>) -> tensor<384x512xf32>
    %5196 = "mhlo.broadcast_in_dim"(%1843) {broadcast_dimensions = dense<1> : tensor<1xi64>} : (tensor<512xf32>) -> tensor<384x512xf32>
    %5197 = mhlo.add %5195, %5196 : tensor<384x512xf32>
    %5198 = "mhlo.reshape"(%5197) : (tensor<384x512xf32>) -> tensor<1x384x512xf32>
    %5199 = mhlo.maximum %5198, %1119 : tensor<1x384x512xf32>
    %5200 = "mhlo.reshape"(%5199) : (tensor<1x384x512xf32>) -> tensor<384x512xf32>
    %5201 = "mhlo.dot"(%5200, %1848) : (tensor<384x512xf32>, tensor<512x128xf32>) -> tensor<384x128xf32>
    %5202 = "mhlo.broadcast_in_dim"(%1847) {broadcast_dimensions = dense<1> : tensor<1xi64>} : (tensor<128xf32>) -> tensor<384x128xf32>
    %5203 = mhlo.add %5201, %5202 : tensor<384x128xf32>
    %5204 = "mhlo.reshape"(%5203) : (tensor<384x128xf32>) -> tensor<1x384x128xf32>
    %5205 = mhlo.add %5204, %5193 : tensor<1x384x128xf32>
    %5206 = "mhlo.broadcast_in_dim"(%1846) {broadcast_dimensions = dense<2> : tensor<1xi64>} : (tensor<128xf32>) -> tensor<1x384x128xf32>
    %5207 = mhlo.multiply %5205, %5206 : tensor<1x384x128xf32>
    %5208 = "mhlo.broadcast_in_dim"(%1845) {broadcast_dimensions = dense<2> : tensor<1xi64>} : (tensor<128xf32>) -> tensor<1x384x128xf32>
    %5209 = mhlo.add %5207, %5208 : tensor<1x384x128xf32>
    %5210 = "mhlo.reshape"(%5209) : (tensor<1x384x128xf32>) -> tensor<384x128xf32>
    %5211 = "mhlo.dot"(%5210, %1850) : (tensor<384x128xf32>, tensor<128x512xf32>) -> tensor<384x512xf32>
    %5212 = "mhlo.broadcast_in_dim"(%1849) {broadcast_dimensions = dense<1> : tensor<1xi64>} : (tensor<512xf32>) -> tensor<384x512xf32>
    %5213 = mhlo.add %5211, %5212 : tensor<384x512xf32>
    %5214 = "mhlo.reshape"(%5213) : (tensor<384x512xf32>) -> tensor<1x384x512xf32>
    %5215 = mhlo.maximum %5214, %1119 : tensor<1x384x512xf32>
    %5216 = "mhlo.reshape"(%5215) : (tensor<1x384x512xf32>) -> tensor<384x512xf32>
    %5217 = "mhlo.dot"(%5216, %1854) : (tensor<384x512xf32>, tensor<512x128xf32>) -> tensor<384x128xf32>
    %5218 = "mhlo.broadcast_in_dim"(%1853) {broadcast_dimensions = dense<1> : tensor<1xi64>} : (tensor<128xf32>) -> tensor<384x128xf32>
    %5219 = mhlo.add %5217, %5218 : tensor<384x128xf32>
    %5220 = "mhlo.reshape"(%5219) : (tensor<384x128xf32>) -> tensor<1x384x128xf32>
    %5221 = mhlo.add %5220, %5209 : tensor<1x384x128xf32>
    %5222 = "mhlo.broadcast_in_dim"(%1852) {broadcast_dimensions = dense<2> : tensor<1xi64>} : (tensor<128xf32>) -> tensor<1x384x128xf32>
    %5223 = mhlo.multiply %5221, %5222 : tensor<1x384x128xf32>
    %5224 = "mhlo.broadcast_in_dim"(%1851) {broadcast_dimensions = dense<2> : tensor<1xi64>} : (tensor<128xf32>) -> tensor<1x384x128xf32>
    %5225 = mhlo.add %5223, %5224 : tensor<1x384x128xf32>
    %5226 = "mhlo.reshape"(%5225) : (tensor<1x384x128xf32>) -> tensor<384x128xf32>
    %5227 = "mhlo.dot"(%5226, %1856) : (tensor<384x128xf32>, tensor<128x512xf32>) -> tensor<384x512xf32>
    %5228 = "mhlo.broadcast_in_dim"(%1855) {broadcast_dimensions = dense<1> : tensor<1xi64>} : (tensor<512xf32>) -> tensor<384x512xf32>
    %5229 = mhlo.add %5227, %5228 : tensor<384x512xf32>
    %5230 = "mhlo.reshape"(%5229) : (tensor<384x512xf32>) -> tensor<1x384x512xf32>
    %5231 = mhlo.maximum %5230, %1119 : tensor<1x384x512xf32>
    %5232 = "mhlo.reshape"(%5231) : (tensor<1x384x512xf32>) -> tensor<384x512xf32>
    %5233 = "mhlo.dot"(%5232, %1864) : (tensor<384x512xf32>, tensor<512x128xf32>) -> tensor<384x128xf32>
    %5234 = "mhlo.broadcast_in_dim"(%1863) {broadcast_dimensions = dense<1> : tensor<1xi64>} : (tensor<128xf32>) -> tensor<384x128xf32>
    %5235 = mhlo.add %5233, %5234 : tensor<384x128xf32>
    %5236 = "mhlo.reshape"(%5235) : (tensor<384x128xf32>) -> tensor<1x384x128xf32>
    %5237 = mhlo.add %5236, %5225 : tensor<1x384x128xf32>
    %5238 = "mhlo.broadcast_in_dim"(%1858) {broadcast_dimensions = dense<2> : tensor<1xi64>} : (tensor<128xf32>) -> tensor<1x384x128xf32>
    %5239 = mhlo.multiply %5237, %5238 : tensor<1x384x128xf32>
    %5240 = "mhlo.broadcast_in_dim"(%1857) {broadcast_dimensions = dense<2> : tensor<1xi64>} : (tensor<128xf32>) -> tensor<1x384x128xf32>
    %5241 = mhlo.add %5239, %5240 : tensor<1x384x128xf32>
    %5242 = "mhlo.reshape"(%5241) : (tensor<1x384x128xf32>) -> tensor<384x128xf32>
    %5243 = "mhlo.dot"(%5242, %1862) : (tensor<384x128xf32>, tensor<128x512xf32>) -> tensor<384x512xf32>
    %5244 = "mhlo.broadcast_in_dim"(%1861) {broadcast_dimensions = dense<1> : tensor<1xi64>} : (tensor<512xf32>) -> tensor<384x512xf32>
    %5245 = mhlo.add %5243, %5244 : tensor<384x512xf32>
    %5246 = "mhlo.reshape"(%5245) : (tensor<384x512xf32>) -> tensor<1x384x512xf32>
    %5247 = mhlo.add %5246, %5121 : tensor<1x384x512xf32>
    %5248 = "mhlo.broadcast_in_dim"(%1860) {broadcast_dimensions = dense<2> : tensor<1xi64>} : (tensor<512xf32>) -> tensor<1x384x512xf32>
    %5249 = mhlo.multiply %5247, %5248 : tensor<1x384x512xf32>
    %5250 = "mhlo.broadcast_in_dim"(%1859) {broadcast_dimensions = dense<2> : tensor<1xi64>} : (tensor<512xf32>) -> tensor<1x384x512xf32>
    %5251 = mhlo.add %5249, %5250 : tensor<1x384x512xf32>
    %5252 = "mhlo.reshape"(%5251) : (tensor<1x384x512xf32>) -> tensor<384x512xf32>
    %5253 = "mhlo.dot"(%5252, %1874) : (tensor<384x512xf32>, tensor<512x128xf32>) -> tensor<384x128xf32>
    %5254 = "mhlo.broadcast_in_dim"(%1873) {broadcast_dimensions = dense<1> : tensor<1xi64>} : (tensor<128xf32>) -> tensor<384x128xf32>
    %5255 = mhlo.add %5253, %5254 : tensor<384x128xf32>
    %5256 = "mhlo.reshape"(%5255) : (tensor<384x128xf32>) -> tensor<1x384x4x32xf32>
    %5257 = "mhlo.transpose"(%5256) {permutation = dense<[0, 2, 1, 3]> : tensor<4xi64>} : (tensor<1x384x4x32xf32>) -> tensor<1x4x384x32xf32>
    %5258 = "mhlo.dot"(%5252, %1878) : (tensor<384x512xf32>, tensor<512x128xf32>) -> tensor<384x128xf32>
    %5259 = "mhlo.reshape"(%5258) : (tensor<384x128xf32>) -> tensor<1x384x128xf32>
    %5260 = "mhlo.broadcast_in_dim"(%1877) {broadcast_dimensions = dense<2> : tensor<1xi64>} : (tensor<128xf32>) -> tensor<1x384x128xf32>
    %5261 = mhlo.add %5259, %5260 : tensor<1x384x128xf32>
    %5262 = "mhlo.broadcast_in_dim"(%1876) {broadcast_dimensions = dense<2> : tensor<1xi64>} : (tensor<128xf32>) -> tensor<1x384x128xf32>
    %5263 = mhlo.multiply %5261, %5262 : tensor<1x384x128xf32>
    %5264 = "mhlo.broadcast_in_dim"(%1875) {broadcast_dimensions = dense<2> : tensor<1xi64>} : (tensor<128xf32>) -> tensor<1x384x128xf32>
    %5265 = mhlo.add %5263, %5264 : tensor<1x384x128xf32>
    %5266 = "mhlo.reshape"(%5265) : (tensor<1x384x128xf32>) -> tensor<384x128xf32>
    %5267 = "mhlo.dot"(%5266, %1870) : (tensor<384x128xf32>, tensor<128x128xf32>) -> tensor<384x128xf32>
    %5268 = "mhlo.broadcast_in_dim"(%1869) {broadcast_dimensions = dense<1> : tensor<1xi64>} : (tensor<128xf32>) -> tensor<384x128xf32>
    %5269 = mhlo.add %5267, %5268 : tensor<384x128xf32>
    %5270 = "mhlo.reshape"(%5269) : (tensor<384x128xf32>) -> tensor<1x384x4x32xf32>
    %5271 = "mhlo.transpose"(%5270) {permutation = dense<[0, 2, 1, 3]> : tensor<4xi64>} : (tensor<1x384x4x32xf32>) -> tensor<1x4x384x32xf32>
    %5272 = "mhlo.dot"(%5266, %1872) : (tensor<384x128xf32>, tensor<128x128xf32>) -> tensor<384x128xf32>
    %5273 = "mhlo.broadcast_in_dim"(%1871) {broadcast_dimensions = dense<1> : tensor<1xi64>} : (tensor<128xf32>) -> tensor<384x128xf32>
    %5274 = mhlo.add %5272, %5273 : tensor<384x128xf32>
    %5275 = "mhlo.reshape"(%5274) : (tensor<384x128xf32>) -> tensor<1x384x4x32xf32>
    %5276 = "mhlo.transpose"(%5275) {permutation = dense<[0, 2, 1, 3]> : tensor<4xi64>} : (tensor<1x384x4x32xf32>) -> tensor<1x4x384x32xf32>
    %5277 = "mhlo.dot_general"(%5276, %5271) {dot_dimension_numbers = #mhlo.dot<lhs_batching_dimensions = [0, 1], lhs_contracting_dimensions = [3], rhs_batching_dimensions = [0, 1], rhs_contracting_dimensions = [3]>} : (tensor<1x4x384x32xf32>, tensor<1x4x384x32xf32>) -> tensor<1x4x384x384xf32>
    %5278 = mhlo.multiply %5277, %1114 : tensor<1x4x384x384xf32>
    %5279 = "mhlo.broadcast_in_dim"(%2254) {broadcast_dimensions = dense<[0, 1, 2, 3]> : tensor<4xi64>} : (tensor<1x1x384x384xf32>) -> tensor<1x4x384x384xf32>
    %5280 = mhlo.add %5278, %5279 : tensor<1x4x384x384xf32>
    %5281 = "mhlo.reduce"(%5280, %1117) ( {
    ^bb0(%arg3: tensor<f32>, %arg4: tensor<f32>):  // no predecessors
      %5393 = mhlo.maximum %arg3, %arg4 : tensor<f32>
      "mhlo.return"(%5393) : (tensor<f32>) -> ()
    }) {dimensions = dense<3> : tensor<1xi64>} : (tensor<1x4x384x384xf32>, tensor<f32>) -> tensor<1x4x384xf32>
    %5282 = "mhlo.broadcast_in_dim"(%5281) {broadcast_dimensions = dense<[0, 1, 2]> : tensor<3xi64>} : (tensor<1x4x384xf32>) -> tensor<1x4x384x384xf32>
    %5283 = mhlo.subtract %5280, %5282 : tensor<1x4x384x384xf32>
    %5284 = "mhlo.exponential"(%5283) : (tensor<1x4x384x384xf32>) -> tensor<1x4x384x384xf32>
    %5285 = "mhlo.reduce"(%5284, %1118) ( {
    ^bb0(%arg3: tensor<f32>, %arg4: tensor<f32>):  // no predecessors
      %5393 = mhlo.add %arg3, %arg4 : tensor<f32>
      "mhlo.return"(%5393) : (tensor<f32>) -> ()
    }) {dimensions = dense<3> : tensor<1xi64>} : (tensor<1x4x384x384xf32>, tensor<f32>) -> tensor<1x4x384xf32>
    %5286 = "mhlo.broadcast_in_dim"(%5285) {broadcast_dimensions = dense<[0, 1, 2]> : tensor<3xi64>} : (tensor<1x4x384xf32>) -> tensor<1x4x384x384xf32>
    %5287 = mhlo.divide %5284, %5286 : tensor<1x4x384x384xf32>
    %5288 = "mhlo.dot_general"(%5287, %5257) {dot_dimension_numbers = #mhlo.dot<lhs_batching_dimensions = [0, 1], lhs_contracting_dimensions = [3], rhs_batching_dimensions = [0, 1], rhs_contracting_dimensions = [2]>} : (tensor<1x4x384x384xf32>, tensor<1x4x384x32xf32>) -> tensor<1x4x384x32xf32>
    %5289 = "mhlo.transpose"(%5288) {permutation = dense<[0, 2, 1, 3]> : tensor<4xi64>} : (tensor<1x4x384x32xf32>) -> tensor<1x384x4x32xf32>
    %5290 = "mhlo.reshape"(%5289) : (tensor<1x384x4x32xf32>) -> tensor<384x128xf32>
    %5291 = "mhlo.dot"(%5290, %1868) : (tensor<384x128xf32>, tensor<128x128xf32>) -> tensor<384x128xf32>
    %5292 = "mhlo.broadcast_in_dim"(%1867) {broadcast_dimensions = dense<1> : tensor<1xi64>} : (tensor<128xf32>) -> tensor<384x128xf32>
    %5293 = mhlo.add %5291, %5292 : tensor<384x128xf32>
    %5294 = "mhlo.reshape"(%5293) : (tensor<384x128xf32>) -> tensor<1x384x128xf32>
    %5295 = "mhlo.dot"(%5252, %1882) : (tensor<384x512xf32>, tensor<512x128xf32>) -> tensor<384x128xf32>
    %5296 = "mhlo.broadcast_in_dim"(%1881) {broadcast_dimensions = dense<1> : tensor<1xi64>} : (tensor<128xf32>) -> tensor<384x128xf32>
    %5297 = mhlo.add %5295, %5296 : tensor<384x128xf32>
    %5298 = "mhlo.reshape"(%5297) : (tensor<384x128xf32>) -> tensor<1x384x128xf32>
    %5299 = "mhlo.broadcast_in_dim"(%1880) {broadcast_dimensions = dense<2> : tensor<1xi64>} : (tensor<128xf32>) -> tensor<1x384x128xf32>
    %5300 = mhlo.multiply %5298, %5299 : tensor<1x384x128xf32>
    %5301 = "mhlo.broadcast_in_dim"(%1879) {broadcast_dimensions = dense<2> : tensor<1xi64>} : (tensor<128xf32>) -> tensor<1x384x128xf32>
    %5302 = mhlo.add %5300, %5301 : tensor<1x384x128xf32>
    %5303 = mhlo.add %5294, %5302 : tensor<1x384x128xf32>
    %5304 = "mhlo.broadcast_in_dim"(%1866) {broadcast_dimensions = dense<2> : tensor<1xi64>} : (tensor<128xf32>) -> tensor<1x384x128xf32>
    %5305 = mhlo.multiply %5303, %5304 : tensor<1x384x128xf32>
    %5306 = "mhlo.broadcast_in_dim"(%1865) {broadcast_dimensions = dense<2> : tensor<1xi64>} : (tensor<128xf32>) -> tensor<1x384x128xf32>
    %5307 = mhlo.add %5305, %5306 : tensor<1x384x128xf32>
    %5308 = "mhlo.reshape"(%5307) : (tensor<1x384x128xf32>) -> tensor<384x128xf32>
    %5309 = "mhlo.dot"(%5308, %1884) : (tensor<384x128xf32>, tensor<128x512xf32>) -> tensor<384x512xf32>
    %5310 = "mhlo.broadcast_in_dim"(%1883) {broadcast_dimensions = dense<1> : tensor<1xi64>} : (tensor<512xf32>) -> tensor<384x512xf32>
    %5311 = mhlo.add %5309, %5310 : tensor<384x512xf32>
    %5312 = "mhlo.reshape"(%5311) : (tensor<384x512xf32>) -> tensor<1x384x512xf32>
    %5313 = mhlo.maximum %5312, %1119 : tensor<1x384x512xf32>
    %5314 = "mhlo.reshape"(%5313) : (tensor<1x384x512xf32>) -> tensor<384x512xf32>
    %5315 = "mhlo.dot"(%5314, %1888) : (tensor<384x512xf32>, tensor<512x128xf32>) -> tensor<384x128xf32>
    %5316 = "mhlo.broadcast_in_dim"(%1887) {broadcast_dimensions = dense<1> : tensor<1xi64>} : (tensor<128xf32>) -> tensor<384x128xf32>
    %5317 = mhlo.add %5315, %5316 : tensor<384x128xf32>
    %5318 = "mhlo.reshape"(%5317) : (tensor<384x128xf32>) -> tensor<1x384x128xf32>
    %5319 = mhlo.add %5318, %5307 : tensor<1x384x128xf32>
    %5320 = "mhlo.broadcast_in_dim"(%1886) {broadcast_dimensions = dense<2> : tensor<1xi64>} : (tensor<128xf32>) -> tensor<1x384x128xf32>
    %5321 = mhlo.multiply %5319, %5320 : tensor<1x384x128xf32>
    %5322 = "mhlo.broadcast_in_dim"(%1885) {broadcast_dimensions = dense<2> : tensor<1xi64>} : (tensor<128xf32>) -> tensor<1x384x128xf32>
    %5323 = mhlo.add %5321, %5322 : tensor<1x384x128xf32>
    %5324 = "mhlo.reshape"(%5323) : (tensor<1x384x128xf32>) -> tensor<384x128xf32>
    %5325 = "mhlo.dot"(%5324, %1890) : (tensor<384x128xf32>, tensor<128x512xf32>) -> tensor<384x512xf32>
    %5326 = "mhlo.broadcast_in_dim"(%1889) {broadcast_dimensions = dense<1> : tensor<1xi64>} : (tensor<512xf32>) -> tensor<384x512xf32>
    %5327 = mhlo.add %5325, %5326 : tensor<384x512xf32>
    %5328 = "mhlo.reshape"(%5327) : (tensor<384x512xf32>) -> tensor<1x384x512xf32>
    %5329 = mhlo.maximum %5328, %1119 : tensor<1x384x512xf32>
    %5330 = "mhlo.reshape"(%5329) : (tensor<1x384x512xf32>) -> tensor<384x512xf32>
    %5331 = "mhlo.dot"(%5330, %1894) : (tensor<384x512xf32>, tensor<512x128xf32>) -> tensor<384x128xf32>
    %5332 = "mhlo.broadcast_in_dim"(%1893) {broadcast_dimensions = dense<1> : tensor<1xi64>} : (tensor<128xf32>) -> tensor<384x128xf32>
    %5333 = mhlo.add %5331, %5332 : tensor<384x128xf32>
    %5334 = "mhlo.reshape"(%5333) : (tensor<384x128xf32>) -> tensor<1x384x128xf32>
    %5335 = mhlo.add %5334, %5323 : tensor<1x384x128xf32>
    %5336 = "mhlo.broadcast_in_dim"(%1892) {broadcast_dimensions = dense<2> : tensor<1xi64>} : (tensor<128xf32>) -> tensor<1x384x128xf32>
    %5337 = mhlo.multiply %5335, %5336 : tensor<1x384x128xf32>
    %5338 = "mhlo.broadcast_in_dim"(%1891) {broadcast_dimensions = dense<2> : tensor<1xi64>} : (tensor<128xf32>) -> tensor<1x384x128xf32>
    %5339 = mhlo.add %5337, %5338 : tensor<1x384x128xf32>
    %5340 = "mhlo.reshape"(%5339) : (tensor<1x384x128xf32>) -> tensor<384x128xf32>
    %5341 = "mhlo.dot"(%5340, %1896) : (tensor<384x128xf32>, tensor<128x512xf32>) -> tensor<384x512xf32>
    %5342 = "mhlo.broadcast_in_dim"(%1895) {broadcast_dimensions = dense<1> : tensor<1xi64>} : (tensor<512xf32>) -> tensor<384x512xf32>
    %5343 = mhlo.add %5341, %5342 : tensor<384x512xf32>
    %5344 = "mhlo.reshape"(%5343) : (tensor<384x512xf32>) -> tensor<1x384x512xf32>
    %5345 = mhlo.maximum %5344, %1119 : tensor<1x384x512xf32>
    %5346 = "mhlo.reshape"(%5345) : (tensor<1x384x512xf32>) -> tensor<384x512xf32>
    %5347 = "mhlo.dot"(%5346, %1900) : (tensor<384x512xf32>, tensor<512x128xf32>) -> tensor<384x128xf32>
    %5348 = "mhlo.broadcast_in_dim"(%1899) {broadcast_dimensions = dense<1> : tensor<1xi64>} : (tensor<128xf32>) -> tensor<384x128xf32>
    %5349 = mhlo.add %5347, %5348 : tensor<384x128xf32>
    %5350 = "mhlo.reshape"(%5349) : (tensor<384x128xf32>) -> tensor<1x384x128xf32>
    %5351 = mhlo.add %5350, %5339 : tensor<1x384x128xf32>
    %5352 = "mhlo.broadcast_in_dim"(%1898) {broadcast_dimensions = dense<2> : tensor<1xi64>} : (tensor<128xf32>) -> tensor<1x384x128xf32>
    %5353 = mhlo.multiply %5351, %5352 : tensor<1x384x128xf32>
    %5354 = "mhlo.broadcast_in_dim"(%1897) {broadcast_dimensions = dense<2> : tensor<1xi64>} : (tensor<128xf32>) -> tensor<1x384x128xf32>
    %5355 = mhlo.add %5353, %5354 : tensor<1x384x128xf32>
    %5356 = "mhlo.reshape"(%5355) : (tensor<1x384x128xf32>) -> tensor<384x128xf32>
    %5357 = "mhlo.dot"(%5356, %1902) : (tensor<384x128xf32>, tensor<128x512xf32>) -> tensor<384x512xf32>
    %5358 = "mhlo.broadcast_in_dim"(%1901) {broadcast_dimensions = dense<1> : tensor<1xi64>} : (tensor<512xf32>) -> tensor<384x512xf32>
    %5359 = mhlo.add %5357, %5358 : tensor<384x512xf32>
    %5360 = "mhlo.reshape"(%5359) : (tensor<384x512xf32>) -> tensor<1x384x512xf32>
    %5361 = mhlo.maximum %5360, %1119 : tensor<1x384x512xf32>
    %5362 = "mhlo.reshape"(%5361) : (tensor<1x384x512xf32>) -> tensor<384x512xf32>
    %5363 = "mhlo.dot"(%5362, %1910) : (tensor<384x512xf32>, tensor<512x128xf32>) -> tensor<384x128xf32>
    %5364 = "mhlo.broadcast_in_dim"(%1909) {broadcast_dimensions = dense<1> : tensor<1xi64>} : (tensor<128xf32>) -> tensor<384x128xf32>
    %5365 = mhlo.add %5363, %5364 : tensor<384x128xf32>
    %5366 = "mhlo.reshape"(%5365) : (tensor<384x128xf32>) -> tensor<1x384x128xf32>
    %5367 = mhlo.add %5366, %5355 : tensor<1x384x128xf32>
    %5368 = "mhlo.broadcast_in_dim"(%1904) {broadcast_dimensions = dense<2> : tensor<1xi64>} : (tensor<128xf32>) -> tensor<1x384x128xf32>
    %5369 = mhlo.multiply %5367, %5368 : tensor<1x384x128xf32>
    %5370 = "mhlo.broadcast_in_dim"(%1903) {broadcast_dimensions = dense<2> : tensor<1xi64>} : (tensor<128xf32>) -> tensor<1x384x128xf32>
    %5371 = mhlo.add %5369, %5370 : tensor<1x384x128xf32>
    %5372 = "mhlo.reshape"(%5371) : (tensor<1x384x128xf32>) -> tensor<384x128xf32>
    %5373 = "mhlo.dot"(%5372, %1908) : (tensor<384x128xf32>, tensor<128x512xf32>) -> tensor<384x512xf32>
    %5374 = "mhlo.broadcast_in_dim"(%1907) {broadcast_dimensions = dense<1> : tensor<1xi64>} : (tensor<512xf32>) -> tensor<384x512xf32>
    %5375 = mhlo.add %5373, %5374 : tensor<384x512xf32>
    %5376 = "mhlo.reshape"(%5375) : (tensor<384x512xf32>) -> tensor<1x384x512xf32>
    %5377 = mhlo.add %5376, %5251 : tensor<1x384x512xf32>
    %5378 = "mhlo.broadcast_in_dim"(%1906) {broadcast_dimensions = dense<2> : tensor<1xi64>} : (tensor<512xf32>) -> tensor<1x384x512xf32>
    %5379 = mhlo.multiply %5377, %5378 : tensor<1x384x512xf32>
    %5380 = "mhlo.broadcast_in_dim"(%1905) {broadcast_dimensions = dense<2> : tensor<1xi64>} : (tensor<512xf32>) -> tensor<1x384x512xf32>
    %5381 = mhlo.add %5379, %5380 : tensor<1x384x512xf32>
    %5382 = "mhlo.reshape"(%5381) : (tensor<1x384x512xf32>) -> tensor<384x512xf32>
    %5383 = "mhlo.transpose"(%2234) {permutation = dense<[1, 0]> : tensor<2xi64>} : (tensor<2x512xf32>) -> tensor<512x2xf32>
    %5384 = "mhlo.dot"(%5382, %5383) : (tensor<384x512xf32>, tensor<512x2xf32>) -> tensor<384x2xf32>
    %5385 = "mhlo.broadcast_in_dim"(%2233) {broadcast_dimensions = dense<1> : tensor<1xi64>} : (tensor<2xf32>) -> tensor<384x2xf32>
    %5386 = mhlo.add %5384, %5385 : tensor<384x2xf32>
    %5387 = "mhlo.reshape"(%5386) : (tensor<384x2xf32>) -> tensor<1x384x2xf32>
    %5388 = "mhlo.transpose"(%5387) {permutation = dense<[2, 0, 1]> : tensor<3xi64>} : (tensor<1x384x2xf32>) -> tensor<2x1x384xf32>
    %5389 = "mhlo.slice"(%5388) {limit_indices = dense<[1, 1, 384]> : tensor<3xi64>, start_indices = dense<0> : tensor<3xi64>, strides = dense<1> : tensor<3xi64>} : (tensor<2x1x384xf32>) -> tensor<1x1x384xf32>
    %5390 = "mhlo.reshape"(%5389) : (tensor<1x1x384xf32>) -> tensor<1x384xf32>
    %5391 = "mhlo.slice"(%5388) {limit_indices = dense<[2, 1, 384]> : tensor<3xi64>, start_indices = dense<[1, 0, 0]> : tensor<3xi64>, strides = dense<1> : tensor<3xi64>} : (tensor<2x1x384xf32>) -> tensor<1x1x384xf32>
    %5392 = "mhlo.reshape"(%5391) : (tensor<1x1x384xf32>) -> tensor<1x384xf32>
    check.expect_almost_eq_const(%5390, dense<895.1307> : tensor<1x384xf32>) : tensor<1x384xf32>
    check.expect_almost_eq_const(%5392, dense<895.1307> : tensor<1x384xf32>) : tensor<1x384xf32>
    return
  }
}
