#map = affine_map<(d0, d1) -> (d0, d1)>
#map1 = affine_map<(d0, d1) -> (d0)>
func.func @matmul_reduction(%lhs : tensor<16x16xf16>, %rhs : tensor<16x8xf16>) -> tensor<16x8xf16> {
  %c0 = arith.constant 0.0 : f16
  %c1 = arith.constant -1.0e+04 : f16
  %acc = tensor.empty() : tensor<16xf16>
  %init = linalg.fill ins(%c1 : f16) outs(%acc : tensor<16xf16>) -> tensor<16xf16>
  %0 = tensor.empty() : tensor<16x8xf16>
  %1 = linalg.fill ins(%c0 : f16) outs(%0 : tensor<16x8xf16>) -> tensor<16x8xf16>
  %2 = linalg.matmul ins(%lhs, %rhs : tensor<16x16xf16>, tensor<16x8xf16>)
      outs(%1 : tensor<16x8xf16>) -> tensor<16x8xf16>
  %6 = linalg.generic {indexing_maps = [#map, #map1], iterator_types = ["parallel", "reduction"]}
        ins(%2 : tensor<16x8xf16>) outs(%init : tensor<16xf16>) {
        ^bb0(%in: f16, %out: f16):
          %20 = arith.maxf %in, %out : f16
          linalg.yield %20 : f16
        } -> tensor<16xf16>
  %8 = linalg.generic {indexing_maps = [#map1, #map], iterator_types=["parallel", "parallel"]}
        ins(%6 : tensor<16xf16>) outs(%0 : tensor<16x8xf16>) {
        ^bb0(%in: f16,  %out: f16):
          linalg.yield %in : f16
        } -> tensor<16x8xf16>
  return %8 : tensor<16x8xf16>
}

// RUN: iree-compile %s --iree-hal-target-backends=cuda \
// RUN:     --iree-hal-cuda-llvm-target-arch=sm_80 \
// RUN:     --iree-codegen-llvmgpu-enable-transform-dialect-jit=false \
// RUN:     --iree-flow-dispatch-use-transform-dialect=%p/mma_reduction_layout_analysis_dispatch_spec.mlir \
// RUN:     --iree-codegen-llvmgpu-use-transform-dialect=%p/mma_reduction_layout_analysis_codegen_spec.mlir | \
// RUN: iree-run-module --function=matmul_reduction --device=cuda \
// RUN: --input="16x16xf16=[[… " \
// RUN: --input="16x8xf16=[[… " |\
// RUN: FileCheck %s --check-prefix=EXEC

//      EXEC: result[0]: hal.buffer_view
// EXEC-NEXT: 16x8xf16=[333 333 333 333 333 333 333 333][633 633 633 633 633 633 633 633][933 933 933 933 933 933 933 933][1233 1233 1233 1233 1233 1233 1233 1233][1533 1533 1533 1533 1533 1533 1533 1533][1833 1833 1833 1833 1833 1833 1833 1833][2134 2134 2134 2134 2134 2134 2134 2134][2434 2434 2434 2434 2434 2434 2434 2434][2734 2734 2734 2734 2734 2734 2734 2734][3034 3034 3034 3034 3034 3034 3034 3034][3334 3334 3334 3334 3334 3334 3334 3334][3634 3634 3634 3634 3634 3634 3634 3634][3934 3934 3934 3934 3934 3934 3934 3934][4232 4232 4232 4232 4232 4232 4232 4232][4532 4532 4532 4532 4532 4532 4532 4532][4832 4832 4832 4832 4832 4832 4832 4832]
